results/vae_models/Glass.pt (torch, 343751 bytes, 75 tensors)

dof f4 [9]
0	0x3ff2bbab	1.8963522
1	0x3fff816c	1.9961371
2	0x3fe93f56	1.8222454
3	0x3ff06e95	1.8783747
4	0x3e807da6	0.25095862
5	0x3fc21ae0	1.5164452
6	0x3feab92d	1.8337761
7	0x3f9436e5	1.1579252
8	0x3f4c0dd5	0.79708606

encoder_layer1.weight f4 [128, 9]
0	0xba034443	-0.0005007425
1	0xbb88f813	-0.0041799634
2	0xbc0a5b9e	-0.008444695
3	0x3ae55002	0.0017495158
4	0xbd1176f7	-0.035513844
5	0xba89b098	-0.00105049
6	0xbc1b5a84	-0.00948203
7	0x3a354bdb	0.00069159054
8	0xb90b74ef	-0.00013299634
9	0xb9d36e29	-0.00040327132
10	0xbcabf4ee	-0.020990815
11	0xbb82cc01	-0.0039916043
12	0xbb490351	-0.0030672143
13	0x3b68b095	0.0035505642
14	0xba2f8a6d	-0.0006696347
15	0x3b5e648a	0.0033934438
16	0x3abbea0f	0.0014336723
17	0xb8899fe2	-6.5624496e-05
18	0xba3734cf	-0.0006988765
19	0xbc01b1e6	-0.007915949
20	0xbb993a38	-0.0046761297
21	0x39dbc3f5	0.00041916934
22	0xbd299096	-0.041397654
23	0xba1f8729	-0.0006085509
24	0xbbf24bb3	-0.007394278
25	0x39a73490	0.00031891884
26	0xb8ac3f9b	-8.2134466e-05
27	0x3cc07338	0.02349244
28	0xbe62b7af	-0.22140382
29	0x3efdff6c	0.49608934
30	0x3ef597aa	0.47967273
31	0x3e171e87	0.14757739
32	0x3eb5a43f	0.35476872
33	0xbf850040	-1.0390701
34	0xbe894289	-0.26808575
35	0xbd51c338	-0.051211566
36	0xba096c1e	-0.0005242246
37	0xbbdf453c	-0.0068136733
38	0xbb9d14bc	-0.0047937315
39	0x3a51a5d8	0.000799743
40	0xbd15f544	-0.036610857
41	0xba2eee06	-0.00066730415
42	0xbbe9cfed	-0.0071353824
43	0x3a064977	0.00051226415
44	0xb89fc962	-7.619221e-05
45	0x3b29a0c7	0.0025883184
46	0xbc611acc	-0.013739299
47	0x3bb3d21a	0.0054876925
48	0x3b0c677c	0.0021423986
49	0xbc3310dc	-0.010929313
50	0x3ae6fb82	0.0017622563
51	0xbc0139b3	-0.007887292
52	0x3948cebc	0.00019150501
53	0x3a91ecac	0.0011133156
54	0x39925b3f	0.00027915274
55	0x3cbcbf9f	0.02304059
56	0xbb9a816a	-0.0047151344
57	0x38e6a80a	0.00010998554
58	0xbb555fa8	-0.0032558236
59	0xbab7e844	-0.0014031013
60	0xbbe28fd8	-0.00691412
61	0xba9945d8	-0.0011693789
62	0xb9a29ac5	-0.0003101436
63	0x3b1d6c0a	0.0024020695
64	0x3dd8a29c	0.1057789
65	0x3d0eb4d6	0.034840427
66	0x3ad6e562	0.0016395266
67	0xbcb50e86	-0.022101652
68	0xba279304	-0.00063924515
69	0x3bae2197	0.005314063
70	0x3aeec8e0	0.0018217824
71	0xbac39ce5	-0.0014924078
72	0xba3b5dd8	-0.00071474677
73	0xbc019d0b	-0.007910977
74	0xbb72d246	-0.0037051602
75	0x38c95b73	9.6014606e-05
76	0xbd33a595	-0.043859083
77	0xba083be3	-0.0005196912
78	0xbbcb639e	-0.0062069437
79	0x39946187	0.00028301423
80	0xb84f9f9d	-4.9501297e-05
81	0xb92c8e49	-0.00016456204
82	0xbc539b42	-0.012915434
83	0xba935664	-0.0011240956
84	0xb8a814b4	-8.0147205e-05
85	0xbdc44146	-0.095827624
86	0xb845286b	-4.7006102e-05
87	0xbbcb4f9d	-0.006204559
88	0x37e7e0a2	2.7641949e-05
89	0xb56a06f4	-8.718191e-07
90	0xbd205fe5	-0.039153952
91	0xbebce0ff	-0.36890408
92	0xbf9b2ef3	-1.2123703
93	0x3d364d3a	0.044507243
94	0x3e3ceb98	0.18449247
95	0xbec8cc28	-0.3921826
96	0xbecd3ed0	-0.40086985
97	0x3d2ff981	0.042962555
98	0xbd4df731	-0.05028457
99	0xbbd9927a	-0.006639776
100	0xbe30fe10	-0.17284417
101	0xbd37a3e1	-0.04483402
102	0xbc94aa91	-0.018147739
103	0x3d54d8a2	0.05196441
104	0xba76c40a	-0.00094133674
105	0xbe16134c	-0.14655799
106	0xbc11ecea	-0.008906582
107	0x3ae2dd10	0.0017308313
108	0xbbc645f6	-0.0060508205
109	0xbd443bc9	-0.047908578
110	0x3eae6f4e	0.34069294
111	0xbd81ff05	-0.06347469
112	0x3d204a57	0.039133396
113	0x3d41823b	0.047243338
114	0xbea562cd	-0.32301942
115	0xbd1f5d03	-0.038907062
116	0x3b93d0ac	0.0045109596
117	0x3a5d182d	0.00084340834
118	0xba7b6738	-0.0009590271
119	0xbb84c4e1	-0.00405179
120	0x3b5d9a5e	0.0033813934
121	0xbc7ca2ca	-0.015419671
122	0xb998553b	-0.000290552
123	0xbab5c009	-0.0013866435
124	0x3a9fad71	0.0012182427
125	0x3906b792	0.00012847621
126	0xba3895a5	-0.0007041342
127	0xbbf99ca7	-0.0076175514
128	0xbb743bd6	-0.003726711
129	0x390447a4	0.00012615189
130	0xbd3151fb	-0.043291073
131	0xba0e0d9a	-0.0005418897
132	0xbbd02c92	-0.0063529694
133	0x3992fcdd	0.00028035688
134	0xb88fb520	-6.8525085e-05
135	0x39ee96e7	0.00045507328
136	0xbc9ac2bc	-0.018891685
137	0x3c30af8f	0.010784044
138	0xba17c326	-0.0005789272
139	0x3b7bb003	0.0038404472
140	0x3b91c694	0.004448721
141	0xbc6f3130	-0.01459913
142	0xba805666	-0.0009791374
143	0x3a65e32b	0.00087695074
144	0xbab858c2	-0.0014064538
145	0x3e8d0a98	0.27547145
146	0xbe11e71d	-0.14248319
147	0x3ddb343a	0.10703321
148	0xbb83e5f6	-0.004025216
149	0xbd283ecf	-0.041075524
150	0xbeb5b8ec	-0.35492647
151	0x3cf6b79a	0.030116845
152	0xbcabc8b3	-0.020969724
153	0xba856902	-0.001017839
154	0xbc274734	-0.010209847
155	0xbb837720	-0.0040120035
156	0xb97e6f4c	-0.00024264789
157	0xbd585a59	-0.052820537
158	0xba0455be	-0.0005048177
159	0xbc0efc6e	-0.008727176
160	0x3887ce34	6.47571e-05
161	0xb8b3073f	-8.536735e-05
162	0x3a7332be	0.00092772755
163	0x3dc9e747	0.09858566
164	0xbc207567	-0.009793616
165	0x3bbbee7c	0.0057352167
166	0xbc5ccd85	-0.013476734
167	0x390bfe0b	0.00013350711
168	0xbd11ead4	-0.03562434
169	0xbb5c2973	-0.0033594042
170	0xbaebc7f7	-0.0017988671
171	0x3b862944	0.0040942747
172	0x3c052240	0.008125842
173	0x3b7a8bba	0.0038230256
174	0x3b9c8104	0.004776122
175	0xbbebf7d2	-0.0072011733
176	0x3ac25aae	0.001482805
177	0x3c2a1aca	0.010382364
178	0x3ac08a5e	0.0014689674
179	0x3a4b5514	0.0007756513
180	0xba599967	-0.0008300752
181	0xbc0ec64c	-0.00871427
182	0xbb883c6c	-0.0041575935
183	0x37fe42ea	3.0310319e-05
184	0xbd3c86ac	-0.04602687
185	0xba102937	-0.00054993056
186	0xbbeba1b6	-0.0071909083
187	0x395697a2	0.00020465118
188	0xb8a49802	-7.848443e-05
189	0xbc90537e	-0.017617937
190	0xbeed5f9e	-0.46362013
191	0x3dae65b9	0.08515496
192	0xbdfcae49	-0.1233793
193	0x3e03c090	0.12866426
194	0x3d1e184e	0.038597398
195	0xbeb880f6	-0.3603589
196	0xbd75af75	-0.059981782
197	0x3cce5e44	0.025191434
198	0xba5c3133	-0.0008399665
199	0xbc0fd8a5	-0.008779679
200	0xbb873f05	-0.0041273856
201	0x36c1861c	5.7674606e-06
202	0xbd3e7943	-0.046502363
203	0xba1120d0	-0.00055362005
204	0xbbecd353	-0.0072273402
205	0x39589a95	0.00020656952
206	0xb8a31f6d	-7.778299e-05
207	0xbaca86fe	-0.0015451608
208	0x3d946721	0.07246233
209	0x3b223698	0.0024751779
210	0x3cc3995b	0.023876837
211	0x3c3a1e7d	0.011359808
212	0xbb9f3b62	-0.004859374
213	0xbe5d0e9e	-0.21587607
214	0x3bc1f4c7	0.0059190723
215	0xbb6c6200	-0.0036069155
216	0x3b3016ec	0.0026869131
217	0x3b3f11a2	0.0029154797
218	0x3b00c0d6	0.001964619
219	0x3b6b0490	0.0035860874
220	0xbca47007	-0.02007295
221	0x39e64da1	0.00043926857
222	0x3b66707f	0.0035162268
223	0x3a6445b6	0.00087078975
224	0x39b802e9	0.00035097383
225	0xba4a921e	-0.00077274616
226	0xbc0bb38d	-0.008526695
227	0xbb8fd417	-0.0043892968
228	0x39479d9d	0.00019036834
229	0xbd3493a3	-0.04408611
230	0xba193919	-0.0005844995
231	0xbbef9d32	-0.0073124403
232	0x398b4cec	0.00026569457
233	0xb8a32ca5	-7.7807614e-05
234	0xbbd0ecf9	-0.0063759056
235	0xbe300c71	-0.17192246
236	0xbcb8c962	-0.022556964
237	0xbc5e4bd0	-0.01356788
238	0x3d5aab0d	0.053385783
239	0x3a5e89bf	0.00084891537
240	0xbe2dca40	-0.16971684
241	0xbc128567	-0.008942938
242	0x3b13bd92	0.0022543413
243	0xba45b4b9	-0.00075418834
244	0xbc14c863	-0.009080979
245	0xbbeed0a3	-0.007288055
246	0x3a5cbe68	0.0008420707
247	0xbd24ea6b	-0.04026262
248	0xba5f85be	-0.0008526704
249	0xbc27133a	-0.010197455
250	0x39bd6a0e	0.00036127906
251	0xb8ffebf1	-0.00012203295
252	0x3bc67923	0.006056921
253	0x3e993aa9	0.29927567
254	0x3dfe97f1	0.12431324
255	0xbb08fc22	-0.0020902236

encoder_layer1.bias f4 [128]
0	0xb9a477b2	-0.00031369698
1	0xb98fea59	-0.00027449688
2	0xb9f93022	-0.00047528843
3	0x3c05a22e	0.008156342
4	0xb9b99fa2	-0.00035404885
5	0x3af7a7e5	0.0018894641
6	0x394c8218	0.0001950342
7	0x3accc493	0.0015622549
8	0xba00d8d1	-0.00049151207
9	0xb8dd3068	-0.000105471176
10	0xbcd8d8df	-0.0264706
11	0xbb8b6635	-0.0042541274
12	0xbb34ea84	-0.0027605603
13	0x3a19c9fa	0.00058665837
14	0xb9fd9253	-0.0004836494
15	0x39d382f7	0.00040342633
16	0xba0a44a5	-0.0005274511
17	0xba360cd2	-0.00069446594
18	0x3a32fff8	0.00068283034
19	0x3b3a91d4	0.0028468268
20	0xba150e5b	-0.0005686038
21	0xbc298ea3	-0.010348949
22	0xba16c79d	-0.00057517906
23	0xba8614aa	-0.0010229547
24	0x3af711a9	0.0018849868
25	0xba0a7fe2	-0.0005283338
26	0xbb86f156	-0.004118125
27	0xba028485	-0.00049788534
28	0x3b8f1b7e	0.004367291
29	0xbadf3188	-0.0017028311
30	0xbb869017	-0.0041065323
31	0xbbf9ad38	-0.0076195262
32	0x3ba3ef9e	0.00500293
33	0x3b0c8df7	0.0021446922
34	0xb9ddf669	-0.00042335995
35	0xbc5355b8	-0.012898855
36	0xbc3f63a4	-0.011681471
37	0xba21d349	-0.00061731465
38	0xba0b2d8d	-0.0005309217
39	0xbbfcebed	-0.007718554
40	0x3b738a0f	0.0037161147
41	0x3aabdd92	0.0013112298
42	0x3a1b414a	0.00059225096
43	0x3a801d66	0.0009774386
44	0x38173045	3.604616e-05
45	0xbc4af7f8	-0.012388222
46	0xbaf9cea4	-0.0019058776
47	0x3a31be7e	0.00067803997
48	0xbadbcdbe	-0.001676969
49	0x3b17e524	0.002317735
50	0xb982ed0d	-0.0002497215
51	0x3b25c5db	0.0025294933
52	0xb94f5894	-0.00019774056
53	0x3a22dcaf	0.0006212694
54	0x3b695eb5	0.0035609428
55	0xba62402a	-0.0008630777
56	0xb9bb70c6	-0.00035751442
57	0xba8516ae	-0.0010153854
58	0xbbbc4d3f	-0.005746513
59	0xbab50c08	-0.001381279
60	0x3b4db8e5	0.0031390723
61	0xb9ec8e57	-0.0004511948
62	0xb808ca96	-3.26136e-05
63	0x38b0118d	8.395603e-05
64	0x3a6b8149	0.00089838036
65	0x3a30fc64	0.00067514763
66	0xbb78dcbc	-0.0037973365
67	0xbc128893	-0.008943695
68	0xb8d2be54	-0.00010049032
69	0x39dd0912	0.00042159163
70	0x3bb40a44	0.005494388
71	0xba254c4e	-0.0006305621
72	0x3a96b33f	0.0011497511
73	0xbb0271e2	-0.0019904305
74	0x3a1aac14	0.00059002754
75	0xb9eaef82	-0.00044810405
76	0xbc946a40	-0.01811707
77	0x37a252e8	1.9350511e-05
78	0xb9d01ae0	-0.00039692875
79	0xbc732e9e	-0.014842657
80	0xba026153	-0.0004973609
81	0xbaf12c4a	-0.001840004
82	0xbb9a1a40	-0.0047028363
83	0xbb8ab859	-0.0042334017
84	0xbadb65d0	-0.0016738717
85	0xb991df3b	-0.00027822875
86	0xb90954fc	-0.00013096997
87	0xbcbf06f9	-0.023318755
88	0xbac30a10	-0.0014880318
89	0xbc543e53	-0.012954312
90	0x3c4471ed	0.011990053
91	0x3b5b2e10	0.0033444203
92	0xb75522c8	-1.27038875e-05
93	0x393c0210	0.00017929845
94	0xb87871cd	-5.9233793e-05
95	0xbbb21f63	-0.0054358705
96	0xb9f71b89	-0.00047132027
97	0xbb1ee891	-0.0024247507
98	0xbbd5464c	-0.006508624
99	0x3ac6ccab	0.0015167197
100	0xb8b1013d	-8.440248e-05
101	0xb9ec2221	-0.00045038856
102	0xbb54b197	-0.0032454485
103	0x3a3f7d45	0.00073047384
104	0x3b808c36	0.0039229644
105	0xba24b691	-0.0006283308
106	0xba0e92fb	-0.0005438772
107	0xb8940282	-7.057657e-05
108	0xbb7b5190	-0.0038348176
109	0xb8d5c0b4	-0.00010192525
110	0xbc95407a	-0.018219221
111	0xba234fbc	-0.0006229838
112	0xba353690	-0.00069127325
113	0x39ea6e52	0.00044714153
114	0xbc55f7f8	-0.013059609
115	0x397dc0ac	0.00024199736
116	0xba1343de	-0.0005617718
117	0xb937cb58	-0.00017527991
118	0x3a1ce3ea	0.00059848896
119	0x3a32465f	0.0006800647
120	0x3982c0fc	0.00024939317
121	0xbbd024e0	-0.006352052
122	0x3a84c4d3	0.0010129459
123	0x3902f8da	0.0001249047
124	0xba165be5	-0.0005735739
125	0x3a354bdb	0.00069159054
126	0xb9fec487	-0.0004859308
127	0x39817e7a	0.0002469903

encoder_layer2.weight f4 [64, 128]
0	0xb94de11c	-0.00019634183
1	0x3ad7e50a	0.0016471457
2	0xb96e3ceb	-0.00022720142
3	0x3b176b15	0.0023104597
4	0xb9662e94	-0.00021951861
5	0xb9162d72	-0.00014322044
6	0x3a2f3519	0.00066836324
7	0xba372e97	-0.00069878384
8	0xb968e20b	-0.00022209452
9	0xb9e9226c	-0.0004446687
10	0x3a888ea3	0.0010418486
11	0x3a283cb5	0.00064177375
12	0xba5e3af4	-0.00084774126
13	0xb828132b	-4.0072173e-05
14	0xb96c13b6	-0.00022514057
15	0x3a423cb3	0.00074095576
16	0xb9e5c484	-0.000438247
17	0xb9813af1	-0.00024648712
18	0x3a49298d	0.0007673733
19	0xb741d17a	-1.1552469e-05
20	0xb9780985	-0.0002365467
21	0xba7b84df	-0.00095946895
22	0xb979f69e	-0.00023838363
23	0xb82f8996	-4.185139e-05
24	0xba11e556	-0.0005565485
25	0xb9753373	-0.00023384187
26	0xba0f23f3	-0.0005460374
27	0xb969bc48	-0.00022290752
28	0xbaba734e	-0.0014225037
29	0x3ab955d7	0.0014139962
30	0x3a9d0db3	0.0011982232
31	0x397ff531	0.00024410036
32	0xba0a0575	-0.00052650954
33	0x3a8b3e07	0.0010623344
34	0xb96edd28	-0.00022779836
35	0x3a185a81	0.0005811826
36	0x3a230ad1	0.00062195683
37	0xb896fda2	-7.1998e-05
38	0xb97213a0	-0.0002308623
39	0x3a2c9ad1	0.0006584349
40	0xb7a099d7	-1.9145124e-05
41	0x3ada9b88	0.0016678432
42	0xb9d11c89	-0.00039884847
43	0xb828489d	-4.0121948e-05
44	0xb932ea8a	-0.00017062775
45	0x3a4f1b60	0.00079005025
46	0x3910c30e	0.00013805574
47	0xb887628a	-6.455656e-05
48	0xb893bef7	-7.045076e-05
49	0x3a12bc26	0.00055974943
50	0xb96c2ae3	-0.0002252269
51	0xbb1a558c	-0.0023549525
52	0xbaa86d50	-0.001284996
53	0xb9b39228	-0.00034250435
54	0xba32e3ce	-0.00068241067
55	0x3abbfdb1	0.0014342574
56	0xb956b936	-0.00020477627
57	0x3a9ca305	0.0011950439
58	0xb9ee9f73	-0.00045513696
59	0xb796d0f7	-1.79787e-05
60	0x39a585da	0.0003157098
61	0xb9662f25	-0.00021952072
62	0xb9735823	-0.0002320712
63	0xb97cea22	-0.00024119814
64	0xbaba2654	-0.0014202096
65	0xb925d768	-0.00015815871
66	0x3a92f572	0.0011212064
67	0x3a06599a	0.0005125046
68	0xb93f38c3	-0.00018236325
69	0xb9410967	-0.00018409417
70	0x39886d3e	0.00026021333
71	0xb97c417f	-0.00024056992
72	0x3aba8004	0.0014228825
73	0x3a6b8b7a	0.0008985322
74	0xba106475	-0.00055081333
75	0xb98049d3	-0.00024469066
76	0x39cca6b0	0.00039034104
77	0x380b3c7e	3.319652e-05
78	0xba73af68	-0.0009295852
79	0xbb4e10fc	-0.003144323
80	0xb96a8967	-0.00022367165
81	0x3abcb929	0.0014398444
82	0x39d90e86	0.00041400286
83	0x3ae4964c	0.0017439811
84	0x3a070775	0.00051509525
85	0xb95f8735	-0.00021317306
86	0x3a64cc88	0.00087279873
87	0xbb205698	-0.0024465676
88	0x3a514ed4	0.00079844636
89	0x39cfb083	0.00039613628
90	0x3b28b6c0	0.0025743693
91	0x399c057f	0.00029758734
92	0xb98ca7c4	-0.00026827876
93	0xb9c11b5a	-0.00036832207
94	0x3a54681b	0.0008102671
95	0x39f7b776	0.000472482
96	0x39f9b5b7	0.0004762837
97	0xb9ca02e4	-0.00038530596
98	0x39f780b3	0.000472074
99	0x396517b3	0.0002184797
100	0xb98c564d	-0.0002676718
101	0xb96cd6b5	-0.00022586698
102	0x375d525a	1.31918005e-05
103	0xb98b026c	-0.0002651395
104	0x388a88c9	6.605831e-05
105	0xb97dcce5	-0.0002420429
106	0xb975762f	-0.00023409048
107	0xb91c3965	-0.000148987
108	0x39303411	0.00016804064
109	0xb9376437	-0.00017489573
110	0xb9dc84f6	-0.00042060734
111	0xb97d1452	-0.0002413553
112	0xb98070a3	-0.00024497983
113	0x3a89188d	0.0010459587
114	0xbba50301	-0.0050357585
115	0xb9e1c3ed	-0.0004306132
116	0xb9784343	-0.0002367618
117	0x39456b09	0.00018827258
118	0x3917bc7e	0.00014470701
119	0xb9c06bad	-0.00036701318
120	0xba2d7c97	-0.00066179916
121	0x3b1d0e5d	0.002396486
122	0xb9a0d7ef	-0.0003067846
123	0xb9e469fd	-0.00043566516
124	0x380fc46d	3.4276793e-05
125	0x3ad90d65	0.0016559778
126	0xb983ada9	-0.00025115654
127	0xb9b98d58	-0.0003539126
128	0x3c32821d	0.010895279
129	0x3ce317f0	0.027721375
130	0x3c349a7e	0.011023162
131	0xbd30c228	-0.04315391
132	0x3c2eb2da	0.010662759
133	0x3bff5206	0.0077917604
134	0xbb84932d	-0.004045865
135	0xbc582326	-0.013191974
136	0x3c30ad7f	0.010783552
137	0x3c639324	0.0138900615
138	0xbd03cd57	-0.03217825
139	0x3b87c4e4	0.0041433442
140	0xbbbfb5c4	-0.0058505256
141	0x3c21fabb	0.009886439
142	0x3c323113	0.010875958
143	0xb9839e88	-0.00025104382
144	0x3c2dd45d	0.010609713
145	0x3c3292ac	0.010899227
146	0x3c726eb8	0.014796905
147	0x3bb748a7	0.0055933776
148	0x3c333db4	0.010940004
149	0xbcaf965c	-0.021434002
150	0x3c342d10	0.010997072
151	0x3d4d26fa	0.050086
152	0x3bb1a14b	0.005420839
153	0x3c344d20	0.011004716
154	0x3d193547	0.037404325
155	0x3c31a2f3	0.010842073
156	0x3b9954c2	0.0046792934
157	0x3af67d3b	0.0018805632
158	0xbc5b43b4	-0.013382841
159	0x39ad2562	0.00033024984
160	0x3c491309	0.012272605
161	0x3c12ea99	0.008967065
162	0x3c337eea	0.010955552
163	0xbb5a27ab	-0.0033287804
164	0xbc2f36de	-0.010694234
165	0x3c365cd9	0.011130535
166	0x3c3117de	0.010808913
167	0xbbd29cbd	-0.006427376
168	0x3c877e3f	0.016539691
169	0x3c33eea8	0.010982193
170	0x3c0e504d	0.008686137
171	0x3c26ae28	0.010173358
172	0x3c611f86	0.013740426
173	0xbc07e2ff	-0.008293866
174	0x3bf23230	0.0073912367
175	0x3c183b2c	0.009291451
176	0x3b650dea	0.003495092
177	0xbc2397a9	-0.009984889
178	0x3c30fbf9	0.010802262
179	0x3b9de77e	0.004818856
180	0x3be5f7f8	0.0070180856
181	0x3c0c2900	0.008554697
182	0x3c4ac5b9	0.012376242
183	0xbc0d3a85	-0.008619909
184	0x3c30c62d	0.010789436
185	0xba5648a9	-0.00081742794
186	0x3d438329	0.047732506
187	0xbbe7afc5	-0.007070514
188	0x3bc15731	0.0059002866
189	0x3c30cdca	0.010791251
190	0x3c31c7e6	0.010850882
191	0x3c3afdee	0.011413081
192	0x3cfcca74	0.030858256
193	0x3c208556	0.009797415
194	0xbccf5bf3	-0.0253124
195	0xbc8a0613	-0.0168486
196	0x3c2cd469	0.010548689
197	0x3c2b8cce	0.010470582
198	0x3b5b0164	0.0033417577
199	0x3c336789	0.010949978
200	0x3c0666fa	0.008203262
201	0xbc120f88	-0.008914836
202	0x3baee9d9	0.0053379354
203	0x3c3a1acd	0.011358929
204	0xbc8c0a7f	-0.017094849
205	0x3a96620d	0.0011473313
206	0x3bb0ee46	0.005399498
207	0x3c42ee2b	0.011897604
208	0x3c319612	0.010839002
209	0xbb9fe0a4	-0.004879074
210	0xbd2d7237	-0.042345252
211	0x3bfe0114	0.0077515934
212	0x3cb563da	0.02214234
213	0x3c2ecfe3	0.010669681
214	0x3b382cdc	0.002810291
215	0xbc8d770d	-0.017268682
216	0xbbf5d0a6	-0.0075016795
217	0xbb0d8a4c	-0.0021597324
218	0xbd1b69f4	-0.03794284
219	0x3bf0c0ef	0.007347218
220	0x3c2b95a6	0.010472691
221	0x3bbcf215	0.005766163
222	0xbac5d671	-0.0015093816
223	0x3b673297	0.0035277957
224	0x3d34ef38	0.04417345
225	0x3bc62fdc	0.0060481858
226	0xbd594ee2	-0.053053744
227	0x3c042b42	0.008066954
228	0x3c368474	0.011139978
229	0x3c34eddd	0.011043039
230	0x3b124db4	0.0022324147
231	0x3c23efb8	0.010005884
232	0x3c00cc15	0.007861157
233	0x3c3432e2	0.0109984595
234	0x3c33cbc7	0.010973877
235	0x3c2d6314	0.010582704
236	0x3d77ad10	0.06046778
237	0x3c336d86	0.010951405
238	0xbc2f8906	-0.010713821
239	0x3c33a2a5	0.01096407
240	0x3c33d6b8	0.010976486
241	0xbc22be35	-0.009933044
242	0xbd561559	-0.052266452
243	0x3c27f4d2	0.010251241
244	0x3c3394ec	0.010960799
245	0x3aa643a4	0.0012684953
246	0x3cdfad7f	0.02730441
247	0x3c3af9f8	0.011412136
248	0x3c411863	0.011785599
249	0x3c4da880	0.012552381
250	0x3c69ac3a	0.014262253
251	0x3c290851	0.010316924
252	0xbbc0b7d7	-0.0058812904
253	0x3b89bd6b	0.0042034886
254	0x3c320a55	0.010866721
255	0x3beec46f	0.0072866003

encoder_layer2.bias f4 [64]
0	0x3982bab1	0.00024934628
1	0xbc35fe26	-0.011107957
2	0x389e705e	7.554957e-05
3	0xbabaa420	-0.0014239587
4	0xb923459e	-0.00015570826
5	0xb9df0613	-0.000425384
6	0xb9b2a8d2	-0.00034076587
7	0x36c95f60	6.00137e-06
8	0xb7d396db	-2.5223408e-05
9	0xbd180b42	-0.03712011
10	0x3ae5879d	0.0017511729
11	0x3855cedb	5.0975807e-05
12	0x384471cf	4.6836034e-05
13	0x39e2fd8e	0.00043294992
14	0xbc89f970	-0.016842574
15	0xb83698af	-4.353438e-05
16	0x3ac1145c	0.0014730799
17	0xb98d4376	-0.00026943878
18	0x39adf24a	0.0003317765
19	0xbcb9d9e0	-0.022686899
20	0xb96f466d	-0.00022819052
21	0x38ecd6ab	0.00011293342
22	0x3dddb57b	0.1082563
23	0x371616c4	8.945997e-06
24	0xb94d1e96	-0.00019561718
25	0x3cb23a43	0.021756297
26	0x39233767	0.0001556553
27	0xb779aa82	-1.4881256e-05
28	0x3ddc976f	0.10771071
29	0x389a516a	7.358457e-05
30	0xba09619f	-0.0005240682
31	0xb923ef6d	-0.00015634084
32	0xba8dfedb	-0.0010833399
33	0xb86156a4	-5.372487e-05
34	0xbca05c2d	-0.019575203
35	0xb802aaea	-3.115359e-05
36	0x3a21c7f9	0.0006171461
37	0x38a0c7df	7.6666234e-05
38	0xbab5c563	-0.001386803
39	0x38850731	6.343274e-05
40	0xba25069b	-0.0006295235
41	0xba96ff41	-0.0011520163
42	0xbc661c7a	-0.014044875
43	0xba02d0ac	-0.0004990201
44	0x3a2e06bf	0.00066385785
45	0x3945815a	0.00018835571
46	0xb9b44bdf	-0.00034388804
47	0xb99a2ad7	-0.00029405087
48	0x3909aaa2	0.00013128904
49	0xbb75ff43	-0.003753618
50	0xb8d0fe22	-9.965549e-05
51	0xbcb8e351	-0.02256933
52	0xba001a92	-0.0004886772
53	0xba9908d0	-0.00116756
54	0xbbbff45e	-0.0058579883
55	0xba1aedfa	-0.0005910095
56	0x3b48570e	0.0030569467
57	0x3a32f095	0.00068260106
58	0x3a1eb16b	0.0006053659
59	0x3cdb90ec	0.026802503
60	0xba4dbad9	-0.0007847972
61	0x3902e436	0.00012482781
62	0xba0eeff3	-0.00054526253
63	0x38a052e0	7.644831e-05

encoder_layer3.weight f4 [32, 64]
0	0xba1a5a21	-0.0005888064
1	0xbc23f24b	-0.010006498
2	0x3bf4c20d	0.0074694217
3	0x3be02d88	0.0068413652
4	0x3b54b7d7	0.003245821
5	0x3b6a847b	0.003578453
6	0x3b921b61	0.00445883
7	0xbc0b8b17	-0.008517048
8	0x3a1d2ec0	0.0005996041
9	0x3d937582	0.07200147
10	0x3cca36b9	0.024684297
11	0x3bbe52fd	0.005808233
12	0x3c076238	0.008263163
13	0x3b348fc5	0.0027551514
14	0x3dc2cdf3	0.09511938
15	0x3a8aa42d	0.0010577493
16	0xbc08b95a	-0.0083449725
17	0xbb03771c	-0.0020060008
18	0xb9e1c77c	-0.00043063972
19	0xbc9f3255	-0.01943318
20	0x3badc64f	0.0053031812
21	0x3bb92dcb	0.005651211
22	0x3dd42229	0.10358078
23	0x3b91feb1	0.0044554104
24	0xbc3f5e48	-0.011680193
25	0xbe223b5e	-0.1584296
26	0x3a87b150	0.0010352526
27	0x3993eae9	0.00028213047
28	0x3e8e2626	0.2776348
29	0x3b1b7804	0.0023722658
30	0xbc0d5a62	-0.008627506
31	0x3b9a7f80	0.004714906
32	0x3c20b489	0.009808668
33	0xbbab09fc	-0.005219696
34	0xbe2371c9	-0.15961374
35	0xbb9f168d	-0.004854983
36	0x3c489b5f	0.012244075
37	0x3b2d79ac	0.0026470227
38	0xbbb4797f	-0.0055076475
39	0x3b34dd1d	0.0027597614
40	0x3be3c5c0	0.006951064
41	0x3b7032a6	0.0036651283
42	0x3d141a08	0.036157638
43	0x3a51aa84	0.0007998126
44	0xbc77ca6b	-0.015123944
45	0x3bb68615	0.005570183
46	0x3c5b5757	0.013387523
47	0x3c3fef4a	0.011714766
48	0xbb00539b	-0.0019581083
49	0x3cb3abd7	0.021932526
50	0xbc3014f7	-0.010747186
51	0xbccf6e98	-0.02532129
52	0x39d2a326	0.00040175876
53	0x3c98f2c1	0.018670442
54	0xbc748d39	-0.014926248
55	0xbc89a4fc	-0.016802303
56	0x3cf248f5	0.029575804
57	0x3bd6fdfe	0.00656104
58	0xbcc40f21	-0.023932995
59	0xbcd21b85	-0.025647888
60	0x3c12b26e	0.008953674
61	0xbb962c7d	-0.00458294
62	0x3c1807c6	0.009279197
63	0x3c023039	0.0079460675
64	0x3967fbd2	0.00022123687
65	0xba7f1255	-0.000973021
66	0xbb0809c6	-0.0020757779
67	0xba38fcc4	-0.0007056708
68	0xbac36731	-0.0014908073
69	0xb9a6a1a6	-0.00031782425
70	0x39bd132a	0.00036063167
71	0x3a1abc33	0.00059026777
72	0xb9be3f72	-0.00036286894
73	0x3e3a68da	0.1820406
74	0x3c324338	0.010880284
75	0xba7562b4	-0.0009360716
76	0xba25fa66	-0.0006331563
77	0xbab810e8	-0.0014043124
78	0xbbfdd1b4	-0.007745946
79	0x3a47b6b9	0.00076184754
80	0x3b6d714f	0.0036230867
81	0xba57ef17	-0.0008237226
82	0xb9b09a69	-0.0003368438
83	0x3d0dd303	0.034625065
84	0xb8acd458	-8.241151e-05
85	0xba239bc2	-0.0006241166
86	0x3ca14a22	0.01968867
87	0xbab65950	-0.0013912115
88	0x3b42578e	0.0029654237
89	0xbe1e461c	-0.15456432
90	0xb8ebec07	-0.00011249637
91	0x399af062	0.00029552268
92	0xbd3e36d5	-0.04643901
93	0xba9726a1	-0.0011531898
94	0x3b7c247a	0.003847389
95	0xbae2e813	-0.0017311595
96	0xbb8b2a42	-0.004246981
97	0x38e7116d	0.00011018184
98	0xbbcbf19f	-0.006223872
99	0x3b34c626	0.0027583926
100	0xbbc8f171	-0.0061322977
101	0xb98f6f0d	-0.00027357825
102	0x3b782e12	0.0037869257
103	0x3a148b11	0.00056664745
104	0xbb0535e4	-0.002032631
105	0x3990fee8	0.0002765574
106	0x398db804	0.00027030718
107	0xbaca2045	-0.0015420994
108	0x3d1b066c	0.03784792
109	0xb9da5b9c	-0.00041648454
110	0xbb821f8b	-0.0039710454
111	0xbb406d58	-0.002936205
112	0xba9dc085	-0.0012035525
113	0xbbce80be	-0.0063019684
114	0x3b5c78e3	0.003364139
115	0x3bd13804	0.0063848514
116	0x3aea5a89	0.0017879765
117	0xbc48e077	-0.012260548
118	0xbc0879c7	-0.008329815
119	0x3b9c956b	0.004778554
120	0x3c004319	0.007828497
121	0xbb006a4f	-0.0019594615
122	0xbc0e888b	-0.008699547
123	0x3b97e1ac	0.0046350565
124	0x39d3a3d7	0.00040367126
125	0x3b27237e	0.0025503333
126	0xbba39a20	-0.0049927384
127	0xbb3aa52a	-0.0028479793
128	0x3b716f9f	0.0036840213
129	0xbc6fa149	-0.014625856
130	0xbaf969d4	-0.0019028732
131	0x3921f0da	0.0001544388
132	0x39987e54	0.0002908582
133	0x3ca20f93	0.019782817
134	0x3b183440	0.0023224503
135	0x3bd1dc94	0.006404469
136	0xb9802db5	-0.00024448117
137	0x3d8ca313	0.068670414
138	0x3b1883f0	0.0023272
139	0x39220566	0.00015451535
140	0xbb16bbbb	-0.002300008
141	0xba597246	-0.0008294921
142	0xbc5828d0	-0.013193324
143	0x39a2795c	0.00030989468
144	0xbc36a9ab	-0.01114885
145	0xb93922b0	-0.00017655897
146	0xbad833dd	-0.0016494949
147	0xbc23d8c5	-0.010000412
148	0x3b824d64	0.003976511
149	0xbb5428a0	-0.0032372847
150	0xbc2b46e4	-0.010453913
151	0xbaed23d2	-0.001809234
152	0x3be893d8	0.0070977025
153	0xbd15d44e	-0.036579423
154	0x3af739d6	0.0018861841
155	0x3ae1a659	0.0017215713
156	0xbcc1c44b	-0.02365317
157	0x3ac4ea88	0.0015023509
158	0x3ba1063d	0.0049140737
159	0xba3cfeea	-0.0007209616
160	0x3c0c2aff	0.008555173
161	0xba8b2de5	-0.0010618536
162	0x3e49ab83	0.19694333
163	0x3bc86c00	0.00611639
164	0x3b2f8d61	0.002678715
165	0xba938276	-0.001125409
166	0xb980bbb8	-0.00024553924
167	0xbac3d134	-0.0014939667
168	0x3befbceb	0.007316222
169	0xbb32fdb8	-0.0027311873
170	0xbb26682e	-0.0025391686
171	0xb8f8c958	-0.00011863065
172	0xbc22609b	-0.009910728
173	0xbaeb3b65	-0.0017946778
174	0xbb2c4014	-0.002628331
175	0xb9a5cdeb	-0.00031624673
176	0x3ae0f78b	0.0017163617
177	0x3c9b7c21	0.018980088
178	0x3bd839e5	0.0065986984
179	0xbc7df6d0	-0.015500739
180	0x3a36ff0c	0.0006980754
181	0xbc270ca5	-0.010195886
182	0x3c2394c4	0.009984199
183	0x3bffeea2	0.0078104297
184	0xbb823d6e	-0.003974608
185	0xbb40262b	-0.0029319625
186	0x3c2f74fe	0.010709045
187	0x3cadd925	0.021221707
188	0x3bc6bbc9	0.006064866
189	0x3b618f14	0.0034417557
190	0xba62917e	-0.0008642896
191	0xbb344300	-0.0027505755
192	0x3a817cce	0.0009879114
193	0x3ccf41a2	0.02529985
194	0x3a087718	0.00052057346
195	0x3bab24f0	0.005222909
196	0x3b281307	0.0025646107
197	0xbb13c702	-0.0022549038
198	0xbb4fb57a	-0.0031693862
199	0x3b4aab07	0.0030924694
200	0x3ab91243	0.0014119822
201	0x3da0fb9c	0.07860491
202	0x3bcbff9b	0.006225539
203	0xbb6d9b26	-0.0036255806
204	0xbb391acb	-0.002824473
205	0x3c5900a2	0.01324478
206	0x3d3122a8	0.04324594
207	0xbaa51213	-0.0012593888
208	0x3ced8a42	0.02899659
209	0x3bb65489	0.0055642766
210	0x3c083d91	0.00831546
211	0x3d2c65b9	0.042089198
212	0xbb426d6e	-0.0029667276
213	0xbbdb8cfa	-0.0067001553
214	0xbebb3099	-0.36560515
215	0x3a94cf48	0.0011353279
216	0xb9e09b35	-0.00042840248
217	0x3dce00a7	0.10058718
218	0xbb4e2c8c	-0.0031459657
219	0x3abd560d	0.0014445201
220	0x3d9c3091	0.07626451
221	0xb9e2b218	-0.0004323877
222	0xbb4cb04a	-0.0031233006
223	0xbac36990	-0.0014908779
224	0xbbb72210	-0.0055887774
225	0x3b8d9e56	0.0043218536
226	0xbe76cd20	-0.24101686
227	0x3a2ff396	0.00067120173
228	0xbc4af696	-0.012387892
229	0xbb533986	-0.0032230332
230	0x3c2e337d	0.010632393
231	0xbb9dece9	-0.0048195017
232	0xbbd606e7	-0.0065315845
233	0x3c153cd9	0.0091087455
234	0x3c8f5bd7	0.017499847
235	0x3c157270	0.009121522
236	0x3cf61cb6	0.030042987
237	0xbb9ce46b	-0.0047879717
238	0x3ae5cfbe	0.0017533225
239	0xba5fd408	-0.000853837
240	0x3b32bb16	0.0027272156
241	0xbce16612	-0.027514491
242	0xbabdc298	-0.0014477549
243	0x3d9e4f1c	0.07729933
244	0x381c0114	3.7194302e-05
245	0x3c300bc8	0.010744996
246	0x3c5f5cb7	0.013632945
247	0xbba6e018	-0.005092632
248	0xbbf766b0	-0.007550083
249	0xbaaefc39	-0.0013350315
250	0xbc5e1beb	-0.013556461
251	0xbd715e09	-0.05892757
252	0xbb6953f6	-0.0035603023
253	0xbbe64b72	-0.0070280368
254	0x3be7379c	0.0070561897
255	0xb9f0aed5	-0.00045906627

encoder_layer3.bias f4 [32]
0	0x3d3842ed	0.0449857
1	0xbd290526	-0.041264676
2	0xbc71b784	-0.014753226
3	0xbda670ef	-0.08127009
4	0xbdefc9da	-0.11708422
5	0xbda536b4	-0.080670744
6	0xbd1a7a7d	-0.03771447
7	0xbc1b25f3	-0.009469497
8	0xbdbb88f9	-0.09156985
9	0x3e2d071c	0.16897243
10	0xbd784b68	-0.060618788
11	0xbdd2db70	-0.10295761
12	0xbc948f0b	-0.018134614
13	0xbc58fb20	-0.013243467
14	0xbd5c95c2	-0.053853758
15	0xbd2a7e5b	-0.04162441
16	0xbd1fab07	-0.038981464
17	0x3c5582e4	0.013031695
18	0xbd98d1d3	-0.07461896
19	0xbd048fef	-0.03236383
20	0xbd32e60e	-0.04367643
21	0x3db1e26c	0.08685765
22	0x3cf667a9	0.030078726
23	0xbd7d5b58	-0.06185469
24	0xbd33c34f	-0.043887433
25	0xbcc38823	-0.023868626
26	0xbcc254a7	-0.023722006
27	0x3da7e747	0.081984095
28	0xbd50d756	-0.05098661
29	0xbe0fc023	-0.14038138
30	0x3e516663	0.20449214
31	0xbd5d4c22	-0.054027684

encoder_layer_mu.weight f4 [2, 32]
0	0xbe57c9c6	-0.21073064
1	0xbd69960d	-0.057027865
2	0x3dab6de6	0.08370571
3	0xbd4a54d4	-0.049397305
4	0x3e950aac	0.29109704
5	0xbe1eb07c	-0.15497011
6	0x3e533d84	0.20628935
7	0xbe0bc299	-0.13648452
8	0x3e45e443	0.19325356
9	0x3e0dc85b	0.13845961
10	0x3e1aa4b9	0.15101899
11	0x3ddf8427	0.10913878
12	0xbe952891	-0.29132512
13	0xbe2817ed	-0.16415377
14	0x3dced9f8	0.10100168
15	0xbe1ea3bc	-0.15492147
16	0x3d05ed8e	0.032697253
17	0x3e0d0763	0.13772349
18	0xbe081826	-0.13290462
19	0xbde2e5d0	-0.110789895
20	0x3e2f93c4	0.17146212
21	0xbde077f2	-0.10960378
22	0xbe60ff59	-0.21972407
23	0x3e0bb30d	0.13642521
24	0xbe528c56	-0.20561346
25	0xbde8f9a4	-0.1137574
26	0xbd5e12c0	-0.0542171
27	0x3de3b34b	0.11118182
28	0x3c819677	0.015818818
29	0x3e8d1a6c	0.2755922
30	0xbdc7aa03	-0.09749224
31	0xbd904323	-0.07044055
32	0xbd79c8bb	-0.060982447
33	0x3d5c1ee0	0.053740382
34	0x3dc36e85	0.09542564
35	0xbe3358cc	-0.17514342
36	0xbd92767a	-0.07151504
37	0x3e046a79	0.12931241
38	0x3d1cc398	0.03827247
39	0xbe2fc0ef	-0.17163442
40	0xbda12e82	-0.07870199
41	0xbba40965	-0.0050060027
42	0xbe2baa04	-0.16764075
43	0x3e1994fb	0.14998238
44	0xbd62d910	-0.05538279
45	0x3df0641e	0.11737846
46	0x3d9b0686	0.075696036
47	0x3dcb660b	0.099315725
48	0x3e0d99dc	0.13828224
49	0x3d7f3402	0.062305458
50	0x3e16d728	0.14730513
51	0xbe252abd	-0.16129585
52	0x3da1e90f	0.079057805
53	0x3da67855	0.0812842
54	0xbe06809b	-0.13134997
55	0xbdbb4f57	-0.09145992
56	0xbe4f1d1e	-0.20225951
57	0xbe166c03	-0.1468964
58	0xbd31fe88	-0.04345563
59	0x3d338604	0.04382898
60	0x3e1392de	0.14411494
61	0xbe187942	-0.14890006
62	0xbbd07bb1	-0.0063624014
63	0xbe23b037	-0.1598519

encoder_layer_mu.bias f4 [2]
0	0x3c4123ab	0.011788289
1	0x3d04c977	0.032418694

encoder_layer_sigma_square.weight f4 [2, 32]
0	0xb96c4fc6	-0.00022536432
1	0x3e110c05	0.14164741
2	0xbd065422	-0.03279508
3	0x3e0f595d	0.13998933
4	0xbc7adf86	-0.015312081
5	0x3dce6149	0.100771494
6	0x3e5d65ea	0.21620908
7	0x3d109a36	0.035303317
8	0x3d495fb4	0.049163535
9	0xbf0431a4	-0.51638246
10	0x3da57dd0	0.080806375
11	0x3df2b267	0.11850434
12	0x3dddefd9	0.10836763
13	0xbc4ae5fc	-0.012383934
14	0x3e0ac324	0.13551003
15	0x3d835702	0.0641308
16	0x3d367c0d	0.044551898
17	0xbda601c1	-0.08105803
18	0x3d679509	0.056538615
19	0x3cb05559	0.021525072
20	0x3e48b21c	0.19599193
21	0xbe611074	-0.21978933
22	0xbccffed9	-0.025390076
23	0xbe17406e	-0.14770672
24	0xbda05a43	-0.07829716
25	0xbd014c88	-0.031567127
26	0x3e2e80d7	0.17041336
27	0xbec22c1b	-0.37924275
28	0x3be11228	0.0068686195
29	0x3e1baf9a	0.15203705
30	0xbf0df0fb	-0.5544583
31	0xbc60c6dd	-0.013719288
32	0xba9b8005	-0.0011863714
33	0x3e28a097	0.1646751
34	0xbd155430	-0.03645724
35	0x3e0c3eed	0.1369588
36	0x3c85fa56	0.016354721
37	0x3e097295	0.13422616
38	0x3e55d46e	0.20881817
39	0x3d32202d	0.043487716
40	0x3db6ff89	0.08935458
41	0xbf0bff36	-0.54686296
42	0x3de72a8e	0.112874135
43	0x3e1bacc2	0.1520262
44	0x3dbc8ca7	0.09206515
45	0x3c1e97f5	0.009679784
46	0x3e16912e	0.14703819
47	0x3db1cc95	0.08681599
48	0x3d8c4907	0.06849866
49	0xbdbea808	-0.09309393
50	0x3df5e181	0.12005902
51	0x3ccb59b7	0.024823053
52	0x3e34f1cd	0.17670365
53	0xbe73216f	-0.23743223
54	0xbc76e9bd	-0.015070376
55	0xbe14fb62	-0.1454902
56	0xbd8e26ec	-0.069410175
57	0xbc88ae59	-0.016684698
58	0x3e42ac92	0.19011143
59	0xbecb4e31	-0.39708093
60	0x3d46d996	0.04854735
61	0x3e30f765	0.17281874
62	0xbf182ed8	-0.5944648
63	0x3dd47aa9	0.10374958

encoder_layer_sigma_square.bias f4 [2]
0	0xbea9e499	-0.3318222
1	0xbeb9f389	-0.36318615

decoder_layer1.weight f4 [32, 2]
0	0x3c253ad5	0.010084827
1	0xbc627d6c	-0.013823848
2	0x377c4647	1.5036733e-05
3	0x3953d7b0	0.00020202878
4	0xbc94d375	-0.018167237
5	0x3c93adc6	0.018027198
6	0xb9826f66	-0.0002487853
7	0xb83d70b8	-4.516609e-05
8	0xbc6760b7	-0.01412218
9	0x3cae4a55	0.021275679
10	0x3ac2a5c9	0.0014850433
11	0xbb34ca45	-0.0027586382
12	0x3adead2c	0.0016988865
13	0xbb1f05d9	-0.002426496
14	0x3b4420b9	0.002992673
15	0xbb14ee8d	-0.0022725195
16	0x39a7913e	0.00031960936
17	0xba404c08	-0.0007335548
18	0xbe54fea0	-0.20800257
19	0x3e8d0427	0.2754223
20	0x3a138779	0.0005627792
21	0xbb2fd116	-0.0026827506
22	0xbe5e4c21	-0.21708728
23	0xbeb44bb0	-0.35213995
24	0x3a1ea24d	0.00060514064
25	0x3a186906	0.00058139896
26	0x39432594	0.00018610648
27	0xbae2bdbb	-0.0017298976
28	0x3ec27dcf	0.3798661
29	0x3f8a2448	1.0792322
30	0xb877821a	-5.9010556e-05
31	0xb928fa1d	-0.00016114903
32	0xbd47d33f	-0.048785444
33	0xbe590235	-0.21192248
34	0x3d2b898d	0.041879226
35	0xbd71292c	-0.058877155
36	0xbdf8e810	-0.121536374
37	0x3e5992e0	0.21247435
38	0xb95b23f9	-0.00020898868
39	0x3a105ec1	0.00055072835
40	0xbe7d1bb1	-0.24717595
41	0x3e3d50eb	0.18487899
42	0xb8ac7072	-8.222544e-05
43	0xb982bde4	-0.00024937012
44	0x3b2280b3	0.002479595
45	0xbb3097b4	-0.002694589
46	0xbd8de078	-0.0692758
47	0xbd9ec366	-0.07752113
48	0x3c1ad4d2	0.009450154
49	0xbc3d3c18	-0.011549972
50	0x38b7779b	8.748398e-05
51	0xba3e1100	-0.0007250458
52	0xbe0af3d1	-0.13569571
53	0x3e2b2cb6	0.16716275
54	0x3a420b5a	0.0007402204
55	0xba0cbd87	-0.0005368818
56	0xbd163fd3	-0.03668196
57	0x3d2f6673	0.042822313
58	0x3c9c4b92	0.019079003
59	0xbcc2b8cd	-0.02376976
60	0x3c63d945	0.013906782
61	0xbc7004e4	-0.0146496035
62	0x3cb51a3a	0.022107232
63	0xbcd8667e	-0.02641606

decoder_layer1.bias f4 [32]
0	0xbc960290	-0.018311769
1	0x3a281037	0.00064111076
2	0x3bb3de41	0.005489141
3	0xb985a1a5	-0.0002548817
4	0x3cb50b15	0.02210001
5	0xbb8d1320	-0.0043052584
6	0xbb36b77d	-0.0027880364
7	0xba33620d	-0.0006842919
8	0xb99c6c17	-0.00029835172
9	0xbe48ee3a	-0.19622126
10	0xbbc4a612	-0.0060012424
11	0xbd4b267b	-0.049597245
12	0x3b07310a	0.0020628595
13	0xbb3e1845	-0.0029006165
14	0xbf03b6c3	-0.5145075
15	0xbadf91ac	-0.0017056963
16	0xbd296019	-0.04135141
17	0xbd54b28b	-0.051928084
18	0xbdaa3c04	-0.08312228
19	0x39350581	0.00017263555
20	0xbe467b9d	-0.19383092
21	0xba20f311	-0.00061397353
22	0xba58e288	-0.0008273502
23	0xbda6b1b1	-0.08139361
24	0xbc10ba97	-0.008833549
25	0xbac89743	-0.0015303869
26	0xbb947200	-0.0045301914
27	0xb862620a	-5.3973905e-05
28	0x3ce40259	0.02783315
29	0xbc9d2cbb	-0.019186368
30	0xbc203200	-0.009777546
31	0xbc99ae34	-0.018759824

decoder_layer2.weight f4 [32, 32]
0	0x3be2bb3c	0.0069192927
1	0xba7ec360	-0.0009718444
2	0x3b044520	0.0020182803
3	0x373c9ef2	1.1242681e-05
4	0xb9703c17	-0.00022910569
5	0x38f8567d	0.00011841671
6	0xb9e6e094	-0.00044036342
7	0xba16e126	-0.00057555956
8	0xb85bc942	-5.2401105e-05
9	0xbc2277c4	-0.00991625
10	0xb9691dff	-0.00022231786
11	0x3dd45c8a	0.10369213
12	0xba66f518	-0.00088103255
13	0xbbb0d726	-0.0053967414
14	0x3d73ab64	0.059489623
15	0x3a76215e	0.00093891274
16	0x3ced0e50	0.028937489
17	0xbc325124	-0.010883603
18	0xbbbd1c07	-0.0057711634
19	0x38a48d6c	7.846471e-05
20	0x3ca35845	0.019939551
21	0xb9f056ea	-0.00045841123
22	0xba241c13	-0.0006260287
23	0x3c76d72e	0.015065951
24	0xbb37f091	-0.0028066973
25	0xbaa18b0c	-0.0012324764
26	0x3b640142	0.0034790789
27	0xb966734a	-0.00021977458
28	0x3af563c2	0.0018721747
29	0xbb930a16	-0.0044872863
30	0xbc086368	-0.008324482
31	0xbc278af4	-0.010226
32	0x3c909d09	0.017653005
33	0xba24875d	-0.0006276274
34	0xbc2b6235	-0.010460426
35	0x3a88b8f6	0.0010431099
36	0xbccd0364	-0.02502603
37	0x3baee12a	0.0053369002
38	0x3b6cd5da	0.0036138208
39	0xbafadbb7	-0.0019138966
40	0xb7a269f1	-1.9361238e-05
41	0xbdc5946b	-0.09647449
42	0x3bfa2068	0.0076332577
43	0x3eb5f538	0.3553865
44	0xbb6294a0	-0.003457345
45	0x3bd0cf0f	0.0063723396
46	0x3e862816	0.26202458
47	0x3afde36e	0.0019370147
48	0x3e16e4ac	0.14735669
49	0x3d770a05	0.06031229
50	0xbdd2a99e	-0.10286258
51	0xb81e1c0c	-3.7696256e-05
52	0xbd92479b	-0.07142564
53	0x3ab9a54f	0.0014163646
54	0xba85316e	-0.0010161826
55	0x3dfe7f2e	0.12426601
56	0x3c81bb52	0.015836392
57	0x3b636083	0.0034694977
58	0xbe066658	-0.13124979
59	0xba182876	-0.0005804369
60	0xbd37a73e	-0.04483723
61	0x3cd4dcad	0.025984133
62	0x3c8ef903	0.017452722
63	0x3ce28ae7	0.027654124
64	0x3ba4b758	0.005026739
65	0xb9cbd2b9	-0.00038876178
66	0xb91d5f57	-0.00015008204
67	0x3898af10	7.280533e-05
68	0xbae1927d	-0.0017209795
69	0x3a9f5f25	0.0012159093
70	0x3a09fe65	0.0005264043
71	0xba168452	-0.0005741763
72	0xb85b5aa5	-5.2298088e-05
73	0xbbbc2599	-0.0057417867
74	0x3b30868e	0.002693567
75	0xbca9d7ef	-0.020732848
76	0xbac3f5ab	-0.0014950534
77	0x3b112573	0.0022147566
78	0xbc38a90d	-0.011270774
79	0x3a8c8159	0.0010719701
80	0x3c0c3d4d	0.008559537
81	0x3c6cefb3	0.014461446
82	0xbc3aa958	-0.011392914
83	0x37f2e18c	2.8953677e-05
84	0xbc574380	-0.013138652
85	0x39f0e77a	0.0004594883
86	0xb9c8f953	-0.00038332734
87	0x3c30bf44	0.010787789
88	0x3b1dae2c	0.0024060113
89	0x3a8717fa	0.0010306828
90	0xbc96c1e4	-0.018403001
91	0xb9184b4b	-0.00014523898
92	0xbbf4cfd2	-0.007471063
93	0x3ba037de	0.0048894724
94	0x3ae3f33d	0.0017391216
95	0x3b58010a	0.0032959604
96	0x3bf62e11	0.0075128158
97	0xba27853d	-0.00063903985
98	0x3c17d14b	0.009266208
99	0x39e19614	0.0004302716
100	0xbb7b3b79	-0.003833501
101	0x3b072816	0.0020623258
102	0x3a0c558e	0.0005353325
103	0x399879a7	0.00029082337
104	0x3a374044	0.00069904723
105	0x3eaf5740	0.34246254
106	0x3b95dd40	0.004573494
107	0xbe83dd67	-0.25754854
108	0xbb331136	-0.002732349
109	0x3ac0f1f0	0.001472054
110	0xbe00e27d	-0.12586398
111	0x3b335c4b	0.0027368243
112	0xbe2b49e1	-0.16727401
113	0xbcb69e0e	-0.022292163
114	0x3e79742a	0.2436072
115	0xba16a058	-0.0005745939
116	0x3eb4d88e	0.35321468
117	0x3a60bfbb	0.0008573492
118	0x3aa37d32	0.0012473224
119	0xbd61f1d4	-0.055162266
120	0x3ac96ac7	0.0015366905
121	0x3ae901c4	0.0017777015
122	0x3e0c0b5f	0.13676213
123	0xb8a12a00	-7.684901e-05
124	0x3c693020	0.014232665
125	0xbbff169b	-0.007784677
126	0x3aab3f1e	0.0013065075
127	0xbc111eae	-0.008857412
128	0xba3df29e	-0.00072459306
129	0x39568022	0.00020456364
130	0x3a8d7fca	0.001079553
131	0xb98d30bd	-0.0002692993
132	0xbae6686f	-0.0017578731
133	0xba3b5e02	-0.0007147492
134	0xb9c72bc4	-0.00037988846
135	0x3aad0263	0.0013199564
136	0x391e6570	0.00015105843
137	0x3b4a8799	0.0030903576
138	0xbad750f5	-0.0016427325
139	0x3b3a745e	0.0028450708
140	0x3a6be3bb	0.0008998473
141	0xba216aff	-0.0006157606
142	0x3a2e30b3	0.000664483
143	0xba2cf130	-0.0006597219
144	0xbacc1d29	-0.0015572655
145	0xbb58a545	-0.0033057493
146	0x3b81a1b2	0.003956043
147	0xb8f1ac7f	-0.000115239054
148	0x3c0bbd83	0.00852907
149	0xb9a2b12e	-0.00031031057
150	0x3a8b79e7	0.0010641188
151	0x39b2848a	0.00034049555
152	0xbaa73cc5	-0.00127592
153	0xb9e96a8c	-0.00044520607
154	0x3bd99e3e	0.0066411784
155	0x39b9aa40	0.00035412796
156	0x3ad6db4d	0.0016392261
157	0xbae248cd	-0.0017264128
158	0xba4730f5	-0.0007598543
159	0xbb53b507	-0.0032303946
160	0xba22291f	-0.0006185937
161	0xb91355e4	-0.00014051009
162	0x397fbe46	0.00024389577
163	0x3ad5ec3e	0.0016321016
164	0xbbdb8e4a	-0.006700312
165	0x3b51d141	0.0032015594
166	0x3b3936b7	0.0028261372
167	0xb72247dc	-9.6726835e-06
168	0xb7a0f920	-1.9189494e-05
169	0x3d5d8d4f	0.05408984
170	0x3b200d1e	0.002442188
171	0xbe13d2d3	-0.14435892
172	0xba095e7a	-0.00052402134
173	0x3b2798c2	0.0025573228
174	0xbd6d00bf	-0.05786204
175	0x3aaa580a	0.0012996208
176	0xbd4e2fd6	-0.05033859
177	0x3cba95a1	0.022776427
178	0x3c5c56b5	0.013448407
179	0x37ca882d	2.4143688e-05
180	0x3cebebf6	0.028799038
181	0x3a1ea103	0.00060512143
182	0x39888a42	0.00026042952
183	0xbc5097c4	-0.012731496
184	0x3c01744f	0.007901265
185	0x3b060ec3	0.0020455576
186	0xbb720613	-0.003692989
187	0x3818eb80	3.645895e-05
188	0xbc18a9a3	-0.009317788
189	0x3c0054bf	0.007832705
190	0x3b9d5eb9	0.0048025516
191	0x3c87a324	0.016557284
192	0xbb2a3615	-0.0025972177
193	0x39b5dae8	0.00034686108
194	0x3b0c6064	0.0021419758
195	0xb9bf761d	-0.0003651836
196	0x3a046a83	0.0005051272
197	0xbaa9abf9	-0.0012944929
198	0xb9c96df5	-0.00038419632
199	0x3adddd58	0.0016926927
200	0x394fa7fa	0.00019803634
201	0x39a92ebc	0.00032269012
202	0xbb46b511	-0.0030320326
203	0x3b66ef97	0.0035238022
204	0x3ab004bd	0.0013429146
205	0xbac2c054	-0.0014858344
206	0xbaf7f571	-0.0018917752
207	0xbaf1dee3	-0.0018453266
208	0xbc313f74	-0.010818351
209	0xbc24e60f	-0.010064616
210	0x3bcd43e7	0.006264198
211	0xb905c17d	-0.00012755948
212	0x3c7153b6	0.014729431
213	0xba0aa564	-0.00052889274
214	0x3aaa070d	0.0012972072
215	0xbc06fd13	-0.0082390485
216	0xba80772e	-0.0009801143
217	0xba846959	-0.0010102197
218	0x3c387335	0.011257936
219	0x39e4a1a8	0.00043607992
220	0x3b5f2637	0.0034049877
221	0xbb5a9da1	-0.0033358114
222	0xbaafbd08	-0.0013407776
223	0xbb5ba550	-0.0033515282
224	0xbb42fe4d	-0.0029753626
225	0x3947cf98	0.00019055454
226	0x3b813b77	0.0039438563
227	0xb9d2c694	-0.00040202274
228	0x3af3fff1	0.0018615705
229	0xba7ce522	-0.00096471806
230	0xba4bd57b	-0.00077756465
231	0x3b2e1da4	0.002656796
232	0x3a08f0af	0.0005223853
233	0x3d0e9070	0.034805715
234	0xbb0662aa	-0.0020505586
235	0x3d4f41b5	0.050599772
236	0x3a867081	0.0010256917
237	0xb9d3df63	-0.00040411492
238	0x3c735116	0.014850875
239	0xba56bbaa	-0.0008191416
240	0x3c3cc017	0.011520407
241	0xbc37b668	-0.011212923
242	0x3cdb0362	0.026735011
243	0xb9da6cc0	-0.00041661225
244	0x3d502a1a	0.0508214
245	0xb9cb64e8	-0.00038794358
246	0x3b2afefc	0.0026091924
247	0x3cc06188	0.023484007
248	0xbb7a6214	-0.0038205432
249	0xb9f944d7	-0.0004754427
250	0x3caa6c9e	0.020803746
251	0x3a379104	0.0007002505
252	0x3c2c2af2	0.010508286
253	0xbbba171e	-0.0056790253
254	0xbb93c6fe	-0.0045098057
255	0xbbe19e75	-0.0068853446

decoder_layer2.bias f4 [32]
0	0xbc67d064	-0.014148805
1	0xbdaf628a	-0.08563717
2	0xbc9b67a2	-0.018970314
3	0xbd171474	-0.03688474
4	0x3bde995a	0.0067931833
5	0x3d6b8a04	0.05750467
6	0x3c6c66d1	0.01442881
7	0xbaafa2cc	-0.0013399958
8	0x3c0ebe03	0.0087122945
9	0x3cb64fc7	0.022254838
10	0x3c4ce39b	0.012505437
11	0x3c47801b	0.012176539
12	0x3c66e93f	0.014093696
13	0x3cf2a29a	0.02961855
14	0x3c798c1c	0.015231159
15	0xbde2990e	-0.11064349
16	0x3af2f4b0	0.0018536057
17	0x3d51c677	0.05121466
18	0x3c1b3470	0.009472951
19	0xbc7a660a	-0.015283117
20	0xbce5578c	-0.027995847
21	0xba0c31d8	-0.00053480035
22	0x3b9cac63	0.0047812923
23	0xba9ac8dc	-0.0011809128
24	0x3ae38030	0.0017356928
25	0xbc3ff5ab	-0.011716287
26	0xbc92dd12	-0.01792768
27	0xbb80a94d	-0.003926432
28	0xbc590968	-0.0132468715
29	0xbcdd94fa	-0.027048577
30	0x3b0ab314	0.0021163868
31	0xbd1bf8d2	-0.03807909

decoder_layer3.weight f4 [32, 32]
0	0x3a1d9c2a	0.0006012345
1	0x3b547114	0.0032416033
2	0x3ac12e49	0.0014738525
3	0xbadc18c6	-0.0016792051
4	0xba87489a	-0.001032132
5	0xbb0c8d61	-0.0021446573
6	0xbafaa2d9	-0.0019122019
7	0xba610244	-0.00085834065
8	0xba520814	-0.0008012068
9	0x398244ed	0.00024846886
10	0xb9817713	-0.00024693515
11	0xb9e9f490	-0.00044623436
12	0x39767ced	0.00023506927
13	0x3a0de153	0.0005412299
14	0xbab0fa98	-0.0013502417
15	0xb997f0c0	-0.00028980337
16	0x3a266112	0.0006346862
17	0x3b4b5739	0.003102733
18	0xb9958893	-0.0002852125
19	0x3913896a	0.00014070203
20	0xbac6435f	-0.0015126279
21	0xb93afcf1	-0.0001783257
22	0xb9fb14a3	-0.00047889826
23	0x39e6c2d0	0.00044014165
24	0xb904e319	-0.00012673101
25	0xb9003ff1	-0.00012230851
26	0x3a7ae213	0.0009570431
27	0x3a868604	0.0010263328
28	0x39cf8f11	0.0003958871
29	0xbb11de6a	-0.0022257813
30	0x3a83da78	0.0010059616
31	0xba10051e	-0.00054939266
32	0x3b1ff952	0.002441008
33	0x3c32d12d	0.010914129
34	0x3af9a959	0.0019047662
35	0x3b4daeda	0.0031384737
36	0xbab8036a	-0.0014039103
37	0x3b24ce1d	0.0025147267
38	0xbb7193cf	-0.0036861782
39	0x3ae80a2e	0.0017703229
40	0xbac3aa9c	-0.0014928165
41	0x3a76e506	0.00094182824
42	0xbae659c8	-0.0017574364
43	0x3afdb58d	0.0019356475
44	0x3b6c299b	0.003603554
45	0x3ae17fd8	0.0017204238
46	0xbb3d1229	-0.0028849936
47	0xbb3a7e6e	-0.0028456706
48	0x3ab44af4	0.0013755248
49	0x3c195548	0.009358712
50	0x39c23180	0.00037039444
51	0x39a35052	0.00031149626
52	0x3b76f1f5	0.0037680839
53	0xb88bb292	-6.661298e-05
54	0xba4dc19b	-0.0007848979
55	0x3a579dca	0.00082251115
56	0x3b79dec5	0.0038127166
57	0xbb930b0e	-0.004487402
58	0x3b824b92	0.003976294
59	0xbac9cb22	-0.0015395621
60	0x3b1b8217	0.0023728663
61	0x3b676e98	0.0035313722
62	0xbba0cdc5	-0.004907342
63	0x3ac16305	0.0014754242
64	0xba4a3864	-0.00077140913
65	0xbb954de1	-0.004556403
66	0xb9dcdb62	-0.00042125123
67	0xba61eadf	-0.00086180674
68	0x3ac09235	0.0014692011
69	0x3aae0ab5	0.0013278337
70	0x3af39f43	0.0018586892
71	0x3b622ed4	0.0034512775
72	0x3a38d9d8	0.0007051504
73	0xba03c0a6	-0.000502596
74	0x3a1399e8	0.0005630539
75	0xb9b47bbb	-0.00034424462
76	0xb9467011	-0.000189245
77	0xb9cf9386	-0.0003959203
78	0x3a717907	0.0009211455
79	0x396eb69e	0.00022765479
80	0xb90373de	-0.00012536297
81	0xbb14e200	-0.0022717714
82	0xba936f7c	-0.0011248435
83	0x397d7156	0.00024170181
84	0x39cae63e	0.00038699986
85	0x390b0bbc	0.00013260444
86	0x3a1dc51f	0.0006018448
87	0xb9efc70d	-0.00045733937
88	0x38ba2374	8.875775e-05
89	0xb8fcfeb3	-0.00012063738
90	0xba229d8f	-0.00062032876
91	0xbb7ac808	-0.00382662
92	0xb9207869	-0.00015303645
93	0x3a6d5843	0.00090539845
94	0x3b198dbe	0.0023430432
95	0x3a191750	0.00058399606
96	0xbb23533f	-0.0024921445
97	0xbcf7ef49	-0.030265467
98	0xbbde3936	-0.0067817224
99	0x3b95ce8b	0.004571741
100	0x3bd144c3	0.006386371
101	0xbb609142	-0.0034266268
102	0x3c73e855	0.014886935
103	0xbafa4dd6	-0.0019096683
104	0x3bf430ad	0.0074520917
105	0xba00d335	-0.0004914285
106	0x3bb5bbb8	0.0055460595
107	0xbbe732eb	-0.0070556304
108	0xbbf1841c	-0.007370485
109	0xbb8b0d1b	-0.0042435057
110	0x3c2e00a4	0.01062027
111	0x3ac8f693	0.0015332274
112	0x3a8ae8ad	0.0010597907
113	0xbd09fae0	-0.03368652
114	0xbbe9cee2	-0.007135258
115	0xb85efd82	-5.3165022e-05
116	0xbc06fa08	-0.008238323
117	0xbad2e830	-0.0016090926
118	0x3b9d292d	0.0047961683
119	0xbb546e01	-0.00324142
120	0xba33a358	-0.0006852648
121	0x3a02d453	0.0004990745
122	0xbc641d60	-0.013923019
123	0x3b319c00	0.002710104
124	0xbc19c174	-0.009384502
125	0xbc02be05	-0.0079798745
126	0x3b48cc22	0.003063925
127	0xbb3304ad	-0.002731602
128	0xba34dcdd	-0.0006899366
129	0x3b7b8031	0.0038375969
130	0x395d45aa	0.00021102154
131	0xbb6059a7	-0.0034233124
132	0xbaba63fd	-0.0014220473
133	0xbb35ed27	-0.0027759762
134	0xbaf124c1	-0.0018397794
135	0xbb59396d	-0.00331458
136	0xb9aff56b	-0.00033561452
137	0x3b293d79	0.0025823994
138	0x3a8d7c19	0.001079443
139	0xb953a0af	-0.00020182387
140	0x3abd23c5	0.0014430216
141	0x3ac3c414	0.0014935755
142	0xb9ecc341	-0.00045158903
143	0x39abfc7c	0.00032803777
144	0x3a2b36d0	0.00065313
145	0x3b1651fd	0.0022937052
146	0x3a981852	0.0011603928
147	0xb9b8e8c7	-0.00035268647
148	0xbb2da3d8	-0.0026495364
149	0xb9ee8c51	-0.0004549944
150	0xb8bdeaaf	-9.0559355e-05
151	0x3a26d070	0.0006363457
152	0xba215416	-0.00061541924
153	0xbafc6ae8	-0.0019257935
154	0xb9f29428	-0.00046268222
155	0x3b651ec6	0.003496097
156	0xba8d29e7	-0.0010769934
157	0xbb548c18	-0.0032432135
158	0x3ac76520	0.0015212633
159	0xbb7914f6	-0.0038006878
160	0x3a2e954f	0.0006659822
161	0x3b456455	0.0030119617
162	0x3b127143	0.0022345341
163	0xb9863408	-0.00025597238
164	0xb981b93a	-0.00024742802
165	0x3a85145b	0.0010153161
166	0xbabcf6af	-0.0014416779
167	0x3b243960	0.0025058612
168	0xba52c51e	-0.0008040237
169	0xba3aa28c	-0.0007119558
170	0xba472f8c	-0.00075983326
171	0xba521673	-0.00080142095
172	0xb9639a0c	-0.00021705794
173	0xb7dfbe0e	-2.6672173e-05
174	0xbae26179	-0.0017271481
175	0xb9d8f277	-0.0004137938
176	0x3a17bb15	0.000578807
177	0x3b6097d5	0.0034270186
178	0xbb027f62	-0.0019912352
179	0x3a847869	0.0010106686
180	0x38bb1f5b	8.922695e-05
181	0xb9b8c952	-0.0003524521
182	0xb9a032db	-0.00030555468
183	0x3ac5b561	0.0015083962
184	0x39a0add6	0.00030647096
185	0x3aa700ce	0.0012741329
186	0x3b03d2db	0.0020114693
187	0xbb2e9d2c	-0.0026643975
188	0x3ab4f81e	0.0013806855
189	0x3a305893	0.0006727066
190	0x39affeb1	0.0003356836
191	0x3b0ac20b	0.0021172788
192	0xbc5c4070	-0.0134430975
193	0xbe74a0bd	-0.23889442
194	0x3b572720	0.0032829717
195	0x3ef48e8c	0.47765005
196	0x3ac7c3fa	0.0015240901
197	0x3d8dfd45	0.06933073
198	0x3b720329	0.0036928153
199	0xba8c2ebe	-0.0010695083
200	0x3b1434fc	0.002261459
201	0x3cb8e6f2	0.02257106
202	0x3a5df961	0.00084676413
203	0xb8be89da	-9.085583e-05
204	0x3cbe0e4b	0.023200175
205	0x3ced390f	0.028957872
206	0x3b7ffb8a	0.003905984
207	0x3b3a0548	0.0028384496
208	0xbbe5327c	-0.0069945436
209	0x3edee00e	0.43530315
210	0x3c34fb7e	0.011046289
211	0xbba86a10	-0.0051395968
212	0x3ca19d21	0.019728245
213	0xb9828390	-0.00024893554
214	0xba5f89d8	-0.0008527315
215	0x3b182c26	0.0023219674
216	0xbab18e6b	-0.0013546472
217	0x3a2cbbee	0.0006589283
218	0xba0ff88c	-0.00054920535
219	0x3b68c814	0.0035519646
220	0xbb9d086b	-0.0047922633
221	0x3c8ff7e3	0.017574256
222	0x3c1118d5	0.008856018
223	0xbc96e5d3	-0.018420136
224	0x3980d5ca	0.00024573348
225	0x3bf63891	0.0075140675
226	0x3b441e60	0.0029925331
227	0x3b1ec3b4	0.0024225535
228	0xbaa20493	-0.0012360982
229	0xba94dc75	-0.0011357205
230	0xbb4c36de	-0.0031160633
231	0x3a997957	0.0011709136
232	0xba9f5009	-0.001215459
233	0x3a13c8cf	0.0005637528
234	0xb98a8a68	-0.00026424532
235	0xba510746	-0.0007973801
236	0x3a90cd00	0.0011047423
237	0x3b06c9a4	0.0020566965
238	0xbb029dd8	-0.0019930508
239	0xba42c1f6	-0.0007429415
240	0xb901ce9f	-0.00012379371
241	0x3bf33131	0.0074216356
242	0x3a08ed21	0.0005223323
243	0x3ae66ccd	0.0017580033
244	0xb873a4b6	-5.8089114e-05
245	0xb909e815	-0.00013151795
246	0xb9a0c38f	-0.0003066328
247	0x39801328	0.00024428335
248	0xbbb50eb7	-0.005525436
249	0x3b8064d1	0.0039182683
250	0x3b1c4ab4	0.0023848237
251	0xbaa081ac	-0.0012245676
252	0x3a91df66	0.00111292
253	0xba1e5e66	-0.0006041288
254	0xbb5b1bdc	-0.0033433354
255	0xb966c260	-0.0002200692

decoder_layer3.bias f4 [32]
0	0x394ab2fa	0.00019330895
1	0x3abc03ff	0.0014344453
2	0xba0825d5	-0.00051936257
3	0xbb838f40	-0.0040148795
4	0xba0206f8	-0.0004960145
5	0x39b31461	0.00034156724
6	0x3dc258e2	0.09489609
7	0x3aac1cf6	0.001313119
8	0xb9c4d376	-0.00037541584
9	0xba01d071	-0.00049520197
10	0xba2d350a	-0.00066073297
11	0xbab94d70	-0.0014137458
12	0x3c3504bd	0.011048493
13	0x3aafc364	0.0013409671
14	0xbb022308	-0.0019857306
15	0xbb010a6c	-0.001969005
16	0x3902142f	0.00012405285
17	0xba21d7e4	-0.0006173833
18	0xba718fc1	-0.00092148414
19	0xbb88cb83	-0.004174651
20	0x39e6fc04	0.00044056785
21	0x38886a2a	6.50476e-05
22	0x3c614887	0.013750202
23	0x3a6f1d2e	0.00091214746
24	0x39b857c3	0.00035160602
25	0x3acdbfab	0.001569738
26	0xb94a7d38	-0.00019310869
27	0xba3b03d8	-0.00071340567
28	0x3dc7754e	0.09739171
29	0xb9a4c20c	-0.00031425094
30	0xbb06ec65	-0.002058768
31	0xbc82a57d	-0.015948052
