results/vae_models/Heart.pt (torch, 362183 bytes, 75 tensors)

dof f4 [13]
5.417106 0.37438345 4.50617 4.859303 4.8116345 0.7375447 7.1110487 4.7489104
0.39802617 3.2908587 1.0345396 0.44690323 1.3285717
00000000: ef58 ad40 30af bf3e 8b32 9040 697f 9b40
00000010: e9f8 9940 bbcf 3c3f b68d e340 13f7 9740
00000020: 16ca cb3e 6e9d 5240 cb6b 843f 80d0 e43e
00000030: a30e aa3f

encoder_layer1.weight f4 [128, 13]
0.061871316 0.11505225 -0.0018948538 -0.059932373 0.019476349 -0.023507847 -0.051552493 -0.14732781
-0.008987897 0.14492811 -0.16051301 -0.044605512 -0.015518847 0.0049453047 0.062191274 0.023717972
-0.067196004 -0.010606232 -0.0028532539 -0.015335016 0.02666827 -0.0039131 -0.013872669 -0.14320785
-0.010558667 -0.014673411 0.08044069 0.0017408582 0.02799931 -0.20919967 -0.046852883 0.018840484
-0.10583973 0.0010121368 0.02827276 0.015776291 -0.10604213 -0.075322114 0.11587032 -0.0073002563
0.105937555 0.045077976 -0.27173224 -0.006475565 -0.17031422 -0.18972105 -0.17222129 0.1156078
0.064190656 0.09284405 0.024163723 0.032308195 -0.03846206 0.017515598 -0.013861285 0.049147043
-0.049955916 0.014324489 -0.0420635 0.020838264 -0.014675947 -0.030583663 -0.11981151 -0.016330399
0.031900994 0.0609992 0.022507124 -0.07660426 0.11536302 -0.0079258755 -0.0061872383 0.1447459
-0.053822655 -0.07306684 -0.0030348655 -0.098099746 -0.01805995 -0.15674758 -0.09285937 -0.030221172
0.026180848 0.0053186473 -0.012015866 0.021772815 -0.045357034 -0.015606573 0.013144528 0.0027041747
0.008978201 -0.0124497665 0.0010460989 -0.14862196 -0.03983265 0.011953255 -0.03298153 0.006629424
-0.012993316 -0.003849047 0.22025432 0.014241528 -0.2556348 0.21035469 -0.012763227 -0.19902484
-0.13371816 -0.0018829332 0.037270516 0.0931102 -0.027617859 -0.031349592 0.04340296 0.014262586
-0.014465172 0.03722982 -0.011127179 0.0064937817 -0.116659656 -0.0738578 -0.0012517627 0.02034649
-0.1055852 0.010592501 -0.01714794 -0.04691203 -0.024101814 0.0104403645 0.006776615 0.029760914
0.008158534 0.018862091 0.038087174 -0.036768384 0.013924729 -0.050691355 0.029205013 0.010320702
0.016650116 -0.041713443 -0.0016453341 0.0027210636 0.024152504 -0.0055057327 -0.014128795 -0.055545513
-0.10017309 -0.02745231 0.09508986 -0.017640237 0.05127339 -0.034289747 0.052934382 0.001327401
-0.0014140423 -0.0648429 0.016939634 0.14510772 -0.006985038 0.041629855 0.053669743 -0.03724756
-0.014755115 -0.062401738 -0.0479664 -0.16646539 -0.0042973384 0.08080881 -0.019470843 -0.0016686112
-0.026287865 -0.09797317 0.0033750995 0.104299165 -0.058496155 -0.018656936 0.15312977 -0.018218212
0.12330646 -0.19738118 -0.30856305 0.20121239 -0.03233933 -0.18772233 0.03571358 -0.0160702
-0.03624236 0.060329 -0.115116954 -0.012839497 -0.044742383 -0.04729097 0.00131863 -0.14522818
0.058506407 0.0052222395 -0.030872935 0.008354149 -0.025881765 0.018277574 0.085264266 -0.101944335
0.087171555 0.114714414 -0.0673304 0.084955186 0.15423457 -0.27246657 0.13194 0.01891159
-0.11299876 -0.052643936 -0.012020108 0.034266252 0.004868912 0.07010871 -0.06040994 0.10733788
-0.017446829 0.0754024 -0.17668732 0.008908295 0.14652115 0.044488177 0.043698747 -0.018374858
-0.06158824 -0.0026212886 -0.023669131 -0.031606745 -0.10469129 -0.026434671 0.030689415 -0.0013298092
-0.01838054 -0.06165069 0.06063287 0.059679862 0.012031349 -0.05830686 -0.072954744 -0.021947999
-0.015075561 0.034872305 -0.0031040017 -0.01122121 -0.045642372 -0.027516523 -0.19989829 0.18403624
-0.027533215 -0.056455974 0.0017604522 0.026259799 -0.08916131 -0.08785467 -0.22064707 -0.022468084
00000000: c76c 7d3d 84a0 eb3d be5c f8ba a67b 75bd
00000010: dd8c 9f3c 8793 c0bc b528 53bd 1add 16be
00000020: f941 13bc 0968 143e 865d 24be 45b4 36bd
00000030: c342 7ebc 390c a23b 47bc 7e3d 314c c23c
00000040: 0f9e 89bd c3c5 2dbc a8fd 3abb b83f 7bbc
00000050: 6a77 da3c 7639 80bb 314a 63bc 14a5 12be
00000060: 42fe 2cbc bf68 70bc 17be a43d 822d e43a
00000070: cf5e e53c 7038 56be cfe8 3fbd 5c57 9a3c
00000080: 80c2 d8bd ada9 843a 469c e73c 483d 813c
00000090: 9e2c d9bd 7b42 9abd 6b4d ed3d fd36 efbb
000000a0: caf5 d83d afa3 383d 7d20 8bbe fa30 d4bb
000000b0: da66 2ebe 3c46 42be c75a 30be c8c3 ec3d
000000c0: 6476 833d 0525 be3d 00f3 c53c 9955 043d
000000d0: 658a 1dbd df7c 8f3c 711a 63bc 694e 493d
000000e0: 939e 4cbd 43b1 6a3c c74a 2cbd 02b5 aa3c
000000f0: 6273 70bc 978a fabc bd5f f5bd 54c7 85bc
00000100: 9eaa 023d 4cda 793d dc60 b83c b2e2 9cbd
00000110: 7243 ec3d 88db 01bc 51be cabb 4538 143e
00000120: 2575 5cbd 11a4 95bd 98e4 46bb 85e8 c8bd
00000130: 76f2 93bc 7082 20be 0e2d bebd 6492 f7bc
00000140: 3879 d63c 0c48 ae3b 32de 44bc e75c b23c
00000150: 4cc8 39bd b6b2 7fbc 255c 573c 8638 313b
00000160: 4e19 133c 1bfa 4bbc 411d 893a 5b30 18be
00000170: 9027 23bd 96d7 433c a417 07bd a43b d93b
00000180: ebe1 54bc 4b40 7cbb 598a 613e 4c55 693c
00000190: 91e2 82be 3867 573e db1c 51bc 2bcd 4bbe
000001a0: 6aed 08be c1cc f6ba f8a8 183d 8fb0 be3d
000001b0: d93e e2bc 6e68 00bd 4dc7 313d 9fad 693c
000001c0: 54ff 6cbc 4c7e 183d c54e 36bc cac9 d43b
000001d0: 42eb eebd c242 97bd 3012 a4ba afad a63c
000001e0: 0e3d d8bd 2b8c 2d3c d679 8cbc d426 40bd
000001f0: 2b71 c5bc 100e 2b3c 5e0e de3b 29cd f33c
00000200: 5fab 053c ac84 9a3c 4c01 1c3d 729a 16bd
00000210: 8c24 643c bda1 4fbd 5a3f ef3c 2918 293c
00000220: d365 883c b7db 2abd 40a8 d7ba df53 323b
00000230: 79db c53c 6f69 b4bb 767c 67bc b183 63bd
00000240: 8d27 cdbd abe3 e0bc 79be c23d 4282 90bc
00000250: 0c04 523d 6873 0cbd b9d1 583d 30fc ad3a
00000260: 6357 b9ba 5bcc 84bd fdc4 8a3c 1e97 143e
00000270: bfe2 e4bb 1184 2a3d ced4 5b3d e690 18bd
00000280: 70bf 71bc f798 7fbd 6a78 44bd e775 2abe
00000290: b0d0 8cbb 177f a53d 5181 9fbc 4db5 daba
000002a0: a659 d7bc 28a6 c8bd c630 5d3b cd9a d53d
000002b0: aa99 6fbd 6ed6 98bc 0dce 1c3e 5c3e 95bc
000002c0: 1988 fc3d 4b1e 4abe fafb 9dbe 9f0a 4e3e
000002d0: 3f76 04bd 483a 40be 6748 123d a7a5 83bc
000002e0: de72 14bd 8b1b 773d 70c2 ebbd c15c 52bc
000002f0: ca43 37bd 2db4 41bd e1d5 ac3a b2b6 14be
00000300: 6aa4 6f3d 521f ab3b 3de9 fcbc d7df 083c
00000310: ff05 d4bc daba 953c 089f ae3d 31c8 d0bd
00000320: 0087 b23d 64ef ea3d 85e4 89bd fcfc ad3d
00000330: abef 1d3e bd80 8bbe 481b 073e 7bec 9a3c
00000340: e56b e7bd 2ba1 57bd fdef 44bc c55a 0c3d
00000350: 658b 9f3b 2895 8f3d 6a70 77bd f6d3 db3d
00000360: a7ec 8ebc 936c 9a3d 85ed 34be 19f4 113c
00000370: a409 163e 3c39 363d 75fd 323d df86 96bc
00000380: f343 7cbd edc9 2bbb c4e5 c1bc 1376 01bd
00000390: 6368 d6bd 868d d8bc 5e68 fb3c fe4c aeba
000003a0: c992 96bc 6f85 7cbd 2c5a 783d df72 743d
000003b0: 231f 453c 2dd3 6ebd 4c69 95bd 4acc b3bc
000003c0: 7cff 76bc 43d6 0e3d 826c 4bbb 2ad9 37bc
000003d0: 7ff3 3abd 556a e1bc 23b2 4cbe ff73 3c3e
000003e0: 568d e1bc 613e 67bd f9be e63a ca1e d73c
000003f0: 349a b6bd 26ed b3bd 4ef1 61be fd0e b8bc

encoder_layer1.bias f4 [128]
0.16377617 0.092572294 0.09334177 0.06459275 0.07717695 0.12168319 0.06821937 -0.016894463
0.09243623 0.058161862 0.029520271 -0.017266763 0.12289542 -0.01864587 0.03352508 0.118533984
0.064848855 0.103434846 0.14408734 0.08765372 0.023154896 0.09824402 0.08660336 0.15393004
0.010055094 0.0737941 0.11070355 -0.02801978 0.084743045 0.03568622 0.029961735 0.19632058
0.12924482 -0.003390982 0.14856918 0.06262168 0.07477035 0.019005181 0.09650323 0.038312193
0.04617069 -0.03437556 0.063884474 0.027060386 0.06386097 0.046225734 0.086549245 0.065446
0.044001777 0.11778323 0.033458978 0.07052514 0.044771176 0.13747682 0.091809325 -0.06385657
0.01703461 0.15141793 0.1729199 0.17041303 0.04773244 -0.04239672 0.1262023 0.12985681
0.13759054 0.05628972 0.1515138 0.08093744 0.019243788 0.02516295 0.1018348 0.13207246
0.0836979 0.054956336 0.0039071273 0.093815945 0.12402251 -0.0018483393 0.04307672 0.039286036
0.1478042 0.1646255 0.14943203 0.10263394 0.15944314 0.100239225 0.14357923 0.009350521
0.03133502 0.040798545 0.045365274 0.059610024 0.08431994 0.057907835 -0.029481018 0.113905095
0.069225974 0.0043678386 0.1341457 0.13021632 0.105011925 -0.019099083 0.10432506 0.037006345
0.063280515 0.027530864 -0.005798201 0.15810542 -0.08886997 0.1005505 0.13859807 0.09323476
-0.0052162074 0.059490044 0.14843863 0.16067266 0.111798964 0.109553546 0.12706396 0.10369703
0.05384595 0.06508669 -0.046908803 0.036744628 0.2007535 0.047207918 0.03133746 0.05059566
00000000: f1b4 273e 8b96 bd3d f829 bf3d 3449 843d
00000010: f30e 9e3d 0935 f93d 99b6 8b3d 4266 8abc
00000020: 354f bd3d 223b 6e3d 7fd4 f13c 0773 8dbc
00000030: 98b0 fb3d 39bf 98bc 9851 093d f2c1 f23d
00000040: 7acf 843d a6d5 d33d a28b 133e cb83 b33d
00000050: 56af bd3c 2934 c93d 1a5d b13d d69f 1d3e
00000060: 1fbe 243c 5c21 973d 8bb8 e23d bd89 e5bc
00000070: c38d ad3d b72b 123d 5072 f53c 4308 493e
00000080: c158 043e 3d3b 5ebb 8522 183e cc3f 803d
00000090: 3221 993d c1b0 9b3c 7ca3 c53d 3fed 1c3d
000000a0: 7a1d 3d3d 63cd 0cbd ddd5 823d bead dd3c
000000b0: 8ac9 823d 3257 3d3d bb40 b13d 8d08 863d
000000c0: 353b 343d 5638 f13d 480c 093d 7c6f 903d
000000d0: fb61 373d b9c6 0c3e 8706 bc3d 3cc7 82bd
000000e0: 2b8c 8b3c 4d0d 1b3e ea11 313e c180 2e3e
000000f0: 1783 433d 2fa8 2dbd 2d3b 013e 2ff9 043e
00000100: 89e4 0c3e 0d90 663d 6f26 1b3e 87c2 a53d
00000110: 26a5 9d3c 8822 ce3c c38e d03d 013e 073e
00000120: ce69 ab3d e519 613d 5c07 803b 9322 c03d
00000130: 84ff fd3d fa43 f2ba 3771 303d 65ea 203d
00000140: fc59 173e 9693 283e b604 193e be31 d23d
00000150: 1045 233e 394a cd3d 6f06 133e ed32 193c
00000160: 2659 003d 601c 273d f0d0 393d a429 743d
00000170: efaf ac3d c430 6d3d 2d82 f1bc 1347 e93d
00000180: 59c6 8d3d 1620 8f3b 7e5d 093e 6d57 053e
00000190: 7e10 d73d ae75 9cbc 61a8 d53d f793 173d
000001a0: 3799 813d 6888 e13c d6fe bdbb 63e6 213e
000001b0: 7501 b6bd 6ced cd3d a7ec 0d3e def1 be3d
000001c0: b8ec aabb d5ab 733d 4c00 183e 6087 243e
000001d0: dbf6 e43d 9c5d e03d 0e1d 023e 1c5f d43d
000001e0: 928d 5c3d 2c4c 853d 7223 40bd 8981 163d
000001f0: 5392 4d3e 175d 413d b55b 003d 653d 4f3d

encoder_layer2.weight f4 [64, 128]
-0.003840498 -0.0054615918 -0.019009978 -0.0038354585 0.017361438 0.015566514 0.002204603 0.01942834
0.021233294 -0.0028352505 -0.008028403 0.0143609 -0.0080805365 0.061757818 0.018426586 0.05890237
0.02631598 -0.0029760967 0.014267606 -0.059310455 0.019151185 0.012047128 0.042528577 -0.022485787
0.027411964 -0.009254483 0.0143166855 -0.018595017 -0.007576129 -0.024414925 -0.0326154 0.0054917876
-0.007874469 -0.034126416 0.0467476 0.008014796 -0.010190901 -0.0855062 -0.013067528 -0.04717687
0.016010856 0.02058839 -0.020673277 -0.003333228 -0.014541395 0.0059700524 -0.008476706 0.03802905
0.024455307 0.016774299 -0.028806185 -0.023464108 -0.0014216463 -0.046860084 -0.023900785 -0.034298714
-0.0033002961 0.010840875 0.0027679568 0.013456736 -0.024229776 -0.019826738 0.004834277 -0.018895824
0.009834664 -0.013240457 0.013007494 0.029755376 -0.008225178 0.0042469315 0.02182952 -0.02135434
-0.004071619 0.011538085 0.07522147 0.006252356 -0.04244388 0.036821198 0.022888782 0.004108403
0.012016933 0.000104963896 0.016184105 0.036510356 0.034601003 0.03941438 0.0013410328 -0.007201915
0.0072525223 0.015756676 -0.0338988 0.01438355 0.034223568 -0.016218053 0.017564068 -0.0053322418
0.014451866 0.0125724 -0.0009352955 0.0098917885 0.020212099 0.0025024042 0.0027678078 -0.0039220513
-0.00718134 0.019226415 0.0047347588 0.0101199 0.026555385 -0.03742027 -0.012713833 0.043730132
0.04385203 0.055122115 0.014398358 -0.02816207 0.009444028 -0.032855097 0.013160863 0.010325313
0.0027424768 0.0036911757 -0.0019171111 -0.030945273 0.07200423 -0.013549763 0.0045822524 0.031248078
0.023582153 -0.00022265135 0.0025557145 -0.0005610955 0.00089410506 0.0244845 -0.024894398 -0.042493526
-0.000973523 -0.00800767 -0.029450802 -0.008826377 -0.010122783 0.038005117 0.038018994 0.10915359
-0.034720637 0.002975184 0.0063263103 -0.10364055 0.013389904 -0.02940969 0.00091594364 0.03419057
0.025171757 0.018605523 0.009851709 -0.0052786497 -0.005364684 -0.025429972 -0.021623826 0.01050435
0.022512818 0.1146277 0.056696028 0.0040095807 0.0020386095 -0.019763552 -0.0012635143 -0.10922954
0.008668345 -0.050741907 -0.015097078 -0.04376914 -0.004280255 -0.08405637 -0.016440334 -0.025275694
0.010411275 -0.008384539 -0.04626111 -0.017495679 -0.030044127 0.030710666 0.07547241 -0.03960896
0.022062201 -0.03474736 0.0015151991 0.018766306 0.0052979738 -0.071235344 -0.04697809 0.012471693
0.010977532 0.029945761 -0.034729443 0.005691659 0.035031047 -0.030349784 -0.0088027995 -0.016529638
-0.001163337 0.039553005 0.073727176 -0.022050878 -0.006337383 0.048880715 -0.013077999 -0.022120252
0.02693749 0.008757163 0.009835768 0.05197898 0.018449718 -0.006076549 -0.008388427 -0.082631975
-0.034273114 -0.012084546 -0.11351162 0.033774108 0.013664131 0.0018018144 0.03671309 0.0056163147
0.037911948 -0.004530153 -0.016511012 0.003467447 0.02861952 0.014634625 0.01443287 -0.013162259
0.025816688 -0.0145573495 -0.03912528 -0.0024493644 0.0070008207 -0.0072816224 0.0029502555 -0.04003171
0.027541757 -0.057068504 0.0026395957 -0.029645318 0.016076844 0.0040615215 -0.018746583 -0.012030043
0.057249583 0.003649511 0.028274054 -0.0409094 -0.0299421 0.01106911 0.0059967358 -0.011631306
00000000: ddb0 7bbb 27f7 b2bb d0ba 9bbc 515c 7bbb
00000010: 9339 8e3c b10a 7f3c 1a7b 103b 2f28 9f3c
00000020: 72f1 ad3c 9ccf 39bb 9089 03bc fb49 6b3c
00000030: 3a64 04bc c4f5 7c3d 5af3 963c 9d43 713d
00000040: 9c94 d73c 9e0a 43bb adc2 693c 85ef 72bd
00000050: f2e2 9c3c 5161 453c 7232 2e3d 1d34 b8bc
00000060: 0e8f e03c 1da0 17bc 8890 6a3c 9454 98bc
00000070: 2d41 f8bb cf01 c8bc ba97 05bd 74f4 b33b
00000080: eb03 01bc 24c8 0bbd 697a 3f3d 7e50 033c
00000090: bdf7 26bc e01d afbd 2f19 56bc 893c 41bd
000000a0: 3329 833c fca8 a83c 015b a9bc 4972 5abb
000000b0: 083f 6ebc 6ea0 c33b e2e1 0abc 59c4 1b3d
000000c0: 7f56 c83c 416a 893c f3fa ebbc cd37 c0bc
000000d0: 8956 baba 5cf0 3fbd 94cb c3bc cf7c 0cbd
000000e0: c849 58bb ed9d 313c 9c66 353b a479 5c3c
000000f0: 867d c6bc af6b a2bc db68 9e3b 6acb 9abc
00000100: 9221 213c 80ee 58bc 621d 553c 8cc1 f33c
00000110: e6c2 06bc d829 8b3b d2d3 b23c 4cef aebc
00000120: 376b 85bb 3c0a 3d3c b70d 9a3d 90e0 cc3b
00000130: a2d9 2dbd d3d1 163d 4181 bb3c c89f 863b
00000140: ace2 443c 1020 dc38 8794 843c e28b 153d
00000150: c8b9 0d3d f970 213d 98c5 af3a 0bfe ebbb
00000160: 91a6 ed3b 2514 813c 78d9 0abd fba8 6b3c
00000170: 032e 0c3d b9db 84bc 85e2 8f3c 16ba aebb
00000180: 85c7 6c3c 78fc 4d3c 9e2e 75ba 2b11 223c
00000190: d893 a53c 60ff 233b 1c64 353b 8d84 80bb
000001a0: 7251 ebbb b780 9d3c 0926 9b3b f0cd 253c
000001b0: ae8a d93c ff45 19bd ae4d 50bc 5e1e 333d
000001c0: 309e 333d bac7 613d 17e7 6b3c 24b4 e6bc
000001d0: 20bb 1a3c 1193 06bd a9a0 573c 802b 293c
000001e0: 20bb 333b a7e7 713b 9347 fbba f180 fdbc
000001f0: f476 933d d3ff 5dbc b826 963b f8fb ff3c
00000200: 5c2f c13c 8477 69b9 c67d 273b 7b16 13ba
00000210: 6062 6a3a b893 c83c 56ef cbbc b10d 2ebd
00000220: 0634 7fba 9a32 03bc cf42 f1bc 829c 10bc
00000230: 07da 25bc 41ab 1b3d ceb9 1b3d eb8b df3d
00000240: 3a37 0ebd 4efb 423b f04c cf3b 7f41 d4bd
00000250: 5461 5b3c 97ec f0bc f01b 703a 690b 0c3d
00000260: 0035 ce3c 9c6a 983c 1069 213c 86f8 acbb
00000270: 3bca afbb 8452 d0bc 7324 b1bc 701a 2c3c
00000280: cd6c b83c edc1 ea3d 183a 683d cd62 833b
00000290: 319a 053b 2ce7 a1bc 819c a5ba bdb3 dfbd
000002a0: ad05 0e3c bfd6 4fbd bc59 77bc 4547 33bd
000002b0: 6241 8cbb bf25 acbd e1ad 86bc f90e cfbc
000002c0: 0d94 2a3c 4e5f 09bc 4a7c 3dbd 1953 8fbc
000002d0: 1a1f f6bc ef94 fb3c 4791 9a3d 013d 22bd
000002e0: cabb b43c 3f53 0ebd a599 c63a ccbb 993c
000002f0: a09a ad3b d6e3 91bd 196c 40bd 1256 4c3c
00000300: 1bdb 333c d050 f53c 7640 0ebd 1981 ba3b
00000310: b77c 0f3d 1ca0 f8bc 9e39 10bc 2a69 87bc
00000320: 1d7b 98ba 5502 223d 46fe 963d 0ba4 b4bc
00000330: d2a9 cfbb 2537 483d 1b45 56bc 8835 b5bc
00000340: 03ac dc3c 347a 0f3c 3326 213c e9e7 543d
00000350: dd23 973c ca1d c7bb 9d6f 09bc f43a a9bd
00000360: f761 0cbd 42fe 45bc c878 e8bd b856 0a3d
00000370: 85df 5f3c dc2a ec3a 7760 163d 1009 b83b
00000380: 8f49 1b3d ad71 94bb 1a42 87bc 1b3e 633b
00000390: 7c73 ea3c 11c6 6f3c d877 6c3c 84a6 57bc
000003a0: 857d d33c f381 6ebc d441 20bd 8485 20bb
000003b0: 2467 e53b ad9a eebb 1359 413b 4af8 23bd
000003c0: 409f e13c aac0 69bd 11fd 2c3b bdda f2bc
000003d0: 96b3 833c 8316 853b 6f92 99bc a819 45bc
000003e0: 8a7e 6a3d a22c 6f3b fd9e e73c 9d90 27bd
000003f0: 2349 f5bc 365b 353c 4480 c43b 3c91 3ebc

encoder_layer2.bias f4 [64]
0.04075035 0.026889376 0.002265745 0.013270373 -0.1763626 0.047594845 0.012294133 0.035233717
-0.10543242 0.05001422 0.046161756 -0.44588006 0.016514864 0.04069116 0.019426681 0.041079827
0.047670055 0.01701633 0.026214788 0.00978175 0.02531465 0.024643464 0.03323055 0.05624598
0.010462675 0.00032063993 0.0699364 0.09580827 0.0037038063 -0.0019094391 -0.00584548 -0.0131120775
0.057763938 0.016040504 0.071620815 0.024032988 0.04338222 0.07298825 0.03011146 0.033983286
0.022221018 -0.0010200932 -0.0067225453 0.002815043 -0.00015486922 0.022691697 0.015638145 0.019412987
0.0220693 0.056165524 0.061270434 0.03947841 0.013797109 0.02895522 0.03348994 -0.0036138978
0.013405274 -0.019294258 0.05447856 0.086551785 0.016384883 0.015819842 0.04271575 0.017460348
00000000: d7e9 263d 1c47 dc3c e57c 143b fb6b 593c
00000010: 6698 34be d0f2 423d 556d 493c 3b51 103d
00000020: f4ec d7bd b6db 4c3d 1c14 3d3d 644a e4be
00000030: 2e4a 873c c6ab 263d b424 9f3c 5243 283d
00000040: ad41 433d d565 8b3c 65c0 d63c a243 203c
00000050: ab60 cf3c 17e1 c93c c21c 083d 2f62 663d
00000060: a46b 2b3c 901b a839 d13a 8f3d 2037 c43d
00000070: 8fbb 723b 2546 faba 718b bfbb 0ad4 56bc
00000080: e199 6c3d 6067 833c efad 923d d4e0 c43c
00000090: 8eb1 313d dd7a 953d 4fac f63c 0f32 0b3d
000000a0: da08 b63c a6b4 85ba cc48 dcbb 967c 383b
000000b0: 6464 22b9 f0e3 b93c 911b 803c fc07 9f3c
000000c0: adca b43c d20d 663d b5f6 7a3d 1db4 213d
000000d0: 450d 623c 7f33 ed3c bf2c 093d 25d7 6cbb
000000e0: cba1 5b3c fe0e 9ebc e924 5f3d 1042 b13d
000000f0: 9739 863c 9d98 813c b6f6 2e3d 0109 8f3c

encoder_layer3.weight f4 [32, 64]
-0.058891565 -0.0027120681 0.047847167 -0.009934584 0.06351914 0.15659508 -0.021177141 -0.087567136
0.00075827853 -0.067076705 -0.09153534 0.029971967 -0.11878153 0.028378673 -0.02864628 -0.03305565
-0.04078384 -0.13087244 0.035319425 0.11257561 0.0063976883 -0.031154828 -0.11320906 0.042735938
0.037382577 -0.03644827 -0.048522078 -0.005861286 0.042894006 -0.059111122 0.033511993 -0.021171639
-0.034114793 0.052590325 0.047177017 -0.067449644 0.105294675 0.020923877 -0.20369181 0.015843753
-0.026085332 0.026000183 -0.014721642 -0.0008646096 -0.01914325 0.053793766 -0.008451488 -0.011864422
-0.015909508 0.07652551 -0.01015739 -0.0324953 -0.0054355618 -0.03129413 0.13611808 0.02671995
-0.02864087 -0.06278516 -0.053871557 0.04415925 0.100135215 0.07183239 -0.029538399 -0.015381639
0.005253887 0.0016296145 0.053263534 -0.049699523 0.42259887 -0.04736246 0.012836488 0.23558255
-0.37985447 0.058330357 -0.07234745 0.42832795 0.06785145 -0.11619621 -0.031200161 -0.034389682
0.1071675 0.04002579 -0.022066263 -0.06841294 -0.057918597 -0.04730944 -0.20188347 0.06784872
-0.09084057 0.11685623 0.077173665 -0.26776844 -0.1432011 -0.038733643 0.09363358 0.10609617
0.0029360936 0.03922867 -0.032478906 0.0032287764 -0.13728802 -0.2102424 0.15655717 -0.074984886
0.021807596 -0.0004001947 -0.017544547 -0.011113233 0.12753332 0.16320634 -0.034904946 0.090438336
0.04870968 -0.0068266084 -0.09681085 -0.091750555 0.24712346 0.045919873 0.117545575 7.810495e-05
0.04957265 -0.0035001896 0.041462578 -0.10597046 0.06935935 0.019268444 -0.13609627 -0.101905234
-0.041584447 -0.04604002 0.047279783 -0.04669781 -0.00998683 -0.07678174 0.014408223 -0.0020168556
0.051564455 0.045495905 -0.16320598 0.09588134 0.02501335 -0.019204253 0.08682819 0.08557024
0.01255581 -0.016278565 -0.044907585 -0.044790633 0.0043334635 -0.063036576 -0.07559701 0.01918867
0.015601065 0.039276447 -0.014313735 0.030400429 -0.026523631 -0.01780259 0.13202922 -0.012792784
-0.07021405 0.015411067 0.043007296 0.036459893 -0.09317076 -0.055745706 -0.009935981 -0.057460256
0.050887294 0.04111493 0.08055689 0.031029684 -0.03273982 -0.049965486 -0.039670333 -0.019061955
-0.035531692 -0.031970087 0.004766548 0.0033870924 -0.05031887 0.045343418 -0.07511919 0.045249548
0.0016688933 -0.11887494 -0.03520385 -0.042585365 -0.06612247 -0.04566727 -0.022000115 -0.03925833
-0.017652133 -0.15397601 0.08791393 0.062273894 -0.07409829 -0.09554762 -0.018383218 -0.013092013
-0.036261316 -0.090814285 0.023753908 0.10374835 -0.023521941 0.118554905 0.05821506 0.06966202
-0.0045041745 -0.14298478 0.16076213 0.034577757 0.032463737 -0.08927678 -0.014744917 0.0075600385
-0.047165725 0.027488783 0.030905839 -0.2356679 -0.062382467 0.015028217 -0.07830677 -0.043842413
0.06292791 0.08163691 0.1256855 0.05712059 0.023807928 -0.053709973 -0.1047613 0.02343288
-0.16505677 -0.06552101 -0.09912218 -0.047286145 0.035273183 -0.052045833 0.021202056 0.1429333
-0.07771035 0.06862634 -0.045241594 -0.03567332 0.11482316 -0.035804987 -0.12135159 -0.16077049
0.01641159 0.26941407 0.04254108 0.04125825 -0.0440365 0.018033097 -0.08536105 0.06317427
00000000: 4838 71bd f4bc 31bb 64fb 433d aac4 22bc
00000010: 5316 823d 765a 203e af7b adbc 6656 b3bd
00000020: 36c7 463a 835f 89bd e176 bbbd c587 f53c
00000030: bb43 f3bd 647a e83c 9aab eabc 5c65 07bd
00000040: f50c 27bd 6d03 06be 1aab 103d 0b8e e63d
00000050: b3a3 d13b 6938 ffbc 27da e7bd e10b 2f3d
00000060: 791e 193d c84a 15bd 16bf 46bd 0810 c0bb
00000070: a0b1 2f3d 811e 72bd df43 093d 2570 adbc
00000080: f4bb 0bbd f468 573d b03c 413d 0a23 8abd
00000090: bca4 d73d 8d68 ab3c 9694 50be c2ca 813c
000000a0: e8b0 d5bc 56fe d43c 0b33 71bc f8a6 62ba
000000b0: 4ed2 9cbc da56 5c3d 1c78 0abc fe62 42bc
000000c0: a854 82bc 68b9 9c3d 2e6b 26bc cb19 05bd
000000d0: cc1c b2bb 462e 00bd 8a62 0b3e cce3 da3c
000000e0: 42a0 eabc 8295 80bd 6ca8 5cbd 54e0 343d
000000f0: b113 cd3d dc1c 933d 83fa f1bc 4503 7cbc
00000100: cc28 ac3b ca98 d53a dd2a 5a3d ba91 4bbd
00000110: e15e d83e 24ff 41bd 2250 523c 8d3c 713e
00000120: 497c c2be d0eb 6e3d e62a 94bd cd4d db3e
00000130: b3f5 8a3d 47f8 edbd 7b97 ffbc 32dc 0cbd
00000140: a27a db3d 15f2 233d 4fc4 b4bc 151c 8cbd
00000150: 0d3c 6dbd 8bc7 41bd 8aba 4ebe 45f4 8a3d
00000160: 9f0a babd 5252 ef3d 3a0d 9e3d f218 89be
00000170: 4fa3 12be 2ba7 1ebd f6c2 bf3d f348 d93d
00000180: 7a6b 403b 3eae 203d 9a08 05bd e199 533b
00000190: 3b95 0cbe c949 57be 8650 203e ad91 99bd
000001a0: d8a5 b23c 39d1 d1b9 95b9 8fbc 4714 36bc
000001b0: 1898 023e 901f 273e 7df8 0ebd bc37 b93d
000001c0: cd83 473d beb1 dfbb c444 c6bd b7e7 bbbd
000001d0: ef0d 7d3e 7a16 3c3d bcbb f03d 47cc a338
000001e0: b10c 4b3d 7063 65bb aad4 293d 0a07 d9bd
000001f0: 460c 8e3d dbd8 9d3c d25c 0bbe b1b3 d0bd
00000200: 7454 2abd 7694 3cbd 72a8 413d 3446 3fbd
00000210: cd9f 23bc bf3f 9dbd 7810 6c3c 392d 04bb
00000220: 4035 533d ea59 3a3d 781f 27be 705d c43d
00000230: cce8 cc3c 3d52 9dbc fad2 b13d 733f af3d
00000240: e2b6 4d3c a05a 85bc 04f1 37bd 6276 37bd
00000250: baff 8d3b 5219 81bd 9bd2 9abd 8f31 9d3c
00000260: 9c9b 7f3c 57e0 203d 2884 6abc 520a f93c
00000270: 1648 d9bc bdd6 91bc ab32 073e d398 51bc
00000280: 62cc 8fbd b37e 7c3c 6b28 303d f856 153d
00000290: 50d0 bebd 9c55 64bd 86ca 22bc 725b 6bbd
000002a0: 326f 503d 2168 283d 03fb a43d f731 fe3c
000002b0: 311a 06bd 9ca8 4cbd 5c7d 22bd d127 9cbc
000002c0: ae89 11bd 11f3 02bd b430 9c3b fbf9 5d3b
000002d0: 291b 4ebd 05ba 393d 17d8 99bd 9757 393d
000002e0: c4be da3a b474 f3bd ea31 10bd fe6d 2ebd
000002f0: 386b 87bd 9a0d 3bbd 9639 b4bc 58cd 20bd
00000300: 359b 90bc e3ab 1dbe 380c b43d e912 7f3d
00000310: d8c0 97bd 78ae c3bd 6798 96bc e27f 56bc
00000320: bf86 14bd d7fc b9bd 8e97 c23c 047a d43d
00000330: 16b1 c0bc eacc f23d ea72 6e3d f6aa 8e3d
00000340: c197 93bb 9a6a 12be d49e 243e 68a1 0d3d
00000350: b2f8 043d bfd6 b6bd aa94 71bc 33ba f73b
00000360: d930 41bd 2830 e13c 3e2e fd3c ed52 71be
00000370: c284 7fbd e938 763c 4d5f a0bd 1a94 33bd
00000380: 59e0 803d 4131 a73d b3b3 003e 48f7 693d
00000390: d808 c33c fdfe 5bbd 188d d6bd 50f6 bf3c
000003a0: a404 29be e12f 86bd 9200 cbbd 1eaf 41bd
000003b0: 9d7a 103d 032e 55bd efaf ad3c 1b5d 123e
000003c0: 9b26 9fbd f78b 8c3d 404f 39bd 301e 12bd
000003d0: 6828 eb3d 40a8 12bd 2f87 f8bd 05a1 24be
000003e0: 9971 863c a4f0 893e 8e3f 2e3d 69fe 283d
000003f0: 9e5f 34bd 25ba 933c c6d1 aebd 8361 813d

encoder_layer3.bias f4 [32]
0.036704298 -0.21830629 0.011012835 0.06728801 0.14595436 0.035409715 0.04724668 0.010455628
0.03142724 0.018031389 0.109357566 0.026227873 0.016288573 -0.0050999783 0.026502566 0.12555717
-0.07340575 0.088009775 0.04886401 0.040007334 0.052777246 0.019001417 0.035383582 0.0033693335
-0.016406247 0.030938914 -0.023649003 0.08346658 0.017538903 0.04555178 0.03247812 0.17457683
00000000: 3f57 163d af8b 5fbe 2e6f 343c 4cce 893d
00000010: 0f75 153e c709 113d bc85 413d 154e 2b3c
00000020: dab9 003d 90b6 933c dcf6 df3d d6db d63c
00000030: 9d6f 853c b81d a7bb e91b d93c 0f92 003e
00000040: c155 96bd 783e b43d a125 483d bbde 233d
00000050: f42c 583d dca8 9b3c 60ee 103d 09d0 5c3b
00000060: 6566 86bc 9b73 fd3c 8ebb c1bc 87f0 aa3d
00000070: bfad 8f3c 8194 3a3d c707 053d 45c4 323e

encoder_layer_mu.weight f4 [2, 32]
-0.0030445799 0.15948 -0.029912788 0.0045795785 -0.007178229 -0.01011674 0.0018396195 -0.008485762
-0.19652209 0.009724783 6.2689534e-05 -0.020873748 -0.008861702 0.013984997 0.011489291 -0.002483225
0.069545165 0.0090246005 0.0071860226 0.020784935 0.011234374 -0.009328037 0.029041221 -0.002236642
-0.0072728023 0.016648056 0.017610015 -0.022569356 0.003170873 0.012695307 0.00921194 0.0071042865
-0.0011185163 0.13339643 0.0020312709 -0.0011482737 -0.008705203 0.0014877545 -0.010758694 0.0053418456
-0.08505881 -0.00016128307 -0.002396896 -0.0050331103 0.001098618 0.0047475793 -9.010325e-05 -0.0031307486
0.03299058 -0.0022396515 0.008685911 -0.014799504 -0.010665048 0.0073617995 -0.0042661326 0.0008657608
-0.00073444133 0.0059417533 0.008044404 0.0061256234 -0.0018586167 -0.007658828 -0.0027789876 0.005215314
00000000: 9387 47bb ba4e 233e aa0b f5bc 4a10 963b
00000010: 5937 ebbb afc0 25bc 631f f13a de07 0bbc
00000020: 163d 49be b254 1f3c 3078 8338 6cff aabc
00000030: ac30 11bc 5421 653c 943d 3c3c 9abd 22bb
00000040: b26d 8e3d ebdb 133c ba78 eb3b 2b45 aa3c
00000050: 6110 383c 9fd4 18bc dbe7 ed3c a094 12bb
00000060: b050 eebb 8161 883c e142 903c 5fe3 b8bc
00000070: 6cce 4f3b faff 4f3c aded 163c 13cb e83b
00000080: 2e9b 92ba 1399 083e 121f 053b ac81 96ba
00000090: 45a0 0ebc c200 c33a 3c45 30bc a60a af3b
000000a0: 5033 aebd 181e 29b9 3e15 1dbb caec a4bb
000000b0: 81ff 8f3a 9591 9b3b d0f5 bcb8 3f2d 4dbb
000000c0: 2121 073d 1ec7 12bb 5a4f 0e3c 9e79 72bc
000000d0: 74bc 2ebc 403b f13b eaca 8bbb 39f4 623a
000000e0: 8687 40ba 0ab3 c23b adcc 033c 74b9 c83b
000000f0: d49c f3ba e8f6 fabb ad1f 36bb 3ae5 aa3b

encoder_layer_mu.bias f4 [2]
0.034568194 0.037204247
00000000: 6197 0d3d 7b63 183d

encoder_layer_sigma_square.weight f4 [2, 32]
-0.059460845 1.4342501 -0.040540896 -0.13004415 0.4348705 0.50075996 0.045684256 0.8421819
1.1112798 -0.036207523 0.1090609 -0.0037135058 -0.009949949 0.3529643 -0.04379072 -1.6240633
1.0838071 0.031788565 0.024309974 0.010556499 -0.52872735 -0.0676828 0.023580791 0.22149022
0.059941195 0.68052876 0.37796715 0.23126705 0.013553952 0.02565578 0.50580466 -2.8588295
-0.04684543 1.4453105 -0.060244493 -0.10688573 0.4586593 0.58731914 0.16455571 0.9318146
1.0402845 0.008941185 0.13137579 -0.003218269 -0.0031695236 0.38927972 -0.016807618 -1.688016
0.86978054 0.13757928 -0.108216144 -0.032665186 -0.517056 0.0016638855 -0.037610095 0.24244016
0.01727364 0.76172334 0.25927547 0.14952922 0.014970506 0.13356154 0.5688205 -2.8218668
00000000: 378d 73bd 8295 b73f 360e 26bd 4b2a 05be
00000010: 59a7 de3e ce31 003f 6a1f 3b3d 3c99 573f
00000020: 6b3e 8e3f 574e 14bd 525b df3d 4a5e 73bb
00000030: 1c05 23bc bdb7 b43e e65d 33bd 4ee1 cfbf
00000040: 31ba 8a3f ba34 023d b625 c73c 2af5 2c3c
00000050: ad5a 07bf 489d 8abd 812c c13c 55ce 623e
00000060: e684 753d 2237 2e3f e984 c13e 45d1 6c3e
00000070: 6511 5e3c 122c d23c 6a7c 013f 10f7 36c0
00000080: fee0 3fbd efff b83f eec2 76bd e8e6 dabd
00000090: 64d5 ea3e 8c5a 163f 4b81 283e 678b 6e3f
000000a0: 0b28 853f 0c7e 123c 6087 063e 98e9 52bb
000000b0: c8b7 4fbb ac4f c73e 21b0 89bc e910 d8bf
000000c0: f0a9 5e3f 95e1 0c3e 6da0 ddbd eecb 05bd
000000d0: c85d 04bf bc16 da3a 0b0d 1abd 3c42 783e
000000e0: 7381 8d3c 4d00 433f c1bf 843e 301e 193e
000000f0: da46 753c 5bc4 083e 389e 113f 7799 34c0

encoder_layer_sigma_square.bias f4 [2]
-1.6316656 -1.560525
00000000: 6bda d0bf 48bf c7bf

decoder_layer1.weight f4 [32, 2]
-0.0050865198 0.0025511796 0.0009362564 0.00066031056 0.02810015 -0.01117032 -0.016174253 0.020712256
0.010641423 0.0026284289 0.013274237 0.024722172 -0.081581056 -0.31932908 0.014284287 -0.051581025
0.0007044069 0.0014751811 -0.024608089 0.0121799 0.01672038 0.005231092 -0.07555584 0.01987833
0.004308723 -0.0039108284 -0.25756982 -2.8360305 -3.6752317e-05 0.0058488385 0.010860275 -0.0069493856
-2.324356 1.4797094 0.0793346 -0.034070227 0.046887092 -0.014527937 0.011991371 -0.010711438
-0.020293606 -0.023252968 -0.03455043 0.018383123 -0.025026556 0.0018574973 -0.015884265 0.0057566776
-0.028218688 0.0057581235 -0.014171407 0.014693522 0.013989037 0.009558351 0.00816895 0.009236989
-0.03056999 0.011891163 0.044022348 -0.010917806 -0.0025920346 -5.050747e-05 2.456296 1.0901465
00000000: d2ac a6bb b131 273b 1a6f 753a b118 2d3a
00000010: 4932 e63c b803 37bc de7f 84bc c0ac a93c
00000020: 5d59 2e3c b841 2c3b 2f7c 593c 2786 ca3c
00000030: f813 a7bd 1a7f a3be a408 6a3c a046 53bd
00000040: f2a7 383a dd5a c13a e796 c9bc 348e 473c
00000050: 2ef9 883c 9569 ab3b 05bd 9abd e1d7 a23c
00000060: 3030 8d3b 6826 80bb 31e0 83be 8681 35c0
00000070: 8026 1ab8 9da7 bf3b 4bef 313c acb7 e3bb
00000080: 40c2 14c0 1e67 bd3f 2e7a a23d 398d 0bbd
00000090: ae0c 403d 9606 6ebc 7577 443c 077f 2fbc
000000a0: c73e a6bc 027d bebc c084 0dbd 3498 963c
000000b0: 7e04 cdbc 4477 f33a b81f 82bc 83a2 bc3b
000000c0: e12a e7bc a4ae bc3b 302f 68bc 19bd 703c
000000d0: 4632 653c a19a 1c3c 0fd7 053c bd56 173c
000000e0: ea6d fabc 27d3 423c c750 343d 99e0 32bc
000000f0: 20df 29bb fcd7 53b8 f433 1d40 ec89 8b3f

decoder_layer1.bias f4 [32]
-0.005536433 -0.0021457016 0.0035975953 0.023485936 0.027982857 -0.00068701804 -0.00037449077 -0.09482399
-0.0018248219 -0.0024816848 0.006554032 0.025485426 -0.003421949 -0.16432363 0.008120524 0.0026877525
-0.17291348 -0.067770265 -0.012466043 -0.008154798 -0.0072656837 0.005548082 -0.0062853936 -0.0051279003
-0.0009238976 0.011309986 0.0108204875 0.017339015 0.00537263 -0.0071049095 -0.0016463464 -0.16679795
00000000: f76a b5bb e69e 0cbb a2c5 6b3b 9465 c03c
00000010: 4e3c e53c 0019 34ba 4d57 c4b9 1433 c2bd
00000020: dd2e efba c3a3 22bb 35c3 d63b d0c6 d03c
00000030: c742 60bb 7444 28be f20b 053c 0125 303b
00000040: 3b10 31be 23cb 8abd 603e 4cbc b49b 05bc
00000050: f914 eebb afcc b53b b4f5 cdbb f207 a8bb
00000060: b831 72ba 854d 393c 6a48 313c 8d0a 8e3c
00000070: e30c b03b 4dd0 e8bb 38ca d7ba 15cd 2abe

decoder_layer2.weight f4 [32, 32]
-0.00827367 -0.005068352 -0.0007934397 0.0321163 0.049495455 0.014588502 0.03990517 -0.12700826
-0.0032787898 -0.00016348576 0.016177312 0.025072832 -0.009299379 -0.017708827 0.002434959 0.0006956258
-0.04462409 -0.06882368 -0.014160564 -0.016796578 -0.024226751 0.0148668075 0.004776571 -0.0044149486
-0.003264037 0.021797186 0.011157823 0.049210858 0.00881787 -0.006987064 -0.005562504 -0.0035412544
0.00424965 -0.0019849564 -0.015848031 -0.03929139 0.020160364 0.01899489 0.033007875 0.012967046
0.0004041611 0.0038039947 0.008012386 -0.021015596 0.004211735 -0.0012004124 -0.017455975 -0.0077510946
-0.120509446 0.04924324 0.003261624 -0.004323485 0.018378291 0.03108561 -0.015980195 0.008662146
-0.018224798 0.006300542 0.014583565 -0.020333724 -0.0012171892 -0.0070881722 0.00032762956 -0.0789985
0.0033749219 0.00202382 0.0010563761 0.0035609843 -0.041807838 0.0121562835 0.036659766 -0.017515901
-0.008126498 0.006639775 -0.055699475 0.0030001446 -0.02116618 -0.023750689 -0.010807855 0.0028708887
0.01860628 0.00035672187 -0.005041947 -0.009943487 0.06493312 0.003926214 0.003595567 0.00034115653
0.0040142722 0.0041270703 0.013576364 -0.005111055 0.0065297303 0.004282115 -0.00204821 0.015669426
-0.0009255498 0.0036116699 -0.015451825 0.0012218584 0.017622953 -0.007450997 -0.009134553 0.029510558
-0.001961082 0.014650207 -0.006233307 0.018045949 -0.012062596 -0.00063627027 -8.142344e-05 -0.01679076
0.020081853 -0.019570943 -0.016696297 0.026345553 -0.0024801614 0.008269621 0.009393926 0.01279406
0.008024557 -0.023188597 -0.0050560515 -0.028063113 0.009348605 -0.023254193 0.01166084 0.030591391
0.0061743027 -0.0043760864 0.0033255746 0.006893234 0.0028696537 0.0009720308 0.014108621 -0.010735184
-0.0037119389 -0.020588387 -0.012698986 -0.015211385 0.004409528 -0.0077378144 -0.0032205884 0.010000149
-0.0062330365 0.011226667 0.012402493 -0.005988924 -0.0012416102 -0.013288369 0.0048687477 -0.014388515
0.003827613 0.006088624 -0.0022959781 0.0038341335 -0.01654262 0.020267375 -0.0066157524 0.013445706
-0.0055240844 -0.002006523 -0.003761849 -0.003740607 0.02674653 -0.0031401357 -0.009903303 0.013605415
0.0112375505 0.009571314 -0.008680841 0.021892976 -0.0017064495 0.04636973 0.0039925263 -0.0031558936
-0.004040476 -0.02998914 -0.01723149 -0.013654109 0.011927125 0.020838505 7.563294e-05 0.0022868833
0.004180616 0.015259676 0.0005487352 -0.011656733 0.014101398 -0.018638555 0.0009965252 -0.054957163
-0.027844522 -0.004364633 -0.0054770145 0.016253956 0.045706518 -0.03351153 -0.015354181 -0.13546875
-0.0068342714 -0.011160202 0.0019659041 0.019773329 -0.012236032 -0.025588626 0.0059054107 0.0008519321
-0.0696881 -0.06504613 -0.015297307 -0.015419146 -0.022018455 0.011308706 -0.02259665 -0.0034526135
0.0003914372 0.019101704 -0.006637808 -0.028560705 0.0068488847 -0.0070413332 -0.0031273647 0.057616897
0.005590015 0.0033789463 0.0108414935 -0.007100895 -0.04250756 0.009737793 -0.004753914 0.1288649
0.0033760436 -0.023453083 -0.021675462 -0.03226953 0.0061028656 -0.0054091867 0.0009823176 0.011635284
0.0088146785 0.057009377 0.028356398 0.017738776 -0.0058190073 -0.02718229 -0.010127472 -0.0038056325
-0.020494256 -0.02558603 -0.004480776 -0.04514584 -0.021723526 0.024285926 0.0015526162 0.012356865
00000000: 4a8e 07bc 6b14 a6bb d6fe 4fba 628c 033d
00000010: bfbb 4a3d 9d04 6f3c 9b73 233d 740e 02be
00000020: f7e0 56bb 606d 2bb9 4886 843c 8a65 cd3c
00000030: 6c5c 18bc 1a12 91bc d593 1f3b a85a 363a
00000040: c0c7 36bd 6ef3 8cbd b601 68bc fa98 89bc
00000050: 2e77 c6bc e993 733c c884 9c3b 46ab 90bb
00000060: 74e9 55bb 0390 b23c 4dcf 363c 5391 493d
00000070: d478 103c bef3 e4bb aa45 b6bb 6414 68bb
00000080: a640 8b3b 0b16 02bb bbd3 81bc 02f0 20bd
00000090: 5927 a53c 2c9b 9b3c 4433 073d bc73 543c
000000a0: 96e5 d339 714c 793b 6246 033c e628 acbc
000000b0: 9802 8a3b 2857 9dba d5ff 8ebc e5fc fdbb
000000c0: a8cd f6bd 48b3 493d f8c0 553b 05ac 8dbb
000000d0: 128e 963c 40a7 fe3c e6e8 82bc aceb 0d3c
000000e0: 2c4c 95bc c774 ce3b e8ef 6e3c e992 a6bc
000000f0: 188a 9fba e643 e8bb b2c5 ab39 f7c9 a1bd
00000100: cb2d 5d3b 11a2 043b 1a76 8a3a 675f 693b
00000110: b23e 2bbd 262b 473c 8d28 163d 827d 8fbc
00000120: 0125 05bc 7892 d93b 2225 64bd 139e 443b
00000130: b264 adbc ce90 c2bc 6e13 31bc 8525 3c3b
00000140: 336c 983c 6606 bb39 eb36 a5bb 02ea 22bc
00000150: a8fb 843d 78a7 803b 9ba3 6b3b 41dd b239
00000160: 288a 833b 603c 873b 666f 5e3c a37a a7bb
00000170: 59f7 d53b fc50 8c3b 433b 06bb 2b5d 803c
00000180: 98a0 72ba c4b1 6c3b a729 7dbc c426 a03a
00000190: 035e 903c 7e27 f4bb 18a9 15bc 20c0 f13c
000001a0: 7f85 00bb 6c07 703c c540 ccbb 19d5 933c
000001b0: 32a2 45bc 60cb 26ba e0c1 aab8 c78c 89bc
000001c0: b382 a43c 3e53 a0bc acc6 88bc a1d2 d73c
000001d0: 348a 22bb 4e7d 073c fbe8 193c 2d9e 513c
000001e0: 6e79 033c 03f6 bdbc 3cad a5bb 9de4 e5bc
000001f0: e42a 193c 947f bebc 1c0d 3f3c cc9a fa3c
00000200: ce51 ca3b 4665 8fbb e2f1 593b a3e0 e13b
00000210: cd10 3c3b e2cf 7e3a d827 673c a0e2 2fbc
00000220: 0044 73bb faa8 a8bc 680f 50bc 2c39 79bc
00000230: cd7d 903b 7e8d fdbb 8210 53bb aad7 233c
00000240: 803e ccbb 0ef0 373c d333 4b3c bc3e c4bb
00000250: 86bd a2ba 76b7 59bc 048a 9f3b cebd 6bbc
00000260: b1d8 7a3b 1483 c73b 1f78 16bb 1646 7b3b
00000270: 6384 87bc c407 a63c f4c8 d8bb 614b 5c3c
00000280: 6103 b5bb df7f 03bb 5a89 76bb f924 75bb
00000290: 8a1b db3c bcca 4dbb 7741 22bc 3fe9 5e3c
000002a0: b41d 383c 00d1 1c3c 163a 0ebc e658 b33c
000002b0: f2aa dfba 30ee 3d3d bdd3 823b 1cd3 4ebb
000002c0: f865 84bb c9ab f5bc 0e29 8dbc 7cb5 5fbc
000002d0: fd69 433c 83b5 aa3c 209d 9e38 89df 153b
000002e0: 8cfd 883b b803 7a3c ffd8 0f3a e2fb 3ebc
000002f0: 8d09 673c e2af 98bc d69d 823a c31a 61bd
00000300: 321a e4bc 3205 8fbb 8778 b3bb 0427 853c
00000310: c236 3b3d 6343 09bd 1a90 7bbc 52b8 0abe
00000320: 06f2 dfbb 48d9 36bc 66d6 003b adfb a13c
00000330: a379 48bc 3d9f d1bc 2d82 c13b 3254 5f3a
00000340: a2b8 8ebd e836 85bd 8ea1 7abc 96a0 7cbc
00000350: 0c60 b4bc 2748 393c 9c1c b9bc 3e45 62bb
00000360: d039 cd39 2d7b 9c3c f881 d9bb 24f8 e9bc
00000370: 9c6c e03b fcba e6bb 79f4 4cbb b2ff 6b3d
00000380: 722c b73b 5071 5d3b 85a0 313c a0ae e8bb
00000390: 681c 2ebd 448b 1f3c b9c6 9bbb 29f5 033e
000003a0: 9d40 5d3b ae20 c0bc bd90 b1bc 0e2d 04bd
000003b0: 8cfa c73b 8c3f b1bb 1cc1 803a eba1 3e3c
000003c0: 716b 103c aa82 693d ad4b e83c e950 913c
000003d0: 5fad bebb 65ad debc b2ed 25bc eb67 79bb
000003e0: 92e3 a7bc cb99 d1bc 79d3 92bb d8ea 38bd
000003f0: 89f5 b1bc 47f3 c63c 2881 cb3a 7374 4a3c

decoder_layer2.bias f4 [32]
-0.012595753 -0.018159809 -0.0046510445 -0.0030757731 -0.00065377785 0.03944222 -0.01600964 0.002284014
0.0031662004 0.012689721 -0.012239108 0.0053190263 0.022351785 -0.013540205 -0.17879252 0.0019017311
0.0045243027 -0.35153267 -0.004390016 0.010151923 -0.010508975 -0.11654441 0.0031986793 0.010457538
0.0005649163 -0.011025364 -0.010609096 -0.0015302185 0.016387101 -0.010037118 -0.011912686 0.02094807
00000000: 6b5e 4ebc e1c3 94bc ca67 98bb e992 49bb
00000010: 4a62 2bba 2a8e 213d a626 83bc 65af 153b
00000020: 0780 4f3b 8ce8 4f3c 8a86 48bc 3a4b ae3b
00000030: 171b b73c bcd7 5dbc 6315 37be 8243 f93a
00000040: 9a40 943b 17fc b3be 20da 8fbb 4054 263c
00000050: d62d 2cbc d6ae eebd efa0 513b 1856 2b3c
00000060: e416 143a baa3 34bc c6d1 2dbc 9d91 c8ba
00000070: 3e3e 863c b972 24bc 6d2d 43bc 499b ab3c

decoder_layer3.weight f4 [32, 32]
-0.057851534 -0.039874587 0.030441167 0.035021525 -0.004049938 -0.090927795 -0.043821182 0.007389225
-0.020719593 0.091812775 0.09196691 0.09901191 0.05949841 0.083258934 0.033622295 0.0039024563
0.041514773 0.012934028 -0.09412766 0.016758759 -0.062454924 -0.0038985636 0.034142092 0.036091883
-0.04467787 0.01752102 0.009134181 0.0074901627 0.05336236 -0.027071344 0.04751149 -0.10335413
0.060438838 0.031343684 0.014404436 -0.010865752 0.012176582 -0.0062758448 0.075596474 -0.009517405
-0.0039008432 -0.08224605 -0.05849085 -0.06282438 -0.026004981 0.004037425 0.013287362 -0.025486417
-0.048521124 -0.092043824 0.01607009 -0.034703888 0.040742327 -0.028603919 -0.014402111 -0.046439182
0.027805425 -0.0016461234 -0.02192099 0.010908943 -0.018247526 0.05040166 -0.08247003 0.062135223
0.08069509 0.012143415 -0.01289006 -0.04368524 0.021966629 0.05326568 0.10636817 -0.01634341
0.017314132 -0.10401672 -0.07269971 -0.088660315 -0.04440833 -0.036582172 0.06914498 -0.006495412
-0.04711551 -0.14728193 0.040803593 -0.055728175 0.053630106 -0.012116998 -0.05132267 -0.06421609
0.046182286 0.020951796 -0.04358319 0.007140216 -0.03755295 0.011881299 -0.07750139 0.1110245
-0.025922436 0.04451586 -0.013810225 -0.004323763 -0.019412525 -0.03860246 -0.033273444 -0.008508633
0.0048690727 0.021362526 0.049033098 0.024805026 -0.021030303 -0.00586034 -0.34514564 0.012968526
0.026387025 -0.13142996 0.042684343 0.0051130084 -0.0021186066 -0.17357485 0.009648612 0.028318273
-0.006640213 -0.031100592 0.035366237 -0.011650758 -0.015138377 0.020836368 0.03719893 -0.04037715
-0.019219328 -0.092775956 -0.04127399 0.015913641 0.00031102705 0.033305377 -0.0029874032 0.030184437
0.02124592 0.020466797 -0.010119112 0.047717586 0.042039283 -0.04294828 0.09427559 0.017039808
0.025345076 0.10914362 -0.0797368 0.022570932 -0.031753067 0.021544915 0.0005332667 0.0039498154
0.034973156 0.112373695 -0.08389516 0.005442555 0.074912325 -0.161945 0.04113936 0.011675905
0.032955043 -0.048380315 0.026890948 0.020426342 -0.023898274 0.009136863 0.02329674 -0.0051555363
-0.0034433317 -0.0017126624 -0.01274271 -0.011275763 0.008965633 -0.019611053 0.013500444 -0.0028879873
-0.0063164732 -0.047256373 0.007363528 -0.011034027 -0.0022956647 0.03498246 -0.005460415 -0.004635023
-0.013247829 0.049123798 -0.03379907 -0.025530344 0.01914506 -0.060595736 0.012910685 0.03755322
-0.027690707 0.018285675 0.018429093 0.003383049 -0.005594229 -0.08983561 0.01112415 0.00833157
-0.0075898115 0.012020731 0.06545902 0.051227674 -0.011243803 0.068729706 0.027012939 0.006394082
0.008834301 0.011919152 0.043591402 -0.005207056 -0.014102579 -0.015506842 0.012400681 -0.007111198
-0.0074677793 -0.025067825 0.051225834 0.014009352 -0.020801852 0.04672578 0.027521746 -0.055116087
-0.0040495005 0.004626287 -0.022674106 -0.005963781 0.012084024 0.023023441 0.00782413 -0.0133486595
0.0072021903 -0.01433193 -0.04096189 0.001913761 -0.00040911656 -0.032367278 0.0066333124 -0.017877549
-0.009220983 -0.018732127 -0.0071222293 -0.0042785574 0.0043245107 -0.017872717 -0.0048370524 0.007617025
0.021119412 0.029348185 -0.02355293 0.009832906 0.02410371 -0.023138773 -0.008886178 0.040377147
00000000: bbf5 6cbd 8953 23bd c15f f93c bb72 0f3d
00000010: 58b5 84bb 5a38 babd d77d 33bd 5021 f23b
00000020: 23bc a9bc 5608 bc3d 2659 bc3d c2c6 ca3d
00000030: 9bb4 733d a983 aa3d 88b7 093d 5ac0 7f3b
00000040: 650b 2a3d 3fe9 533c 01c6 c0bd aa49 893c
00000050: bcd0 7fbd 0b7f 7fbb 94d8 0b3d 15d5 133d
00000060: 2400 37bd 3e88 8f3c 88a7 153c 0a70 f53b
00000070: 7d92 5a3d b9c4 ddbc 689b 423d 55ab d3bd
00000080: b78e 773d 3c62 003d 9500 6c3c 4406 32bc
00000090: 4980 473c 9aa5 cdbb 53d2 9a3d e4ee 1bbc
000000a0: 4aa5 7fbb 9e70 a8bd 1a94 6fbd 12aa 80bd
000000b0: 6608 d5bc 604c 843b 3cb3 593c e4c8 d0bc
000000c0: 16be 46bd 7981 bcbd 6ca5 833c aa25 0ebd
000000d0: 6de1 263d c452 eabc d5f6 6bbc 0337 3ebd
000000e0: 34c8 e33c bcc2 d7ba a693 b3bc 6cbb 323c
000000f0: d67b 95bc f971 4e3d 0ce6 a8bd 8181 7e3d
00000100: 7843 a53d 2df5 463c d530 53bc 4bef 32bd
00000110: 5cf3 b33c 1d2d 5a3d 8ed7 d93d 9de2 85bc
00000120: 5ed6 8d3c b806 d5bd 96e3 94bd 8a93 b5bd
00000130: 82e5 35bd 30d7 15bd e29b 8d3d 77d7 d4bb
00000140: 31fc 40bd 13d1 16be ab21 273d 3a43 64bd
00000150: 3eab 5b3d 6086 46bc b837 52bd ba83 83bd
00000160: a329 3d3d 1aa3 ab3c 4984 32bd 79f8 e93b
00000170: 1fd1 19bd c8a9 423c 0cb9 9ebd d060 e33d
00000180: 4a5b d4bc 4356 363d 4844 62bc 5aae 8dbb
00000190: 0407 9fbc 9d1d 1ebd bc49 08bd cb67 0bbc
000001a0: be8c 9f3b 7700 af3c eed6 483d e933 cb3c
000001b0: be47 acbc 1808 c0bb eeb6 b0be f179 543c
000001c0: 9a29 d83c 9395 06be c7d5 2e3d 068b a73b
000001d0: 52d8 0abb 9bbd 31be 3615 1e3c b9fb e73c
000001e0: 2596 d9bb abc6 febc 30dc 103d d2e2 3ebc
000001f0: f506 78bc 08b1 aa3c e85d 183d 8362 25bd
00000200: da71 9dbc 5201 bebd ea0e 29bd 535d 823c
00000210: 5811 a339 386b 083d 4fc8 43bb 5a45 f73c
00000220: ec0b ae3c fca9 a73c a2ca 25bc 8473 433d
00000230: 6231 2c3d 89ea 2fbd 8f13 c13d 1197 8b3c
00000240: 7aa0 cf3c b186 df3d 0c4d a3bd ade6 b83c
00000250: 810f 02bd f67e b03c ecca 0b3a 746d 813b
00000260: 0340 0f3d 2e24 e63d 3ad1 abbd 7657 b23b
00000270: a26b 993d e9d4 25be bf81 283d 4c4c 3f3c
00000280: defb 063d 702a 46bd 684a dc3c 2555 a73c
00000290: 50c6 c3bc c8b2 153c ced8 be3c c6ef a8bb
000002a0: 85a9 61bb 6a7b e0ba cdc6 50bc fabd 38bc
000002b0: 97e4 123c 5ca7 a0bc f730 5d3c 6344 3dbb
000002c0: 6bfa cebb e68f 41bd c049 f13b 10c8 34bc
000002d0: dd72 16bb c549 0f3d 48ed b2bb 64e1 97bb
000002e0: 6c0d 59bc 0936 493d e570 0abd 0325 d1bc
000002f0: 1ad6 9c3c 3c33 78bd 5687 533c 68d1 193d
00000300: 9fd7 e2bc d7cb 953c 9cf8 963c 25b6 5d3b
00000310: cb4f b7bb bbfb b7bd 1142 363c 2381 083c
00000320: f4b3 f8bb 9af2 443c 610f 863d 1cd4 513d
00000330: ee37 38bc 29c2 8c3d 3d4a dd3c 7385 d13b
00000340: bebd 103c 8c48 433c e68c 323d f49f aabb
00000350: 810e 67bc 6910 7ebc 3a2c 4b3c 0d05 e9bb
00000360: 46b4 f4bb 0a5b cdbc 2ed2 513d 7b87 653c
00000370: a568 aabc 8863 3f3d 4975 e13c 68c1 61bd
00000380: acb1 84bb 1c98 973b 0cbf b9bc d26b c3bb
00000390: 12fc 453c a89b bc3c c830 003c 56b4 5abc
000003a0: 5a00 ec3b 79d0 6abc a8c7 27bd 2ad7 fa3a
000003b0: b27e d6b9 8d93 04bd 425c d93b f073 92bc
000003c0: 9b13 17bc 1e74 99bc 9761 e9bb 2433 8cbb
000003d0: a0b4 8d3b ce69 92bc 2380 9ebb 3d98 f93b
000003e0: 9e02 ad3c 9b6b f03c 13f2 c0bc 321a 213c
000003f0: 2575 c53c 868d bdbc 5597 11bc 8262 253d

decoder_layer3.bias f4 [32]
-0.023486417 0.0036226744 0.011005726 -0.02104836 -0.007041761 -0.003988998 -0.007006646 -0.0026474695
0.008248287 -0.008571181 -0.005226597 -0.0035185614 -0.0062215794 -0.010921304 0.0014646142 0.0062927515
0.0045044553 -0.12403314 -0.0026924058 0.0040967166 0.0064035836 0.012306716 -0.0001134763 0.017700896
-0.009744764 0.0033015497 -0.0021219712 -0.00884841 -0.00016003568 0.0043828944 -0.00020871055 0.012050285
00000000: 9666 c0bc 646a 6d3b 5c51 343c 9c6d acbc
00000010: 93be e6bb 24b6 82bb 0298 e5bb 2b81 2dbb
00000020: d323 073c 246e 0cbc e043 abbb aa97 66bb
00000030: 64de cbbb 45ef 32bc 4cf8 bf3a 6d33 ce3b
00000040: 1c9a 933b 1605 febd 1373 30bb c03d 863b
00000050: 27d5 d13b 1ca2 493c 20fa edb8 7801 913c
00000060: 81a8 1fbc d05e 583b c510 0bbb ecf8 10bc
00000070: 40cf 27b9 629e 8f3b 50d9 5ab9 8f6e 453c
