results/vae_models/Housing.pt (torch, 362973 bytes, 75 tensors)

dof f4 [13]
0	0x3fc35372	1.525984
1	0x3f1db507	0.6160435
2	0x3fbe40f4	1.4863572
3	0x3f8a9228	1.0825853
4	0x3fd7b757	1.6852826
5	0x3fd016d1	1.6256963
6	0x3fd6d879	1.6784812
7	0x3fe256e1	1.7682763
8	0x3fb13855	1.3845316
9	0x3fc2696a	1.518842
10	0x3fc94c72	1.5726454
11	0x3f74b017	0.9558119
12	0x3fde5137	1.7368535

encoder_layer1.weight f4 [128, 13]
0	0xb9b9660e	-0.00035361986
1	0x3b16ba82	0.002299935
2	0x3a9a6fb2	0.0011782555
3	0xbc0a0ec4	-0.008426372
4	0xbb093bc2	-0.002094016
5	0xbbd5c7ee	-0.0065240776
6	0xbbba7ef5	-0.005691404
7	0xbb4c2422	-0.0031149467
8	0xbab1cb5a	-0.0013564632
9	0x3bab974b	0.0052365414
10	0xbc2aa7f5	-0.010416021
11	0xbb62318a	-0.003451439
12	0x3b001d29	0.001954863
13	0x3b113925	0.0022159305
14	0x3bb9388f	0.0056524943
15	0x3c75ec63	0.015009972
16	0xbc1d84ec	-0.009614211
17	0x3cd88612	0.026431117
18	0xbc113066	-0.008861637
19	0x3aba1cd0	0.0014199261
20	0xbc27a20f	-0.010231509
21	0xbb94196c	-0.004519632
22	0x3b0fc457	0.0021937096
23	0xbd2de86c	-0.042457983
24	0x3cc3c9f5	0.023900012
25	0x3ba6b8df	0.0050879563
26	0xbb001641	-0.0019544514
27	0xba8d0ede	-0.0010761877
28	0xbc159d6f	-0.009131773
29	0xbc559baf	-0.013037606
30	0xbd122c3f	-0.035686728
31	0x3ad64b8a	0.0016349417
32	0xbc99516f	-0.018715588
33	0x3c3e1a6b	0.011602978
34	0x3c89b727	0.016810967
35	0xbb42184a	-0.0029616528
36	0x3c3cd2d3	0.011524874
37	0xbd209f84	-0.039214626
38	0xbaa2d67c	-0.001242354
39	0xbb25a09d	-0.0025272735
40	0xbaa0be13	-0.0012263678
41	0xba59eeac	-0.0008313458
42	0xbca0ff75	-0.019653061
43	0xbca0f0dc	-0.0196461
44	0x3c05dfa9	0.0081710005
45	0xbcbd8867	-0.02313633
46	0x3b9c70b0	0.0047741756
47	0x3bac33bc	0.0052551907
48	0xbb359c98	-0.0027711745
49	0x3cdd0b37	0.026982887
50	0xbcbb572e	-0.022868719
51	0xbaae189e	-0.0013282483
52	0x3b082f56	0.0020780168
53	0x3d9ffd90	0.07812035
54	0xbcb4f769	-0.02209063
55	0xbdb4b46a	-0.08823474
56	0xbd9751a2	-0.07388617
57	0x3da23952	0.07921089
58	0xbe26ce4b	-0.16289632
59	0x3d18feb3	0.037352275
60	0x3dcf945f	0.101357214
61	0x3dab1835	0.083542265
62	0xbda55eb7	-0.08074706
63	0xbdb32597	-0.08747404
64	0x3ae3fea1	0.0017394611
65	0x39ac9d51	0.00032923606
66	0x3b073d68	0.0020635966
67	0xbc85e6f9	-0.016345488
68	0x3c04c36f	0.008103236
69	0x3b0c9a05	0.0021454107
70	0xbc2297f6	-0.009923926
71	0x3c975f88	0.01847817
72	0xba8cf4a7	-0.0010754064
73	0x3aef27c2	0.0018246102
74	0x3ab660b7	0.0013914321
75	0xbca05785	-0.019572983
76	0xbc776184	-0.015098933
77	0xbb347fe3	-0.0027542047
78	0x3b077cef	0.0020673831
79	0xbb9168b3	-0.00443753
80	0x3baa0ad2	0.005189278
81	0x3d168ce8	0.036755472
82	0x3cdc213e	0.02687132
83	0xbcaa5d88	-0.020796552
84	0x3c84c292	0.01620606
85	0xbcaef5bd	-0.021357412
86	0xbc7c84d7	-0.015412531
87	0xbc580c88	-0.013186581
88	0xbc3ae645	-0.01140744
89	0x3cb7d2de	0.022439416
90	0xbaa65a10	-0.0012691636
91	0xba6a6e6c	-0.0008942846
92	0xbbddf5ba	-0.0067736777
93	0xbb929427	-0.0044732275
94	0x3c8e2ce3	0.017355388
95	0xbc2daf9c	-0.010600951
96	0xbbed5c46	-0.007243666
97	0xbac98f41	-0.0015377776
98	0x3bae888f	0.0053263376
99	0x3bc97554	0.00614802
100	0xbc3bfe98	-0.011474274
101	0x3c774315	0.015091677
102	0xbc7d6fe8	-0.015468575
103	0xbb444e2b	-0.0029953818
104	0xbb4e0dd6	-0.0031441352
105	0x3a5bd0ac	0.00083852815
106	0xbcebb3cc	-0.028772257
107	0xbb343438	-0.0027496945
108	0xbd2c5e03	-0.042081844
109	0x3c7bef30	0.015376851
110	0x3aad0b9a	0.001320231
111	0x3c6af52f	0.014340683
112	0x3c486ca0	0.0122329295
113	0xbaafd3f5	-0.0013414609
114	0x3c6c48ea	0.014421681
115	0xbd40ac80	-0.04703951
116	0xbbccf8ae	-0.006255231
117	0xbad063e1	-0.0015898907
118	0xbbb6b1e8	-0.0055754073
119	0x3bcd9f92	0.006275126
120	0xbc9eaf14	-0.019370593
121	0xbc3b72b9	-0.011440926
122	0x398c332d	0.0002674101
123	0xbc95b841	-0.018276336
124	0x3b970ee3	0.004609929
125	0x3c04b31d	0.008099345
126	0xbbd6d252	-0.006555834
127	0x3cf407cc	0.029788874
128	0xbc0ff178	-0.008785598
129	0x3b39033d	0.002823069
130	0xbb337870	-0.0027385019
131	0xba41c5ba	-0.0007391829
132	0xbba70171	-0.0050966074
133	0xbc51bf3a	-0.01280194
134	0xbcc68f08	-0.024238124
135	0x3c6c598b	0.014425646
136	0xbc918987	-0.017765773
137	0x3c4b6d3b	0.012416179
138	0x3bae789b	0.005324436
139	0xbbcf8dd7	-0.0063340473
140	0x3ca9c75c	0.020724945
141	0xbd1255c8	-0.03572634
142	0xbb4f6f5c	-0.0031652069
143	0xba2855ca	-0.0006421475
144	0x3b5c72fb	0.003363787
145	0xbc091c0a	-0.008368501
146	0xbc2da90f	-0.010599389
147	0xbb5bcfed	-0.0033540681
148	0x3cb2f72c	0.021846376
149	0xbc456ea9	-0.012050309
150	0x3b786df6	0.0037907339
151	0x3a9e05a8	0.0012056129
152	0xba9cbd3a	-0.0011958249
153	0xbcc78da4	-0.024359532
154	0xbc520950	-0.012819603
155	0xb9be43c4	-0.00036290113
156	0x3ac6636e	0.0015135834
157	0x39e5dad2	0.00043841318
158	0x3c44dd62	0.012015672
159	0xbb60f279	-0.0034324212
160	0x3c52b49e	0.012860445
161	0xbc684100	-0.014175653
162	0xbbb27d77	-0.0054470855
163	0xbc1c673e	-0.009546099
164	0xbb20bc35	-0.0024526243
165	0x3bbcff98	0.005767774
166	0xbc389924	-0.01126698
167	0x3c8382db	0.016053608
168	0x384ff1a6	4.95777e-05
169	0xbaa39b18	-0.0012482135
170	0x3b4297be	0.0029692496
171	0x3a7560bf	0.00093604246
172	0xbc2cf623	-0.01055673
173	0xb9ceaf6a	-0.00039422075
174	0x3c2bbff0	0.010482773
175	0xbc2bd396	-0.010487458
176	0x3bac3837	0.005255725
177	0xbbb49431	-0.00551083
178	0xbad71976	-0.0016410786
179	0x3b2eb07b	0.0026655484
180	0xbc886348	-0.016648903
181	0xbb551e76	-0.0032519377
182	0xbb16197c	-0.0022903373
183	0x3babfe76	0.00524884
184	0x3beaecaf	0.007169328
185	0xbd2ea09d	-0.04263364
186	0xbd012bff	-0.0315361
187	0xbb6aba59	-0.0035816638
188	0xbd1dac7b	-0.03849457
189	0x3b7438db	0.0037265334
190	0x3c119c9f	0.008887439
191	0x3c2d15cf	0.010564282
192	0x3c864f97	0.016395373
193	0xbd0e1a54	-0.034693077
194	0x3ac980db	0.0015373485
195	0x3a00a49d	0.0004907342
196	0x3a125f13	0.0005583625
197	0x38b438da	8.593658e-05
198	0xbbb31175	-0.0054647275
199	0xbc2d3005	-0.010570531
200	0xbc749e7f	-0.014930367
201	0x3c4998bb	0.01230448
202	0x3ac50575	0.0015031534
203	0x3c180410	0.009278312
204	0x3bc209f8	0.0059215985
205	0xbca1b7c7	-0.019740952
206	0x3c3c46ea	0.011491517
207	0xb4927380	-2.7278656e-07
208	0xba0ac006	-0.0005292896
209	0xb9ed7610	-0.00045292126
210	0xbb0e7c47	-0.0021741556
211	0xbcac4bdd	-0.021032268
212	0x39ff31fa	0.00048674626
213	0x3b5a975a	0.0033354373
214	0xbc5596b0	-0.013036415
215	0x3b1f81e7	0.0024338902
216	0xb97df3c0	-0.00024218764
217	0x3baa4942	0.0051967213
218	0xbcb3d2b4	-0.021951057
219	0x3b031aff	0.0020005105
220	0x3ac8cdbb	0.0015320102
221	0xbb76a0a1	-0.0037632363
222	0x3b4ef235	0.0031577472
223	0xbc9a3584	-0.018824346
224	0xbc616719	-0.013757491
225	0xbd176778	-0.03696391
226	0x3c8ef4b8	0.017450675
227	0xbc7c1712	-0.01538636
228	0x3c214a44	0.009844366
229	0xbb9d53d2	-0.004801252
230	0x3b7727f3	0.003771302
231	0x3c539bc2	0.0129155535
232	0xbd754c10	-0.059886992
233	0xbbc95eea	-0.006145348
234	0xbb41a52d	-0.0029547915
235	0x3b9538d0	0.0045538917
236	0xbc0c62bf	-0.008568465
237	0xbca9cdfd	-0.020728106
238	0xbcb6453f	-0.022249816
239	0xbbaf66e2	-0.0053528408
240	0xbc873a26	-0.01650722
241	0x3b021066	0.00198462
242	0x3a8c9fd5	0.0010728786
243	0x3a95d23f	0.0011430456
244	0xbba64345	-0.005073937
245	0xbcefd6d6	-0.029277246
246	0xbb83077b	-0.0039986945
247	0x3a92f640	0.0011212304
248	0x3a50bff6	0.0007963175
249	0xbc2b384b	-0.010450433
250	0x3d84db8d	0.064871885
251	0x3b0b3c4c	0.0021245657
252	0xbc4f39da	-0.01264807
253	0x3af2e832	0.0018532334
254	0xbc8696a4	-0.016429253
255	0x3b9be9b4	0.004758084

encoder_layer1.bias f4 [128]
0	0x3cb211fd	0.021737093
1	0x3c8b9d86	0.017042886
2	0x3d068210	0.03283888
3	0x3c61e4fd	0.013787505
4	0x3e2c4896	0.16824564
5	0x3cede30e	0.029038932
6	0xbc2c87f0	-0.010530457
7	0x3b5614d0	0.0032666214
8	0x3cad7cf4	0.021177746
9	0x3b2fcbd9	0.0026824384
10	0x3c8f5c61	0.017500104
11	0x3c9eb01a	0.019371081
12	0x3c15ab0b	0.009135018
13	0x3c5a9fd5	0.013343771
14	0x3d60ed71	0.05491394
15	0x3bd7af0d	0.006582147
16	0x3c99a5f6	0.018755894
17	0x3d412494	0.047154024
18	0x3d44cc8a	0.048046626
19	0x3c49f59b	0.012326623
20	0x39a2e062	0.00031066226
21	0x3ceef70b	0.029170534
22	0x3caddc61	0.021223249
23	0x3d3e7a9a	0.04650364
24	0x3d062ae9	0.032755766
25	0x3a0a4f09	0.00052760594
26	0x3e860e31	0.26182702
27	0xbb817be3	-0.003951536
28	0xbe805d71	-0.2507129
29	0xbc551fa5	-0.013008033
30	0x3c11df27	0.008903301
31	0x3c504de1	0.01271388
32	0x3cc46d66	0.023977946
33	0x3be89be0	0.00709866
34	0x3cbccc89	0.023046749
35	0x3c88ab4b	0.016683241
36	0x3d1de498	0.038548082
37	0x3be9dd8a	0.007137005
38	0xbb88e3a1	-0.004177526
39	0x3cd0ce0f	0.025488881
40	0x3d0b21ae	0.033967666
41	0x3cc9e1b7	0.024643762
42	0x3ccc8913	0.024967706
43	0xbc02aade	-0.007975308
44	0x3c909fc1	0.017654302
45	0xbcf8c5ee	-0.030367818
46	0x3cc554dd	0.024088318
47	0x3b6d8c75	0.003624705
48	0x3e8001e7	0.2500145
49	0x3c94b9fb	0.018155089
50	0x3ce54f7b	0.027992
51	0x3add62fc	0.0016890462
52	0x3c14fe39	0.0090938145
53	0x3c90c0e8	0.01767011
54	0x3babb641	0.005240232
55	0x3cef119d	0.029183203
56	0x3cf431bf	0.029808877
57	0x3bc32ea8	0.0059564896
58	0x3d876a4a	0.0661207
59	0x3ccc747c	0.024957888
60	0x3caa0149	0.020752566
61	0x3caecb4f	0.02133718
62	0xbb1a6754	-0.0023560124
63	0x3ca377be	0.019954558
64	0x3d3b9235	0.04579373
65	0x3d183189	0.037156615
66	0x3cd3d634	0.025858976
67	0x3c44fd3c	0.012023266
68	0x3b4660f4	0.003027019
69	0x3c47b598	0.012189291
70	0x3c833ec3	0.016021138
71	0x3d38fe34	0.045164302
72	0x3e2c4935	0.16824801
73	0x3d963413	0.07334151
74	0x3bc7bc89	0.006095473
75	0x3c3b69b5	0.011438777
76	0x3d0efe6a	0.034910597
77	0x3e63ef3e	0.22259232
78	0x3c6fbd01	0.014632464
79	0x3cb3ed6d	0.0219638
80	0x3ca0b8f8	0.01961945
81	0x3d090d25	0.0334598
82	0x3d597dac	0.053098366
83	0x3dbb14a4	0.09134796
84	0x3c95eda9	0.018301802
85	0x3d4c3aee	0.049860887
86	0x3c8f937e	0.017526384
87	0x3ccbb870	0.02486822
88	0x3bbb7dc5	0.00572178
89	0x3d0385a6	0.03210988
90	0x3c30a47e	0.0107814055
91	0x3cd6385b	0.02614992
92	0x3d118ca1	0.035534505
93	0x3c5fabb6	0.013651779
94	0x3cb1dada	0.021710802
95	0xbbd9b16f	-0.006643466
96	0x3d14d79d	0.036338437
97	0xba46225c	-0.00075582205
98	0x3cdba54d	0.02681222
99	0x3ba5a39f	0.0050549055
100	0xbaaf70f5	-0.0013385104
101	0x3c99100e	0.018684413
102	0x3cbb153d	0.022837276
103	0x3cc3ae1b	0.02388673
104	0x3c0d96e7	0.008641935
105	0x3d3819be	0.044946425
106	0x3cb9d5d0	0.022684962
107	0xb88d81a9	-6.747555e-05
108	0xbc17a112	-0.009254711
109	0x3ca93055	0.02065293
110	0xbeb56b46	-0.35433406
111	0x3d024ba2	0.03181041
112	0x397ee03e	0.00024306864
113	0x3c2fb1cf	0.010723545
114	0x3cc4d53c	0.02402746
115	0x3da118a3	0.07866027
116	0xbaeb7d39	-0.0017966396
117	0xbc56e926	-0.01311711
118	0x3d0bb207	0.034105327
119	0x3d03704a	0.03208951
120	0x3cbf48f6	0.02335022
121	0x3c14de4c	0.009086203
122	0x3c9b8df8	0.018988594
123	0xbd712dd9	-0.058881614
124	0x3d0d99ed	0.034570623
125	0x3b86fb93	0.0041193455
126	0x3e4fcc5a	0.20292798
127	0xbc4bc312	-0.012436645

encoder_layer2.weight f4 [64, 128]
0	0x3a78a773	0.0009485401
1	0xba609d92	-0.00085684017
2	0xbabd9b6c	-0.0014465875
3	0x39107318	0.00013775786
4	0xb9aea553	-0.00033311042
5	0x3970fcec	0.00022982404
6	0x3a8432e6	0.001008597
7	0x39452d58	0.00018804276
8	0xba84dcd9	-0.0010136619
9	0x3a015f14	0.0004935127
10	0xb9edee63	-0.00045381775
11	0xbb0c5ab1	-0.002141636
12	0xba1eded7	-0.00060604274
13	0x3a2cda5e	0.00065938185
14	0xba8abcef	-0.0010584871
15	0xba675362	-0.00088243757
16	0xbb060f25	-0.0020455804
17	0x3770d170	1.4353878e-05
18	0xba0b700c	-0.00053191255
19	0x3a35dce8	0.00069375196
20	0xb8aad8eb	-8.146636e-05
21	0x3aca3100	0.001542598
22	0x3911c8a6	0.00013903025
23	0x393c91d2	0.000179834
24	0x3b123385	0.002230854
25	0x39d7d81f	0.00041169018
26	0xbc561c13	-0.013068217
27	0xb9a299a7	-0.00031013528
28	0xba32778b	-0.00068079744
29	0x3a9b4c9e	0.0011848395
30	0x3ac2dec7	0.0014867418
31	0xba194b57	-0.00058477133
32	0x3ad4cb73	0.0016234949
33	0xb9595e67	-0.000207299
34	0x38f52c61	0.000116907766
35	0xbbefbae1	-0.007315979
36	0x3a8ec77c	0.0010893191
37	0x3a2a0699	0.00064859685
38	0x3a06a00e	0.00051355443
39	0x3a87a68c	0.0010349317
40	0xbb5b2803	-0.0033440597
41	0x3a044d9f	0.0005046967
42	0x3af9956b	0.0019041722
43	0xba40fd53	-0.0007361967
44	0xbab7d853	-0.0014026262
45	0xbb35a856	-0.0027718744
46	0x3a0eb241	0.0005443432
47	0x3a93a1e6	0.001126346
48	0x3ba77cfb	0.0051113344
49	0x3a58bdb0	0.0008268012
50	0xb88eaa78	-6.80284e-05
51	0xb94e90f6	-0.00019699693
52	0x3a984432	0.0011617003
53	0x3a960e04	0.0011448269
54	0x3ab20ffd	0.0013585087
55	0x3ac8e85a	0.0015328035
56	0xbaa30510	-0.0012437422
57	0xbaaf0ae7	-0.001335469
58	0xba9c4a90	-0.0011924077
59	0xba44158f	-0.0007480019
60	0x3aa29ca5	0.0012406303
61	0xba4393bc	-0.0007460674
62	0x3b1ae525	0.0023635116
63	0xb8c29002	-9.2774644e-05
64	0x3abf295b	0.0014584468
65	0xba610922	-0.000858443
66	0xbaea44b0	-0.0017873254
67	0xb8611e8e	-5.3672637e-05
68	0x3b3c4f8c	0.0028733937
69	0x399e0150	0.00030137086
70	0x39cae3b6	0.000386981
71	0xba4b57da	-0.00077569264
72	0x3bebaf71	0.007192545
73	0x3a6caf1b	0.00090287783
74	0x3b29a7ea	0.0025887438
75	0x3ad502be	0.0016251428
76	0xba004178	-0.0004892568
77	0x3a953596	0.0011383768
78	0xb95dbb63	-0.0002114601
79	0xb9ef2e8c	-0.00045620312
80	0xbac46ed6	-0.0014986645
81	0xbb0a61d6	-0.0021115444
82	0xbb0f01d6	-0.0021821163
83	0xba8bdb08	-0.0010670135
84	0xbabd2594	-0.0014430755
85	0xbab5da88	-0.0013874331
86	0x39c8efbe	0.00038325595
87	0x3ab97308	0.0014148662
88	0xba0d1838	-0.0005382332
89	0xb9fecb52	-0.0004859814
90	0xbb681381	-0.0035412016
91	0x3a9a5678	0.0011775037
92	0xbb068995	-0.0020528783
93	0x3b2c5ca4	0.0026300335
94	0x3aaaf141	0.001304187
95	0xb901cc84	-0.00012378587
96	0x39f18b12	0.00046070718
97	0xb7a47166	-1.9603129e-05
98	0x3a6db7f6	0.0009068245
99	0x3aa200e1	0.0012359881
100	0x3aa23858	0.0012376411
101	0x3ae30f46	0.0017323277
102	0xb9e54452	-0.00043729186
103	0x3ad46fc6	0.0016207627
104	0xbb6d9681	-0.0036253037
105	0xbacd20d7	-0.0015650046
106	0x3b2d3559	0.0026429503
107	0xbaa9b93f	-0.0012948884
108	0x3aedcf28	0.0018143402
109	0xba0f2926	-0.00054611487
110	0x3bca6cd8	0.006177526
111	0xba8b94cf	-0.0010649207
112	0x3b1074f1	0.0022042359
113	0xbaa4050c	-0.0012513711
114	0x3abb159c	0.0014273408
115	0xbb083638	-0.002078427
116	0x39e1761c	0.00043003343
117	0x3a249047	0.00062776025
118	0xbb37da9f	-0.0028053892
119	0x3a919e8d	0.0011109874
120	0xb92a3153	-0.00016230838
121	0xba7c1b40	-0.00096170977
122	0x3ac27146	0.0014834784
123	0xbaf43aac	-0.0018633208
124	0xbaa17346	-0.0012317679
125	0x378a9160	1.6518577e-05
126	0x3b375ed8	0.0027980115
127	0x3a65aef3	0.0008761726
128	0x3b00c2d7	0.0019647384
129	0x37193e68	9.134041e-06
130	0x3b2ac90c	0.0026059775
131	0x3ab29f43	0.0013627786
132	0xbabee7bd	-0.0014564913
133	0xb9dc7e45	-0.00042055748
134	0xbb8ca267	-0.004291821
135	0xb9d71426	-0.00041023007
136	0x3b39ea99	0.002836859
137	0x39f42edc	0.0004657422
138	0x3b088472	0.0020830897
139	0x3b49a3f4	0.003076789
140	0xba27f357	-0.0006406805
141	0x3985a737	0.00025492322
142	0x3b53c815	0.0032315303
143	0x3aa2575e	0.0012385657
144	0x3b4810d5	0.003052761
145	0x3af7da88	0.0018909732
146	0x3b50a93a	0.0031839148
147	0xbae469c0	-0.0017426535
148	0xbb218d09	-0.0024650714
149	0xb969fafc	-0.0002231411
150	0x39eed216	0.00045551424
151	0xbb7d9cd8	-0.0038698222
152	0x3b40ef60	0.0029439554
153	0x3ac47f87	0.0014991619
154	0xbdcf7248	-0.10129219
155	0x39937e67	0.00028132202
156	0xbb81ba4f	-0.0039589773
157	0xbb2753b8	-0.0025532078
158	0xbae311d1	-0.0017324035
159	0xba20bf27	-0.00061319995
160	0x3aa4e6dc	0.0012581008
161	0x3a15e898	0.0005718558
162	0x3a3ee22a	0.0007281626
163	0x3a0b64f0	0.000531747
164	0xbb0009c8	-0.001953708
165	0xba2bf953	-0.00065602845
166	0xbb2d4a65	-0.0026442048
167	0xb9b5ab6e	-0.00034650735
168	0x3b707df5	0.003669617
169	0xbb19510b	-0.0023394253
170	0x3897afa2	7.232955e-05
171	0xb9c42959	-0.0003741484
172	0xbb4b6cb7	-0.003104014
173	0xbb77118e	-0.0037699672
174	0x3ab19f38	0.0013551479
175	0xbb246992	-0.002508734
176	0x3d208ba7	0.039195683
177	0xbbb109a8	-0.0054027624
178	0x3a4a12a9	0.0007708469
179	0xbad7727a	-0.0016437315
180	0xbb6fecf7	-0.0036609748
181	0x3b6caf26	0.0036115139
182	0xba68b386	-0.0008876849
183	0xba2dafd6	-0.0006625628
184	0x38d34c6f	0.00010075501
185	0x3b18a36a	0.0023290762
186	0x3b48443a	0.0030558244
187	0x3b07b6cb	0.0020708318
188	0x3aadb06f	0.0013251434
189	0xba96fd56	-0.0011519592
190	0xbb9562e1	-0.0045589064
191	0x3b1a69ed	0.0023561672
192	0x3b0c6be6	0.0021426617
193	0x3b5b6b37	0.0033480653
194	0x3b9db21b	0.0048124916
195	0xbaf478df	-0.0018651745
196	0x3bdaa204	0.006672146
197	0x3a57cf41	0.00082324824
198	0xbb025c6a	-0.001989151
199	0x3b48552f	0.0030568352
200	0x3cd58060	0.02606219
201	0x3c249499	0.010045194
202	0xba1b81fb	-0.00059321494
203	0x3ae5d498	0.0017534671
204	0x3b33bdfb	0.002742647
205	0x3c90cc03	0.017675405
206	0x3ac668de	0.0015137454
207	0x3ab6076b	0.0013887709
208	0x3aa6c3d3	0.0012723155
209	0x3b8c0b8b	0.004273837
210	0xbc9b8e77	-0.018988831
211	0xbbed1989	-0.00723571
212	0x3b7debd6	0.0038745306
213	0x3b7cfbe9	0.0038602299
214	0x3aff1fd3	0.001946444
215	0xb8a963d7	-8.0771446e-05
216	0x3ada9a15	0.0016678
217	0x3b992c59	0.004674476
218	0xbbcf67dd	-0.00632952
219	0xbb2f88d3	-0.0026784434
220	0x3b3ad70d	0.0028509528
221	0x3b0288e4	0.001991802
222	0xbb02bbc4	-0.0019948343
223	0xbb1c21d3	-0.0023823872
224	0x3b0213b8	0.001984818
225	0xbae76d55	-0.0017656485
226	0x3a0aeb1a	0.0005299315
227	0xba9b8019	-0.0011863738
228	0xbb034b6b	-0.0020033966
229	0xbb195fbf	-0.0023403016
230	0x39a534c7	0.00031510575
231	0xba0a6e0d	-0.0005280681
232	0xba3b5506	-0.00071461534
233	0x3b4fa5a4	0.0031684423
234	0xb9fc56cf	-0.00048129863
235	0xb9b31ead	-0.00034164396
236	0xba40b6f9	-0.0007351484
237	0xbc2abfda	-0.010421718
238	0xbc9207df	-0.017826019
239	0xbada9c83	-0.0016678724
240	0xbb96acd1	-0.004598238
241	0x3a8af4f3	0.0010601565
242	0xbb0b346a	-0.0021240958
243	0xbc3ef7c5	-0.011655753
244	0xbb76a9d1	-0.003763784
245	0xbafc46ab	-0.0019247135
246	0x3ba106ab	0.004914125
247	0x3ae92020	0.0017786063
248	0x3b36b78a	0.0027880394
249	0x3a79fea4	0.00095365406
250	0xbab7d341	-0.001402475
251	0x3bd28519	0.006424558
252	0x3b805fce	0.003917671
253	0xbad1e656	-0.001601408
254	0x3c9f475a	0.019443203
255	0x3a926a41	0.0011170582

encoder_layer2.bias f4 [64]
0	0x3c30df26	0.01079539
1	0x3bfdc38a	0.0077442573
2	0x3cf2e44c	0.029649876
3	0x3cb2189a	0.021740247
4	0xbd8c4471	-0.06848992
5	0x3d89111a	0.06692715
6	0x3bbd8e52	0.005784788
7	0xbd1b81d2	-0.037965603
8	0x3e1a790f	0.15085243
9	0x3c01883b	0.007906015
10	0x3b95e388	0.004574243
11	0x3c3b2d4d	0.011424375
12	0x3ca22a85	0.019795666
13	0x3ca52a8b	0.020161888
14	0x3d156697	0.03647479
15	0x3b12ef8a	0.0022420608
16	0xbc147ac7	-0.0090624755
17	0xbd653e63	-0.0559677
18	0x3c3280d7	0.010894976
19	0xbc7bc7e9	-0.0153674865
20	0x3bff17db	0.007784826
21	0x3c65b876	0.01402103
22	0xbc81b06b	-0.015831193
23	0x3c3c9cc9	0.01151199
24	0xbc5aeadb	-0.013361658
25	0xba73faac	-0.00093070674
26	0x3d15b543	0.036549818
27	0xb9709c5c	-0.00022946432
28	0x3c57a79e	0.013162522
29	0xbc3ed783	-0.011648062
30	0xbc881258	-0.01661031
31	0xbb4af965	-0.0030971405
32	0xbccc978a	-0.024974603
33	0xbbe2967e	-0.0069149127
34	0xbbc41054	-0.005983392
35	0xbdcb6dae	-0.09933029
36	0xbc1b72f9	-0.009487861
37	0x3be928f6	0.0071154786
38	0xbd989cfc	-0.074518174
39	0xbd193657	-0.03740534
40	0x3c706a31	0.0146737555
41	0xbbf3f482	-0.007444919
42	0x3c0b7ae2	0.008513184
43	0xbeb7d0d6	-0.35901517
44	0x3c68ebfa	0.014216417
45	0xba580bd5	-0.0008241509
46	0x3bc532c9	0.006018017
47	0xbd089647	-0.03334644
48	0xbc0ddb94	-0.008658309
49	0x3c2b1b5e	0.010443537
50	0x3ac0a54f	0.0014697703
51	0x3cb1b39c	0.02169209
52	0xbb88ca0e	-0.0041744774
53	0xbc05bca3	-0.00816265
54	0xbcf2845f	-0.029604135
55	0xbb760295	-0.003753816
56	0x3d145c4c	0.036220834
57	0x3ca0df17	0.019637628
58	0x3ccd7025	0.025077889
59	0xbca33568	-0.019922927
60	0x3c106aa3	0.008814487
61	0xbca4a670	-0.020098895
62	0x3c5cec37	0.013484052
63	0xbb9b63b9	-0.0047421125

encoder_layer3.weight f4 [32, 64]
0	0xbad48642	-0.0016214328
1	0xbbe74268	-0.007057477
2	0x3cf01b1a	0.029309798
3	0xbb86d146	-0.004114303
4	0x3d38ca81	0.045114998
5	0xb9d0b3eb	-0.000398069
6	0xbc518b05	-0.0127894925
7	0x3df0f284	0.11765006
8	0x3d1fff99	0.039062116
9	0xbb758486	-0.0037463023
10	0xbcde7d44	-0.02715934
11	0xbc3c64a0	-0.0114986
12	0xbaad2469	-0.0013209704
13	0xbb00395a	-0.0019565434
14	0x3cab9cdb	0.020948818
15	0x3ca29182	0.019844774
16	0x3d0f0398	0.034915537
17	0xbdc8145b	-0.097695075
18	0x3c78b92e	0.015180869
19	0x3c46bc5d	0.01212987
20	0xbc38c5a7	-0.011277593
21	0xbb8bccb1	-0.0042663445
22	0xbb7a7afd	-0.003822028
23	0x3d5f3a05	0.05449869
24	0xbc8964e1	-0.016771736
25	0x3be64d92	0.00702829
26	0x3bca5130	0.006174229
27	0xbc8528af	-0.016254751
28	0xbbd754a0	-0.0065713674
29	0x3c9130bd	0.017723436
30	0x3c083c0b	0.008315097
31	0x3cf67158	0.030083343
32	0x3c0fd94d	0.008779836
33	0x3cf1111f	0.02942711
34	0xbc9f9191	-0.019478591
35	0x3e139710	0.14413095
36	0x3c1cd9f2	0.009573447
37	0xbc0eeded	-0.008723718
38	0xbeccc29b	-0.39992222
39	0x3c0a7224	0.008450065
40	0x3b3707a6	0.0027928143
41	0x3c70f448	0.014706679
42	0x3c288e26	0.010287797
43	0x3e8659a4	0.26240265
44	0x3cf8f899	0.030391978
45	0xbccd9502	-0.025095467
46	0xbc3a2727	-0.011361874
47	0xbcdad7f6	-0.026714306
48	0xbbaced6f	-0.0052773277
49	0xbbc6916f	-0.0060598175
50	0xbc130abe	-0.008974729
51	0x3c2f0e2f	0.010684534
52	0x3c8296f6	0.015941124
53	0xbd0ec423	-0.03485502
54	0x3d9ac8d6	0.07557838
55	0xbb66c51c	-0.0035212701
56	0xbd8373f9	-0.064186044
57	0x3d53313b	0.05156062
58	0x3bd40d4e	0.0064713126
59	0xbc7b4444	-0.0153361
60	0x3c8d102a	0.017219622
61	0x3d9d1501	0.07670022
62	0xbc3ce66d	-0.011529547
63	0x3d03e35c	0.03219925
64	0x3b16dfdb	0.0023021612
65	0xbd316d58	-0.04331717
66	0xbba5fc61	-0.0050654863
67	0xbd98dc4b	-0.074638925
68	0x3d8c70df	0.06857466
69	0x3d3ef1d8	0.04661736
70	0xbd19a281	-0.03750849
71	0x3d9898b7	0.07451003
72	0xbd402ac0	-0.04691577
73	0xbc37719c	-0.01119652
74	0xbd080b58	-0.033213943
75	0xbd00be79	-0.03143165
76	0xbcb9714c	-0.022637032
77	0xbca35ab2	-0.019940708
78	0xbd0bc154	-0.03411992
79	0x3c7a1050	0.015262678
80	0x3bd1acce	0.0063987738
81	0xbda5ca26	-0.080951974
82	0x3b2505b5	0.0025180404
83	0x3cc84281	0.024445774
84	0xbc5f34d8	-0.013623439
85	0xbb37085c	-0.0027928567
86	0xbc9d62d0	-0.019212157
87	0x3c91e596	0.01780967
88	0xbd44c7b0	-0.048042
89	0x3c379274	0.011204351
90	0x3d6bc6f1	0.057562772
91	0xba16dc2b	-0.00057548535
92	0xbd62dd48	-0.05538681
93	0xbbfaec59	-0.0076575694
94	0xbc931f63	-0.017959302
95	0xbc689458	-0.014195524
96	0x3c5cc54d	0.013474775
97	0x3ca6452b	0.020296654
98	0x3aeefbec	0.0018233038
99	0x3dbe1bcc	0.092826456
100	0xbc37a433	-0.011208582
101	0xbb8dd9dc	-0.0043289494
102	0xbe9c2c69	-0.30502632
103	0x3cab0f0b	0.020881196
104	0xbc4c2942	-0.0124610085
105	0xbc987344	-0.01860965
106	0xbcd8c941	-0.026463153
107	0x3e49c06a	0.19702306
108	0xbcab4c3c	-0.020910375
109	0x3cd1389c	0.025539689
110	0xbd0aea3c	-0.03391479
111	0xbd550c7a	-0.05201385
112	0xbd08b973	-0.033379983
113	0xbba2699f	-0.0049564387
114	0xbbd8c1bc	-0.006614892
115	0x3c9723ec	0.018449746
116	0x3d09e570	0.033666074
117	0xbc568de9	-0.013095357
118	0x3d68c558	0.056828827
119	0xbd0820fd	-0.033234585
120	0xbc95f9f0	-0.018307656
121	0x3c8b02dd	0.016969139
122	0xbd18138a	-0.03712801
123	0xbc2eb334	-0.010662843
124	0xbc17695b	-0.009241427
125	0x3cfe50fe	0.03104448
126	0x3d1fc7b7	0.039008822
127	0x3c413359	0.011792027
128	0xbbce5375	-0.00629657
129	0x3be354ec	0.0069376137
130	0xbbdc1b19	-0.0067170975
131	0x3bd57b20	0.006514922
132	0x3bce1670	0.006289296
133	0x3c66417f	0.014053701
134	0x3c3f1f34	0.011665154
135	0xbc9e8fc3	-0.01935566
136	0x3d88a3a6	0.066718385
137	0x3ae8126f	0.0017705689
138	0x39a59cde	0.00031588128
139	0x3b2c0063	0.0026245348
140	0xbb8d6ea7	-0.0043161693
141	0x3bcdbec9	0.006278847
142	0xbbed1b1d	-0.007235898
143	0x3b971092	0.0046101296
144	0xbb8abc5c	-0.00423388
145	0xbdbc37e5	-0.091903485
146	0x3b3dba3e	0.002895012
147	0x3c103c1b	0.008803393
148	0x394bb59f	0.00019427248
149	0xbbcd0ec0	-0.006257862
150	0x3b21d429	0.0024693108
151	0xbbc77212	-0.0060865963
152	0x3a8b1091	0.0010609796
153	0x3b83464d	0.0040061832
154	0x3d94a3a0	0.072577715
155	0xbc2fd497	-0.010731838
156	0xbcc1a83a	-0.023639787
157	0x3bbe8f8b	0.0058154515
158	0x3bf9459c	0.007607175
159	0x3bb934cc	0.005652046
160	0x3ba2f520	0.004973069
161	0x3ad3cb6a	0.0016158645
162	0x3c28d5bf	0.010304867
163	0xbd033579	-0.032033417
164	0x3bdc4511	0.0067221005
165	0xbc0a3a1b	-0.008436705
166	0xbe9eef50	-0.31041956
167	0xbb7279a8	-0.0036998782
168	0xbb7ca7d1	-0.0038552175
169	0xbb4cac9c	-0.0031230813
170	0xbc4134e9	-0.0117924
171	0x3e8e0281	0.27736285
172	0xba262c72	-0.00063390203
173	0x3c0a46d8	0.008439742
174	0xbbd8f58f	-0.0066210697
175	0x3c0277e0	0.007963151
176	0x3baf3899	0.005347323
177	0xbaa3b347	-0.0012489342
178	0x39f62dfd	0.0004695504
179	0xbc43205c	-0.011909571
180	0x3c04aeb5	0.008098294
181	0x3c103d26	0.008803641
182	0x3b6a2009	0.003572466
183	0x3c0de15d	0.008659688
184	0x3cade125	0.021225521
185	0xb9a577c9	-0.000315605
186	0x3c58bd25	0.013228689
187	0xbb1f8e11	-0.0024346153
188	0x3945edc6	0.00018875962
189	0x3c109352	0.008824186
190	0xbc381e87	-0.011237747
191	0x3b960a60	0.0045788735
192	0xbb5dd539	-0.0033849014
193	0xbd0b0eb9	-0.033949587
194	0x3c092c3a	0.008372361
195	0x3d1a6a1e	0.037698857
196	0x3ca4e7c0	0.020130038
197	0xbc5f2407	-0.013619429
198	0x3d086b41	0.03330541
199	0x3bc3935b	0.005968494
200	0x3d7d0934	0.061776355
201	0xbca0438f	-0.019563464
202	0xbbde5c9b	-0.006785942
203	0x3c7b516b	0.015339236
204	0x3c3fb050	0.011699751
205	0x3c801112	0.01563314
206	0xbbd108ef	-0.006379239
207	0x3b92dcf5	0.0044819065
208	0xbc9c4703	-0.01907683
209	0xbde4712d	-0.11154399
210	0x3a4baf7b	0.0007769984
211	0x3d2a7e0c	0.041624114
212	0xba8a4af3	-0.0010550901
213	0xbc824c8b	-0.01590564
214	0x3be4ff71	0.006988459
215	0x3b62f82c	0.0034632785
216	0x3be54450	0.006996669
217	0x3caeb6a4	0.021327324
218	0x3d69b614	0.05705841
219	0xbca7ad6c	-0.020468436
220	0xbd5489c2	-0.05188919
221	0xbc97c4c4	-0.018526442
222	0x3c7ad97e	0.015310643
223	0xbbb1519b	-0.0054113395
224	0x3ca7fb77	0.02050565
225	0xbbb66c24	-0.0055670906
226	0x3c8d8365	0.017274568
227	0x3d4d5ddc	0.05013834
228	0xbca2b8b2	-0.01986346
229	0xbc9805c2	-0.018557433
230	0xbe8cd7ab	-0.27508292
231	0xbd05b450	-0.032642663
232	0xbc835fad	-0.016036833
233	0xbc2886bd	-0.01028603
234	0xbc03e8d6	-0.008051118
235	0x3e545184	0.2073422
236	0x3adfb524	0.0017067534
237	0x3c108d97	0.00882282
238	0xbc815d40	-0.015791535
239	0x3c513498	0.012768887
240	0x3b744b24	0.0037276233
241	0x3a6df8fb	0.00090779335
242	0x3b712dc8	0.003680097
243	0xbcc2f64b	-0.023799082
244	0x3be3a321	0.0069469367
245	0x3b919484	0.0044427533
246	0x3ad4eb8c	0.0016244515
247	0xbc02efc6	-0.007991737
248	0xb9d5d2f0	-0.00040783687
249	0x3c0a8d3a	0.008456523
250	0x3c68116b	0.014164309
251	0x3c7217ad	0.014776153
252	0xbb78a450	-0.0037939735
253	0x3cd834ab	0.026392302
254	0xbc821d61	-0.01588315
255	0x3ceb7c85	0.028745899

encoder_layer3.bias f4 [32]
0	0xbcbe898e	-0.02325895
1	0xbd791a01	-0.060815815
2	0xbd3d4f4e	-0.04621821
3	0xbd88de7f	-0.06683063
4	0x3c44c68b	0.012010227
5	0xbd8a826a	-0.06763156
6	0x3a75b87e	0.00093735
7	0xbe05db1e	-0.13071868
8	0xbda53956	-0.080675766
9	0xbd57d766	-0.052695654
10	0x3d1e77dd	0.03868853
11	0x3e4deeac	0.20110577
12	0x3d321b32	0.043482967
13	0xbdc6bc66	-0.09703903
14	0xbc8e21a5	-0.017350027
15	0x3fc078bd	1.5036846
16	0x3d0336d1	0.0320347
17	0x3d21b3e6	0.039478205
18	0x3bdb5651	0.0066936393
19	0xbd2b29b3	-0.041787814
20	0xbd58bb79	-0.052913163
21	0xbe03a8d3	-0.1285737
22	0xbc38c1de	-0.01127669
23	0xbc46d5ae	-0.012135906
24	0xbd056f18	-0.03257665
25	0xbc9b9a05	-0.01899434
26	0xbcc9a7d9	-0.024616169
27	0xbd34fbc4	-0.044185415
28	0xbd097e3a	-0.033567645
29	0xbd5312bc	-0.05153154
30	0x3aad342a	0.0013214399
31	0x3cf56e3f	0.029959796

encoder_layer_mu.weight f4 [2, 32]
0	0x3e261485	0.16218765
1	0x3e56a86f	0.2096269
2	0x3de6e3e5	0.11273936
3	0x3d557cfc	0.052121148
4	0xbe080b08	-0.13285458
5	0xbe57ea68	-0.21085513
6	0xbe5da88c	-0.21646327
7	0xbe5badf2	-0.21453074
8	0xbe5fb3b2	-0.21845892
9	0x3e1d1d0c	0.15343112
10	0x3e4bd706	0.19906244
11	0xbd9f5797	-0.07780378
12	0xbe09ab86	-0.13444337
13	0x3dd54c35	0.10414926
14	0xbdedf253	-0.11618485
15	0xbacf0c6a	-0.0015796546
16	0x3e2ba819	0.16763343
17	0xbe2761ea	-0.16345945
18	0x3e82432d	0.25441876
19	0xbe3b7eab	-0.18310039
20	0xbe1de68e	-0.15419981
21	0x3dbbf44e	0.09177457
22	0xbe4df504	-0.20112997
23	0x3e4b2087	0.19836627
24	0xbe2b9461	-0.16755821
25	0x3e06f1f8	0.13178241
26	0x3e42c8b7	0.19021879
27	0x3e3cb091	0.1842673
28	0x3e833d45	0.25632682
29	0xbe27acfa	-0.16374579
30	0x3e6e5827	0.23275815
31	0xbd915be6	-0.07097606
32	0xbe428055	-0.18994267
33	0xbe1bc726	-0.15212688
34	0xbe2895c7	-0.16463386
35	0xbe43b560	-0.19112158
36	0x3e3e16d1	0.18563391
37	0x3e4b4479	0.19850339
38	0x3e67cc3a	0.226365
39	0x3e385a29	0.18003143
40	0x3e0853a4	0.13313156
41	0xbe3c1dce	-0.18370745
42	0xbe2067a5	-0.15664537
43	0x3ce312f1	0.027718993
44	0x3e092e39	0.13396539
45	0xbe3ea891	-0.1861899
46	0x3e0c8719	0.1372341
47	0x3d039e0e	0.032133155
48	0xbe8ebcd7	-0.27878448
49	0x3e722d97	0.23650204
50	0xbdcb6588	-0.09931475
51	0x3e523821	0.20529224
52	0x3e7565b0	0.23964572
53	0xbdc0b276	-0.09409039
54	0x3e276512	0.16347149
55	0xbe3e405f	-0.18579243
56	0x3e2a61b0	0.16638827
57	0xbe6dd5a2	-0.23226026
58	0xbddf3e62	-0.109005705
59	0xbe2abb69	-0.16673054
60	0xbe6dc4f2	-0.2321966
61	0x3e553127	0.20819531
62	0xbd943a47	-0.07237678
63	0x3e95ca58	0.2925594

encoder_layer_mu.bias f4 [2]
0	0xbe534a97	-0.20633923
1	0x3e4d9722	0.20077184

encoder_layer_sigma_square.weight f4 [2, 32]
0	0xbbbc9712	-0.0057553137
1	0x3d85f5f7	0.06541055
2	0x3ce341b4	0.02774129
3	0xbca2687a	-0.019825209
4	0xbd242355	-0.040072758
5	0xbd77ded2	-0.060515232
6	0xbd70c2e5	-0.058779616
7	0x3ddd0f63	0.107939504
8	0xbc1e91f6	-0.0096783545
9	0x3cbb2e00	0.022849083
10	0x3ce6d6bb	0.028178563
11	0xbf0a3d77	-0.5400004
12	0xbd8a17bd	-0.06742809
13	0xbc55d116	-0.013050338
14	0xbdd1a24b	-0.10236033
15	0xbfc1cf0b	-1.514131
16	0x3c0ed98c	0.008718859
17	0xbd9a9722	-0.075483575
18	0x3c0942bd	0.008377728
19	0xbd7333c6	-0.059375547
20	0xbd8b2a89	-0.06795222
21	0x3e55395a	0.20822659
22	0xbdac0bf5	-0.08400718
23	0x3d0876a9	0.03331629
24	0xbcd2304f	-0.025657801
25	0x3c5c783d	0.013456401
26	0x3c801571	0.015635224
27	0x3d74eba4	0.059795037
28	0x3d4213b5	0.047382075
29	0xbd0081e9	-0.031373892
30	0x3c24c99a	0.010057831
31	0xbd290be1	-0.041271094
32	0xbcaafbab	-0.020871958
33	0x3d968b32	0.07350768
34	0x3c805aa8	0.015668228
35	0x3b2dc5ff	0.002651572
36	0xbd2ccd21	-0.042187814
37	0xbd4db5e1	-0.05022228
38	0xbd56fd24	-0.052487507
39	0x3deb02c0	0.11475134
40	0xbbcb9fc9	-0.0062141162
41	0x3ca4097b	0.020024052
42	0x3cac34af	0.021021215
43	0xbf07ced3	-0.53049964
44	0xbd475480	-0.04866457
45	0xbc0d0a0e	-0.008608354
46	0xbdd3008f	-0.10302841
47	0xbfc21f35	-1.5165774
48	0x3bfaa44d	0.0076489807
49	0xbd6103e3	-0.054935347
50	0xbae71c12	-0.0017632267
51	0xbd566070	-0.052338064
52	0xbd5f3eca	-0.05450324
53	0x3e531a8d	0.20615597
54	0xbda61820	-0.0811007
55	0x3cf8f237	0.030388935
56	0xbd00b74e	-0.031424813
57	0x3c519cf5	0.012793769
58	0x3c62cecd	0.01384325
59	0x3d8e5d51	0.069513924
60	0x3d3836b7	0.044974055
61	0xbc94f68c	-0.018183969
62	0x3bd6e08d	0.0065575303
63	0xbc9d88a7	-0.0192302

encoder_layer_sigma_square.bias f4 [2]
0	0xbfa85ed8	-1.3153944
1	0xbfad215c	-1.3525805

decoder_layer1.weight f4 [32, 2]
0	0x3eb6750d	0.35636178
1	0xbeb4181f	-0.35174653
2	0x3bc99046	0.006151232
3	0xbb73eb89	-0.0037219247
4	0x3b4981f3	0.0030747622
5	0xbb9feea8	-0.004880745
6	0x3d0dbd2f	0.034604248
7	0xbcee4018	-0.029083297
8	0x3a77df51	0.0009455579
9	0x382a4f15	4.060481e-05
10	0x39ed7e34	0.0004529819
11	0x3cca8509	0.02472164
12	0x3e46811c	0.19385189
13	0xbeb3d64d	-0.35124436
14	0xbc491c53	-0.012274819
15	0x3c810660	0.01575011
16	0x3d238708	0.039923698
17	0xbca38c09	-0.019964235
18	0xbb7cb2f5	-0.0038558815
19	0x3b996b41	0.004681975
20	0x3f34bb80	0.705986
21	0xbf30e410	-0.69097996
22	0x3bc45a6a	0.0059922235
23	0xbc0c6825	-0.008569752
24	0x3b064687	0.0020488815
25	0xbb4e7ca7	-0.0031507404
26	0x3bbdba0f	0.005790002
27	0xbd7fa709	-0.062415157
28	0x3c7ea225	0.015541588
29	0xbca7ae59	-0.020468878
30	0x3b1e19a5	0.0024124172
31	0xbb53eef4	-0.0032338472
32	0xbf29964a	-0.6624495
33	0x3f35c72a	0.71007025
34	0xbcb51f6c	-0.02210971
35	0x3b9260b0	0.0044670925
36	0xbaa2c8f0	-0.0012419503
37	0xba6a188f	-0.0008930051
38	0xba70b3ea	-0.0009182083
39	0x3b8ad603	0.004236938
40	0xbd70befe	-0.058775894
41	0x3d1f3070	0.038864553
42	0x3c1d3d68	0.00959716
43	0xbc18e9b5	-0.009333064
44	0xbd854200	-0.06506729
45	0x3d6feb66	0.058574103
46	0xbca153a4	-0.019693203
47	0x3be3c546	0.006951007
48	0x3bfe7235	0.0077650794
49	0xbc05ed14	-0.0081742
50	0xbbc89247	-0.0061209532
51	0x3c61fe00	0.0137934685
52	0x3d36e8cf	0.044655617
53	0xbd4572b2	-0.048205085
54	0xbd22ce21	-0.03974736
55	0x3d0b686b	0.034035128
56	0xbbb33a12	-0.005469569
57	0xb957a425	-0.00020565146
58	0xb8bd1588	-9.016233e-05
59	0xb9ff352c	-0.00048677006
60	0xbcb56022	-0.022140566
61	0x3cd61d53	0.02613703
62	0x3ee51df1	0.44749406
63	0xbecc899a	-0.39948732

decoder_layer1.bias f4 [32]
0	0xbe93815c	-0.2880963
1	0x3b076eae	0.0020665335
2	0x3b361a4f	0.0027786677
3	0x3c3f6140	0.011680901
4	0x39e5a5b4	0.00043801742
5	0xbc1993f4	-0.009373654
6	0xbe6dfef2	-0.23241785
7	0xbb189d75	-0.002328721
8	0x3c387502	0.011258366
9	0xbb33f286	-0.0027457788
10	0xbf209605	-0.6272891
11	0x3b568861	0.0032735097
12	0x3b67c223	0.0035363517
13	0x3cef715b	0.029228857
14	0x3c8e9a78	0.01740764
15	0x3b12f118	0.0022421535
16	0xbe115dbe	-0.14195916
17	0x3ab6f04c	0.0013957112
18	0x3b095fec	0.0020961715
19	0xbb61ace9	-0.0034435338
20	0x3d0d9ad4	0.034571484
21	0x3b6ce564	0.003614747
22	0x3c08414b	0.008316348
23	0xbcb220f4	-0.021744229
24	0x3b5036e3	0.0031770996
25	0xbbae6953	-0.005322614
26	0xbc05e392	-0.008171933
27	0x3ccfd203	0.025368696
28	0x39ec751f	0.0004510069
29	0x391b417c	0.00014806347
30	0xbc1736b5	-0.009229352
31	0xbeb725b6	-0.3577096

decoder_layer2.weight f4 [32, 32]
0	0xbc6cf6d5	-0.014463146
1	0xba03918d	-0.0005018942
2	0xb9cf63c4	-0.00039556448
3	0x3c91def1	0.017806502
4	0xb7c2d98b	-2.3227904e-05
5	0x3c151c44	0.009100977
6	0x3d0cd7ed	0.03438561
7	0xbb8d8721	-0.004319087
8	0xbb989b37	-0.004657175
9	0xba75e355	-0.00093798834
10	0x3c4874d3	0.012234884
11	0x3a8f05e7	0.0010911793
12	0xb9ed3f6f	-0.00045251424
13	0xbbfb5355	-0.007669846
14	0xbb6a8eb2	-0.003579062
15	0x39ae13cc	0.00033202616
16	0xbc0a9d6b	-0.008460383
17	0xba3c965d	-0.0007194037
18	0xb897f3a7	-7.245625e-05
19	0x3ad47fea	0.0016212438
20	0xbd403fad	-0.046935726
21	0xbb71fe1a	-0.0036925138
22	0x3d512ab2	0.051066108
23	0xbbf6b46d	-0.0075288326
24	0xbaf597df	-0.0018737278
25	0x3c09c6cc	0.008409213
26	0xbb11a92f	-0.0022226085
27	0x3c02c16d	0.007980687
28	0xba181578	-0.0005801539
29	0xb70d096f	-8.406451e-06
30	0xbb3e21ca	-0.002901184
31	0xbd170e62	-0.03687895
32	0xbaf12ada	-0.0018399612
33	0xbab384c1	-0.001369618
34	0xba98a549	-0.0011645939
35	0x3c48e7c8	0.012262292
36	0xb8ad67cd	-8.268617e-05
37	0x3a58cdd0	0.00082704145
38	0xbc0e62ba	-0.00869053
39	0x3a875dfa	0.001032769
40	0xbcc8e218	-0.024521872
41	0xbb452e70	-0.0030087493
42	0x3c875e49	0.01652445
43	0xbc3d6247	-0.011559076
44	0xb9f09bb5	-0.00045892378
45	0xbc0ac007	-0.008468634
46	0xbbbdbd38	-0.005790379
47	0x3b12ab26	0.0022379844
48	0x3c2ddefe	0.0106122475
49	0x3bb26a57	0.0054448056
50	0x387f277e	6.0833518e-05
51	0xba88d2cf	-0.0010438802
52	0x3b5cc6fb	0.0033687938
53	0xbaebe3d2	-0.0017996973
54	0xbd7b5136	-0.061356746
55	0x3cd1bf94	0.025604047
56	0xba619424	-0.00086051435
57	0x3bf8402e	0.00757601
58	0x3a38e42d	0.0007053044
59	0xbc0c0039	-0.008544975
60	0xbb31007a	-0.002700834
61	0xb8077d27	-3.2303065e-05
62	0x3b6bde3a	0.0035990612
63	0xbc8996dd	-0.01679557
64	0xbde6e534	-0.11274186
65	0x3ae90787	0.0017778733
66	0xbb3b5564	-0.0028584832
67	0xbc93fafd	-0.018064016
68	0x38e0f8cb	0.00010727494
69	0x3bec6da4	0.0072152186
70	0xbe397577	-0.18111216
71	0x3c16d6b4	0.009206463
72	0xbc9eb953	-0.019375479
73	0x3b9d4247	0.0047991606
74	0xbee4e3ba	-0.44704992
75	0xbba59be4	-0.005053984
76	0xbadd4711	-0.0016882141
77	0xbd2dddcd	-0.042447854
78	0xbc1a5b5b	-0.009421195
79	0xbb027e6a	-0.0019911774
80	0xbf33cdee	-0.702361
81	0x3b85b37f	0.0040802355
82	0xba952a32	-0.0011380373
83	0xbad540bf	-0.0016269906
84	0x3d856480	0.065133095
85	0xbbac2d9d	-0.005254461
86	0xbc9f234b	-0.019426009
87	0x3c03eb6e	0.008051736
88	0xbb80b639	-0.0039279726
89	0x3a415c89	0.00073761545
90	0x3ac6c735	0.001516557
91	0x3b5207e1	0.0032048153
92	0x3b3fd029	0.002926836
93	0xb9aa857a	-0.00032524375
94	0x3b371c16	0.0027940325
95	0xbda62142	-0.08111812
96	0xbc9ae0d8	-0.018906042
97	0xbb80c775	-0.003930027
98	0xb8563a5d	-5.107593e-05
99	0x3cace557	0.021105452
100	0xb7c48bf9	-2.34302e-05
101	0x3c4e0995	0.012575527
102	0xbc2c5d12	-0.010520237
103	0x3b90b0d2	0.00441561
104	0xbc6f61cb	-0.014610718
105	0x3ab09dc6	0.0013474755
106	0xbd6adce0	-0.05733955
107	0xbbbb7e27	-0.0057218256
108	0xb8ae35e4	-8.3070045e-05
109	0x3c85eedb	0.016349247
110	0xbb1a083d	-0.0023503446
111	0x3ac26ac4	0.0014832844
112	0xbcdbf032	-0.026847932
113	0x3b833033	0.0040035485
114	0x39b22b36	0.00033983
115	0x38f264f6	0.00011558265
116	0x3c684160	0.014175743
117	0xbb9c81c5	-0.004776212
118	0x3c234ada	0.0099665765
119	0xbc1e0ab4	-0.0096461065
120	0xbb1fa69a	-0.0024360777
121	0xba941433	-0.0011297524
122	0xbc0595df	-0.008153408
123	0xbafc0f3a	-0.0019230612
124	0xba7e37a0	-0.000969762
125	0xb8a4c132	-7.856115e-05
126	0x3b8ea4e8	0.0043531545
127	0x3db08eda	0.08620997
128	0x3c8f6508	0.01750423
129	0xbb3c4173	-0.0028725534
130	0xbb1fb4d5	-0.002436926
131	0xbac9d0a2	-0.001539726
132	0x38a8c44c	8.0474274e-05
133	0xbc1b3101	-0.009472133
134	0x3c8a8b04	0.016911991
135	0xbbb6395b	-0.0055610365
136	0x3b5b6c8b	0.0033481445
137	0xbb3aedfe	-0.0028523202
138	0xbc135eda	-0.008994782
139	0x3aa4fcb5	0.001258752
140	0xba1a0939	-0.0005876008
141	0xbc9aceb1	-0.018897386
142	0x3b2fc791	0.0026821832
143	0x3a6f2c07	0.0009123687
144	0xbb6b52ac	-0.003590743
145	0xbb0e3dc1	-0.0021704289
146	0x3917b495	0.00014467754
147	0x3ab67ef4	0.0013923333
148	0xbca60583	-0.0202663
149	0x3b7c39c8	0.0038486589
150	0x3d163729	0.0366737
151	0xbcf07738	-0.029353723
152	0x3b1590c8	0.0022821892
153	0x3b189d82	0.0023287241
154	0x39c02698	0.00036649848
155	0xbb75548b	-0.0037434425
156	0x39527cd1	0.00020073658
157	0x3787b071	1.6175416e-05
158	0xbb84b345	-0.004049691
159	0xbc7c8a8c	-0.0154138915
160	0x3a517cbe	0.00079913053
161	0xbb07fbe8	-0.0020749513
162	0xba05366e	-0.0005081658
163	0x3badc163	0.0053025945
164	0xb8388bb1	-4.3999116e-05
165	0xbbbbad32	-0.0057274336
166	0xbc6dde16	-0.014518281
167	0x392418a2	0.00015649435
168	0x3caf2c37	0.021383388
169	0x3a9a2ad4	0.0011762031
170	0x3c4d6610	0.012536541
171	0xbadf4b70	-0.0017036032
172	0xb9928b66	-0.0002795115
173	0x3c1a6606	0.009423738
174	0xb8bf2df8	-9.116152e-05
175	0x3abb26f0	0.0014278572
176	0xbc55c086	-0.013046389
177	0xba178f96	-0.0005781589
178	0xb8eddbaa	-0.00011341956
179	0xba1b37e0	-0.0005921107
180	0xbb99ccce	-0.004693604
181	0xbb201f13	-0.0024432584
182	0x3b0cd634	0.002148998
183	0x3ca25e76	0.019820433
184	0xb84765de	-4.754017e-05
185	0x3b29f309	0.0025932214
186	0xb8e8a6ea	-0.00011093712
187	0xb8739cb8	-5.808167e-05
188	0x3a8e6616	0.0010864164
189	0xb7d273fa	-2.5087957e-05
190	0x3b3ae5f1	0.0028518403
191	0xbcf0dbac	-0.029401623
192	0xbd85be9d	-0.06530497
193	0x3b525054	0.0032091336
194	0xba6a729e	-0.0008943471
195	0x3bccc5a8	0.0062491484
196	0xb7956660	-1.7809856e-05
197	0xbccac9b7	-0.024754388
198	0x3ce7133c	0.028207414
199	0x3b5a5120	0.0033312514
200	0xbc41eaab	-0.011835734
201	0xbb4416ce	-0.002992082
202	0xbca8afb8	-0.020591602
203	0xbbe2dd53	-0.0069233566
204	0xba80ad2c	-0.0009817234
205	0xbcb25772	-0.021770213
206	0xba845d92	-0.0010098687
207	0x3ac92646	0.0015346489
208	0x3cd2b444	0.025720723
209	0x3bbf2a24	0.005833881
210	0xba7b29cb	-0.0009581118
211	0x3ac0ec0f	0.0014718788
212	0xbd143a03	-0.036188137
213	0xbbf80187	-0.0075685414
214	0xbd700f63	-0.058608424
215	0xbd1aea27	-0.03782096
216	0x3b87a700	0.004139781
217	0xba87e0be	-0.0010366661
218	0xbbfe85b5	-0.007767404
219	0xbc9f7c90	-0.019468576
220	0x3b288e6d	0.0025719658
221	0x37b0fee9	2.1099537e-05
222	0x3bd65ab0	0.0065415725
223	0x3d974c46	0.07387595
224	0x3cc6a7bb	0.024249902
225	0x3afa9619	0.0019118219
226	0x39c47489	0.0003747086
227	0x3b4efe4e	0.0031584683
228	0x3910695d	0.00013772161
229	0xbb912251	-0.0044291397
230	0xbbae798f	-0.0053245495
231	0xbac3a104	-0.0014925306
232	0x3bd4d58a	0.0064951824
233	0xbb0c8f7d	-0.002144783
234	0xbcf05e8a	-0.029341955
235	0x3ad271f3	0.0016055688
236	0x395a46a0	0.0002081641
237	0xbcaf1af0	-0.02137515
238	0x3b8658ee	0.0040999567
239	0x3b25eec5	0.002531932
240	0xbdbb6c47	-0.09151512
241	0xbc409d21	-0.011756212
242	0xb9e2617d	-0.00043178714
243	0xb90b2976	-0.00013271518
244	0xbd30a82e	-0.04312914
245	0x39b7d664	0.00035064213
246	0xbd60b207	-0.05485728
247	0x3bc69a8f	0.0060609053
248	0x3a114432	0.0005541473
249	0xbb47c505	-0.0030482423
250	0x3c4dc653	0.012559491
251	0xbca54f3f	-0.020179389
252	0x3aa12a78	0.0012295982
253	0xb868db88	-5.5517565e-05
254	0xbc53e569	-0.012933114
255	0xbd46d290	-0.04854065

decoder_layer2.bias f4 [32]
0	0x3bf2df98	0.0074119084
1	0x3a683266	0.00088576076
2	0xbc0242fc	-0.007950541
3	0x3c22aaf7	0.0099284565
4	0x3ba77e61	0.005111501
5	0x3b93340b	0.004492288
6	0x3bbc337e	0.005743443
7	0x3b135d11	0.0022485892
8	0xbc537634	-0.0129066
9	0x3bb02b07	0.005376223
10	0x3d9d76de	0.07688688
11	0xbd5b0269	-0.053469095
12	0x3ccfeeca	0.025382418
13	0x3d124ba5	0.03571667
14	0x3e32f10b	0.17474763
15	0xbd5334f8	-0.051564187
16	0x3be9c8f9	0.0071345535
17	0xbbc8b97d	-0.0061256276
18	0x3bbdb77c	0.0057896953
19	0x3cb22938	0.02174817
20	0x3bc3873a	0.005967048
21	0x3c3c01df	0.0114750555
22	0x3c475013	0.012165087
23	0x3c4e7955	0.01260217
24	0x3c091242	0.008366169
25	0xbd38e382	-0.045138843
26	0x3a10fa37	0.0005530449
27	0xb9ebd293	-0.00044979583
28	0x3b6828ab	0.003542463
29	0xbda22033	-0.07916298
30	0xbc7a6f1e	-0.015285281
31	0x3b7a0c83	0.003815443

decoder_layer3.weight f4 [32, 32]
0	0x3b1be07d	0.0023784928
1	0xbae9f576	-0.0017849642
2	0xba8b7ae9	-0.0010641488
3	0xb9e94bf0	-0.000444978
4	0xb927fc59	-0.00016020368
5	0x3a1216fe	0.0005572884
6	0x3a5d0aaf	0.0008432073
7	0xb97738b9	-0.00023576886
8	0xbb1d8c6b	-0.0024039994
9	0x3b40d425	0.0029423323
10	0x3c3c7b6e	0.011504037
11	0x3bee08d0	0.007264234
12	0xbabe32ad	-0.0014510952
13	0xbc7775ac	-0.015103739
14	0xbc13f222	-0.009029897
15	0xbbad9b23	-0.0052980348
16	0xba859485	-0.0010191357
17	0xbb70f8b7	-0.003676934
18	0xb7d59f0d	-2.5465642e-05
19	0xbb097d56	-0.0020979247
20	0x3a7f1e28	0.00097319717
21	0x38998c47	7.321737e-05
22	0xbb25606f	-0.002523448
23	0x3a6d0545	0.0009041618
24	0xba72540e	-0.00092440925
25	0x3c02c0e6	0.007980561
26	0xba65c24b	-0.00087646086
27	0xba9cbcc4	-0.0011958112
28	0xba96bf0d	-0.0011501029
29	0xbb625a97	-0.003453886
30	0xbaa8f988	-0.0012891749
31	0xbb1303da	-0.0022432716
32	0x3ad664e0	0.0016356967
33	0x3afc836d	0.0019265242
34	0xbc7fb4f6	-0.015607109
35	0xbaf1701b	-0.0018420251
36	0xb93fb82d	-0.0001828379
37	0xbb408b71	-0.0029379989
38	0x3ae74f7e	0.0017647592
39	0xbb732b07	-0.0037104504
40	0x3acecc10	0.0015777368
41	0xbb6070e2	-0.003424697
42	0x3cb72383	0.0223558
43	0x3b83129d	0.0040000216
44	0xbb4b39cd	-0.0031009794
45	0xba20ad3c	-0.00061293296
46	0x3afd919f	0.0019345767
47	0xbc56514f	-0.013080909
48	0xb6f4fbae	-7.301066e-06
49	0xbc257f5d	-0.010101167
50	0x3a21eb48	0.0006176722
51	0xbb2813a1	-0.0025646465
52	0xbabb8bc6	-0.0014308624
53	0xb98e3997	-0.00027127258
54	0xbc74b3a4	-0.014935408
55	0xbb054c59	-0.0020339696
56	0xba10205a	-0.0005497985
57	0xbbe082a3	-0.0068515106
58	0xba7a13ea	-0.00095397106
59	0x3ad01d81	0.0015877933
60	0x39c6d929	0.000379273
61	0xbc149409	-0.009068497
62	0x3b11f53a	0.002227141
63	0xbba3e57a	-0.005001721
64	0x3bd773be	0.006575077
65	0xbba376b9	-0.004988518
66	0x3c9cb1f9	0.019127833
67	0x3cb66f22	0.02226979
68	0x3bb98fa3	0.005662875
69	0x3c194471	0.009354697
70	0xbc0f2a50	-0.008738115
71	0x3d51bcf3	0.051205587
72	0xbd2dc957	-0.04242834
73	0x3c5420d7	0.012947283
74	0x3d691d4e	0.056912713
75	0xbc7ef820	-0.015562087
76	0x3d4103cc	0.04712276
77	0x3d568382	0.05237151
78	0x3e9835c8	0.29728532
79	0xbebf785f	-0.37396523
80	0x3bf88142	0.007583768
81	0x3d6971d2	0.056993313
82	0x3b2e0648	0.0026554037
83	0x3d5a9f1a	0.053374387
84	0x3bbb7954	0.0057212505
85	0x3c0e3547	0.0086796945
86	0x3d1b3633	0.037893485
87	0x3c79d675	0.015248884
88	0xbb1d9106	-0.002404274
89	0xbda66631	-0.0812496
90	0x3bdb5107	0.006693009
91	0x3a562b6d	0.0008169923
92	0xbac12eb0	-0.0014738645
93	0xbed55ee6	-0.41673964
94	0xbcf277a1	-0.02959806
95	0x3cf79f01	0.030227186
96	0x39b13721	0.00033801145
97	0x3995e8cd	0.00028592945
98	0xbb91d048	-0.004449878
99	0xbaa44ed2	-0.0012535697
100	0x3a5bed7e	0.0008389576
101	0xbb7064e8	-0.0036681239
102	0xbb964b20	-0.0045865923
103	0x3c22904e	0.0099221
104	0xbaf3e46e	-0.0018607506
105	0xbb327b01	-0.002723396
106	0xbcd9783f	-0.026546596
107	0xbc05bfae	-0.008163376
108	0xbb5c730a	-0.0033637905
109	0xbc87376c	-0.01650592
110	0x3cafd2d6	0.02146284
111	0xba94dc48	-0.0011357153
112	0x3b068c35	0.0020530347
113	0x3afe2518	0.0019389717
114	0xbac6b0c7	-0.0015158885
115	0xb9a68875	-0.00031763656
116	0xbb4e4e18	-0.0031479653
117	0xbb482585	-0.0030539942
118	0x3b8ba87f	0.0042620297
119	0xbb1ce59e	-0.0023940573
120	0x3bd83854	0.0065985117
121	0xbc020340	-0.007935345
122	0xbaf83664	-0.0018937108
123	0xbab09710	-0.0013472755
124	0xb9bc9768	-0.0003597096
125	0x3b9915db	0.004671795
126	0x3bc837a8	0.0061101504
127	0x3c5b71cc	0.0133938305
128	0x3b004691	0.001957331
129	0x3b30c20a	0.0026971125
130	0x3c8d78a9	0.01726945
131	0xbb061a0c	-0.0020462302
132	0xb8c5792a	-9.4162606e-05
133	0x3aa6abbf	0.0012715979
134	0x3a0539cf	0.00050821615
135	0x3c5ab455	0.013348659
136	0x3a314793	0.00067626795
137	0x3ba96f5a	0.005170745
138	0x3c9ab162	0.01888341
139	0x3c248418	0.010041259
140	0xbba4ae29	-0.0050256443
141	0xbce68293	-0.028138435
142	0xbd5576bb	-0.052115183
143	0x3d1fa781	0.038978104
144	0x3a58cb69	0.00082700566
145	0xbc4299b3	-0.011877465
146	0x3b88f458	0.0041795187
147	0xb94c674b	-0.00019493436
148	0xb9a6cd18	-0.00031814794
149	0xbb295e01	-0.0025843384
150	0x3cebb0b1	0.028770776
151	0x3af7d344	0.0018907567
152	0x3ad959df	0.001658257
153	0x3a3c0e7c	0.0007173789
154	0xb8852b46	-6.3499945e-05
155	0xb99c87e7	-0.00029855894
156	0xbacbba10	-0.0015543122
157	0x3bd42795	0.006474445
158	0xbb26ab3b	-0.002543165
159	0x3b936db7	0.004499163
160	0x3bb46246	0.005504879
161	0x3a8a113c	0.0010533701
162	0x3b27e913	0.00256211
163	0xba32c3fc	-0.0006819365
164	0x3a7e9c5b	0.000971263
165	0xbb85136f	-0.0040611546
166	0x3ad87e25	0.0016517086
167	0x3b6fea43	0.0036608137
168	0x3b6abd8c	0.0035818545
169	0xba3d2116	-0.0007214708
170	0xbc180334	-0.009278107
171	0xbb377040	-0.002799049
172	0x3a0edc5e	0.00054497074
173	0xbc4f1aad	-0.012640637
174	0xbb3e1416	-0.0029003671
175	0x3bd5a304	0.006519677
176	0xba2639d8	-0.0006341017
177	0xba67c906	-0.00088419055
178	0xba42b708	-0.00074277865
179	0x3afe4d94	0.0019401782
180	0xbb48f0ba	-0.0030661062
181	0x3aa00357	0.0012208027
182	0x3a4bcb04	0.0007774087
183	0xb9ea6ed9	-0.00044714546
184	0xb8d5d94a	-0.00010197105
185	0x386da938	5.66628e-05
186	0x3a0d1e53	0.0005383242
187	0xbb1eb6d7	-0.0024217868
188	0x3b53c5b5	0.0032313887
189	0x3c207cee	0.009795411
190	0xbab29871	-0.0013625753
191	0xbc889990	-0.016674787
192	0xbbc41785	-0.005984249
193	0x3abf564e	0.0014597864
194	0x3b673cd8	0.0035284068
195	0x392dd60b	0.00016578303
196	0xba21f46d	-0.0006178085
197	0xbb11c82e	-0.002224456
198	0xbb1eb19f	-0.0024214757
199	0x3b0ac3e1	0.0021173882
200	0x3af4bcee	0.0018672028
201	0xbb053b68	-0.0020329598
202	0xbc29debf	-0.010368048
203	0x3be571c7	0.0070020887
204	0xba9a8ec1	-0.0011791812
205	0x3adc0113	0.0016784988
206	0xbb6e7cca	-0.0036390298
207	0x3bb47fd9	0.0055084047
208	0x399857c3	0.00029057087
209	0xb8e24d21	-0.00010790886
210	0xba685014	-0.000886203
211	0xba25605a	-0.0006308608
212	0x3950b092	0.00019902203
213	0xbb2090cb	-0.0024500366
214	0x3ae4fe8b	0.0017470879
215	0xb92a4224	-0.00016237103
216	0x3b57b0b5	0.0032911722
217	0x3c00b9e4	0.00785682
218	0xbabf0ba0	-0.0014575608
219	0xbb8c7521	-0.004286424
220	0xb8670369	-5.5077868e-05
221	0x3bb466ef	0.0055054347
222	0x3b154fe4	0.0022783214
223	0xbc09e4b7	-0.008416346
224	0xbb8c5830	-0.0042829737
225	0x3b495bfe	0.0030724998
226	0x3a471423	0.0007594248
227	0x390d5245	0.00013477456
228	0xbb1acf61	-0.0023622143
229	0x3a1d7ce5	0.00060076854
230	0xbab9084e	-0.0014116855
231	0x3ad3707c	0.0016131545
232	0x3bdc5f5f	0.0067252363
233	0x3b216d81	0.002463192
234	0xbc9c0215	-0.019043962
235	0x3c3494dd	0.01102182
236	0xbaa70be9	-0.0012744638
237	0xbc25dd84	-0.010123614
238	0x3c1e8d08	0.009677179
239	0xbbd2009f	-0.0064087654
240	0xbaaab91c	-0.0013025138
241	0xbb4750cc	-0.003041315
242	0xb885e1bc	-6.3839805e-05
243	0xbba2e616	-0.004971276
244	0xbb9348c5	-0.004494759
245	0xbbc890aa	-0.006120761
246	0xb9867f3e	-0.00025653274
247	0x3b135ef8	0.0022487026
248	0x3a62643b	0.00086361513
249	0x3c19b494	0.009381432
250	0xba8c4bc0	-0.0010703728
251	0xbb43b1c8	-0.0029860605
252	0x3b4f31e8	0.003161544
253	0x3b53bbdf	0.0032308025
254	0x3bce3f59	0.0062941727
255	0xbb431302	-0.0029765968

decoder_layer3.bias f4 [32]
0	0x3bad08fd	0.0052806125
1	0x3ac3587b	0.0014903689
2	0x3d5a4ac9	0.053293977
3	0xbab6e55c	-0.0013953852
4	0x3d080063	0.033203494
5	0x3bb8ff70	0.005645685
6	0xba10580c	-0.0005506284
7	0x3b1ec7e2	0.0024228026
8	0xbc976f2a	-0.018485624
9	0x3aeef05b	0.001822959
10	0x3bff42e1	0.007789955
11	0x3c012b48	0.007883854
12	0x3b37f1cf	0.0028067713
13	0x3a6c6e06	0.00090190803
14	0xbba5fffe	-0.005065917
15	0xbc2fd5ac	-0.010732096
16	0x3b15bc0d	0.0022847683
17	0x3b0a17f0	0.0021071397
18	0xbdb951fe	-0.09048842
19	0x3af9db55	0.0019062558
20	0x3b29ae7d	0.0025891357
21	0x3b74aedf	0.0037335677
22	0x39d474a1	0.00040522686
23	0xb9e4dd7a	-0.00043652562
24	0x3b8c04d1	0.004273035
25	0x3aa2e6b8	0.0012428379
26	0xbcd61a4a	-0.026135582
27	0x3bb71fc8	0.0055885054
28	0x3b4bc796	0.0031094304
29	0xbba4c73b	-0.005028633
30	0xbc8f2ded	-0.017477954
31	0x3b95ee6e	0.004575542
