results/vae_models/Housing.pt (torch, 363037 bytes, 75 tensors)

dof f4 [13]
000000 aa 27 c8 3f b7 fd 21 3f 0e bc c6 3f ce 44 8d 3f
       1.5637105 0.63277763 1.552614 1.1036623
000010 13 a0 eb 3f b4 27 db 3f 58 fa ef 3f 21 79 ed 3f
       1.8408226 1.7121491 1.8748274 1.8552591
000020 a1 b8 b2 3f 2f 95 c3 3f da 91 ce 3f b3 e7 6e 3f
       1.3962594 1.5279902 1.613826 0.93322295
000030 6a 35 e5 3f
       1.7906926

encoder_layer1.weight f4 [128, 13]
000000 cf 77 e9 b9 7e 37 07 39 a6 c8 2d ba 51 a1 8b b9
       -0.00044530488 0.00012895276 -0.0006629325 -0.00026632336
000010 8b 23 5d b9 e6 b2 08 b9 75 41 ae ba 53 87 d2 39
       -0.00021089443 -0.00013036616 -0.0013294654 0.00040155146
000020 f1 e9 b0 ba e6 ec 0d ba 4b 75 b3 ba 8d 3e c0 39
       -0.0013497454 -0.0005414024 -0.0013691572 0.00036667698
000030 46 2a b9 b9 40 6e 81 bb de 02 b4 3a 1b 7f 4b ba
       -0.00035317446 -0.0039499104 0.0013733765 -0.00077627756
000040 e0 93 a2 bb 7f 79 2f 3b 59 93 21 bb 13 9d 75 3b
       -0.0049614757 0.0026775298 -0.0024654476 0.0037477657
000050 ae 65 08 3a 6e 8c 7f bc 1b 6d 05 bc 41 fd 9e bb
       0.000520314 -0.015597446 -0.008143689 -0.0048519676
000060 1c af 77 3b d9 8c b0 3a a8 56 1d 3d 81 63 50 bc
       0.0037793582 0.001346971 0.03841272 -0.012719036
000070 93 c7 ab 3c 3b 4a 23 3d be 1e 2f bc 47 7d 86 39
       0.020969188 0.039865714 -0.010688482 0.0002565181
000080 99 53 b9 bc fc 16 a2 bc f6 d0 08 3e b4 9c 99 3d
       -0.02262287 -0.01978635 0.13360962 0.07500592
000090 83 95 8f 3c 61 1d 32 bd b2 60 b7 bb f2 1b a0 39
       0.017527347 -0.04348505 -0.005596244 0.000305384
0000a0 5d 22 45 b9 34 c5 17 bb 1f 3b c9 3a 89 85 01 bb
       -0.00018800185 -0.0023158314 0.0015352702 -0.001976343
0000b0 44 41 97 3a fa ba d3 bb 59 9b a5 3a 3e 1e 24 3b
       0.0011539836 -0.0064614983 0.0012634798 0.002504244
0000c0 35 e0 19 3a e0 2e dc 3a c1 82 9f ba 7f ae f7 ba
       0.0005869896 0.0016798638 -0.0012169705 -0.0018896608
0000d0 ff e1 4f ba 5d fe 76 39 3a e7 fa ba 38 89 e7 b8
       -0.00079300994 0.00023555146 -0.0019142397 -0.00011040497
0000e0 5c 06 62 ba 9e 1b e7 3a df a5 6b bb 27 30 b3 3a
       -0.00086221634 0.0017632132 -0.0035957021 0.0013670967
0000f0 d5 b9 f1 ba 74 7a a6 ba 10 26 fd ba 12 90 08 bb
       -0.0018442223 -0.0012701289 -0.0019313712 -0.0020837826
000100 c6 1e 8a ba 66 10 4d ba d7 29 9c 39 30 48 85 39
       -0.0010537736 -0.0007822573 0.00029785812 0.0002542152
000110 b0 63 9b ba c6 62 5f 3a 6f f1 5b ba 29 3e eb 3a
       -0.0011855271 0.00085214933 -0.00083901634 0.0017947602
000120 55 b1 1a b9 a6 32 5a bb 93 3e d3 ba e4 dd 66 ba
       -0.00014752646 -0.003329435 -0.0016116671 -0.0008806868
000130 b3 61 70 b9 db 32 11 3a d5 14 ac bc 7f 27 f8 3b
       -0.0002292458 0.0005538889 -0.021006027 0.0075730677
000140 3b 1b 6d bc 07 1a a4 bc ab 37 ba 3b f8 ad f7 ba
       -0.014471824 -0.020031942 0.0056829057 -0.0018896451
000150 e4 35 72 3b ea 29 3f 3c 3d 3f 9c bd 60 c6 2b bd
       0.003695839 0.011667708 -0.07629249 -0.041937232
000160 18 6f 30 bc 45 4e c4 3c 42 ab 43 b8 5d f8 5d bb
       -0.010768674 0.023963103 -4.665112e-05 -0.003386996
000170 a7 d8 93 3a 90 6a 53 bb 5a 6a 52 bb b4 1c a5 39
       0.0011279777 -0.003225956 -0.0032106848 0.00031492638
000180 fb c9 1c ba 9a 51 02 bb b8 8d 0b 3b 27 68 46 bc
       -0.0005981025 -0.0019885064 0.0021294188 -0.012109793
000190 e5 9c e6 bb a7 35 04 bb 65 e7 14 3b 70 1e 2d ba
       -0.0070377463 -0.002017358 0.002272093 -0.0006603962
0001a0 ff 24 bb 39 1f 25 02 b9 8b c9 ab b9 7c a1 1c 3a
       0.00035694984 -0.00012411595 -0.00032765823 0.0005974991
0001b0 77 35 0b ba fb d4 da 39 73 e5 4e ba 4f 25 2b 39
       -0.0005310396 0.00041738883 -0.0007892467 0.0001632173
0001c0 5b 51 d6 3a fd 3f 49 3a a5 70 ae 39 17 6b 4c ba
       0.001635115 0.00076770765 0.00033271793 -0.000779794
0001d0 f6 0f c1 b9 be f8 66 ba b5 69 97 39 4a 47 01 ba
       -0.0003682372 -0.0008810869 0.00028879722 -0.00049315824
0001e0 cf af 78 ba 0e ed ca 39 2d 9d 10 ba 43 42 a6 b9
       -0.0009486647 0.00038705062 -0.0005516585 -0.00031711356
0001f0 6c 1c 91 39 6c 12 5b bb c6 d6 e8 ba c9 4c 59 ba
       0.0002767773 -0.0033427728 -0.0017764203 -0.0008289335
000200 bd c6 d2 39 b6 16 13 38 ad 25 0a 3a 3e c8 53 b9
       0.00040202393 3.5068682e-05 0.00052698964 -0.00020197124
000210 d3 f3 08 ba 02 f2 68 3a 0d 9d 56 ba 0f 77 2e 3a
       -0.0005224321 0.00088861596 -0.00081868545 0.00066553144
000220 b6 c7 d2 ba 36 42 96 39 3f 29 1d 3b 02 3b 8f 3a
       -0.0016081247 0.0002865956 0.0023980883 0.001092762
000230 70 b8 21 3a fb ba 72 ba ce bb 1c ba 37 5f 6b bd
       0.0006169146 -0.00092594296 -0.0005978913 -0.05746385
000240 60 7f bd 3c f7 60 8b bd 17 f9 0f bd ed 0c b9 bb
       0.023132026 -0.06805604 -0.03514966 -0.005647293
000250 63 43 25 3d 9e 07 43 bc a5 bd 73 3d eb 3b 3a be
       0.040347468 -0.011903672 0.05950703 -0.1818692
000260 1b 04 d0 bd ed 9f ce bc 4c d7 89 3d 01 88 89 bc
       -0.10157033 -0.025222743 0.06730518 -0.016788485
000270 75 e1 4c bb 98 79 8c 3a ce dd 7f ba b3 a9 6d bb
       -0.0031262313 0.001071739 -0.00097605295 -0.0036264479
000280 71 82 e2 3a b9 a2 fd ba fc 73 ab 3a e3 b6 3c 3a
       0.0017281306 -0.0019350863 0.0013080831 0.0007198883
000290 e1 c9 4a bc af 24 cc bb 5a 22 48 bb 0f ea 59 3b
       -0.012377233 -0.006229959 -0.0030538053 0.0033251082
0002a0 3b 05 33 3a 0a d9 40 bc 23 8e 89 3b 6b c4 cd bb
       0.00068290875 -0.011770496 0.004197852 -0.0062795184
0002b0 f5 31 48 bc 7d 3c 98 3b 7c 2f 23 b9 f6 fc 91 3b
       -0.012218942 0.0046458826 -0.0001556258 0.004455204
0002c0 33 10 b3 3b e5 66 34 bd c5 bf bf bc 29 f4 c5 bb
       0.0054645776 -0.04404344 -0.023406873 -0.006041069
0002d0 3f 47 9f 3b b7 8d 8f 3a 91 f0 a3 39 db 1d e6 b8
       0.004860788 0.0010952268 0.0003126902 -0.00010972816
0002e0 c8 55 b3 b9 0e cd 1f 3a 4e 03 14 ba 0f 12 da 39
       -0.00034205453 0.0006095924 -0.00056462444 0.00041593655
0002f0 66 3c 8d ba cb 28 6c 39 ff 21 b6 3a 01 68 2d 3a
       -0.0010775446 0.0002252191 0.001389563 0.0006614924
000300 66 61 d8 39 45 c8 78 ba 3a f8 ce b9 37 11 b8 ba
       0.00041271298 -0.00094902917 -0.00039476325 -0.0014043216
000310 04 47 f5 39 d1 f4 1c b9 27 32 f0 ba 23 ea 81 3a
       0.00046782952 -0.0001496852 -0.0018325493 0.0009911697
000320 97 ff a6 ba 0f d7 dc 3a 1f 4e c7 38 3c 38 ba bb
       -0.0012740967 0.001684876 9.5036106e-05 -0.005682973
000330 6b 4c 39 bb 1d 37 fe ba ed 57 b7 3a 79 b2 13 3a
       -0.0028274308 -0.0019395087 0.0013987996 0.00056341995
000340 69 ce 86 bb 1e b4 ba 3a 69 67 04 bb f7 92 93 bb
       -0.0041139615 0.0014244353 -0.0020203239 -0.0045036036
000350 35 c7 f8 3a 6f a7 b8 ba 27 1a 35 3a a1 c6 bc 3a
       0.0018980267 -0.0014087985 0.0006908499 0.0014402458
000360 4d 3d 80 bc 0a 19 02 bc 9c 2b a6 bb 0e 9e 80 3b
       -0.01565423 -0.00794054 -0.0050711166 0.0039250916
000370 ef ca 0c 3a 86 ff f4 39 a1 b8 34 b9 72 00 04 ba
       0.00053708156 0.00046729686 -0.00017234917 -0.0005035467
000380 cc 13 63 3a 25 ff 47 ba e7 d3 38 3a 3b ed b5 ba
       0.0008662313 -0.0007629267 0.0007050619 -0.0013879904
000390 4f ab 9d 39 c5 04 0a 3b 69 e3 82 3a d1 30 12 3a
       0.00030073008 0.0021059972 0.0009985986 0.0005576732
0003a0 99 0f b0 ba 20 d8 0c ba 19 da ec b8 86 d6 10 38
       -0.0013432383 -0.00053727813 -0.00011293981 3.4532066e-05
0003b0 43 29 9d b9 89 80 02 b8 12 cf 05 b9 e6 9d a1 37
       -0.00029976116 -3.1114123e-05 -0.00012761008 1.9266223e-05
0003c0 e1 f0 f2 b9 11 a6 2b 39 2a f6 a5 b9 a3 b5 5d b9
       -0.00046337306 0.00016369695 -0.0003165466 -0.00021143867
0003d0 31 20 77 b9 de c4 c5 b9 d3 83 2d b9 51 7e ef bb
       -0.00023567748 -0.00037721446 -0.00016547674 -0.0073087593
0003e0 e2 db 22 3b 75 82 6f bb 26 80 e9 bb fe 66 0e 3b
       0.0024850299 -0.0036546264 -0.007125872 0.0021728869
0003f0 0f cf 81 bb 0b c6 64 ba 58 ff 5a 3b 15 47 d0 bc
       -0.003961451 -0.00087270205 0.0033416357 -0.02542452

encoder_layer1.bias f4 [128]
000000 de 4a 46 3b f0 8e 97 3b 2f ce f6 bc a6 59 de 3b
       0.0030257027 0.004625194 -0.030127613 0.0067855893
000010 19 38 08 3c 17 6b 45 3a 37 5f 02 3d 99 f4 1c 3c
       0.008314156 0.0007530911 0.031829085 0.009579801
000020 7b 43 35 3a cd 0f 28 3b 13 24 93 3a b6 42 f2 3d
       0.00069146574 0.0025644184 0.0011225961 0.1182913
000030 54 3e 94 3b bf a5 a1 3c 97 12 9c 3a 06 15 c4 3a
       0.0045240317 0.019732354 0.0011907396 0.0014959879
000040 4a 42 02 3c 6d 5e ba 3a 2d 88 b4 3a a4 ef 7e 3c
       0.007950375 0.0014218815 0.0013773494 0.015560064
000050 c7 58 db 3a f2 a9 65 3b 3c 33 2d 3e b5 c9 f7 3b
       0.0016734832 0.0035043922 0.16914076 0.007561887
000060 f8 1e 8d 3d ab d4 80 3b 47 b4 34 3d b0 ea 22 3b
       0.068906724 0.003931602 0.04411724 0.0024859123
000070 02 6d 78 3b 52 f7 fc 3d d9 5e 52 3b f0 18 55 3a
       0.003790677 0.1235186 0.003209999 0.0008129021
000080 fe e4 a7 bb 17 1a a2 3c 52 17 b7 3b 9e 2b 51 3b
       -0.0051237335 0.019787831 0.005587497 0.0031916867
000090 34 92 82 3b 60 4d 18 3c 8e 70 e5 3c 57 58 15 be
       0.003984714 0.009295791 0.028007772 -0.1458448
0000a0 04 f2 ab 3b 61 99 39 3e aa 86 48 3d db e8 87 3c
       0.0052473564 0.18124916 0.04895655 0.016590526
0000b0 df dc d0 39 8e eb 0a 3a cd ef 43 bc 70 9b 86 3b
       0.00039837413 0.00052993826 -0.011959028 0.004107885
0000c0 14 ce c7 3d 97 61 41 3d 9e 9a 26 3b 72 9b de 3b
       0.09756103 0.04721221 0.002542175 0.006793433
0000d0 c9 84 5f 3a b0 76 ff 3b a9 5c 6e 3a d8 65 ce bc
       0.00085265614 0.007796131 0.0009092787 -0.025195047
0000e0 4a 0a c9 3a 48 b5 20 3a b7 ae 9d 3b d6 fe 17 3c
       0.0015338149 0.00061305286 0.0048120874 0.009277066
0000f0 d2 1f b6 3b ce 20 ed 3d f3 9e d6 39 a2 3c eb 3b
       0.0055579925 0.115785226 0.00040935687 0.007178859
000100 5a 0c 75 3c 41 91 3a 3b 2e e4 11 3b 1d b1 7e 3a
       0.014956558 0.0028467926 0.002226125 0.0009715723
000110 fe eb 76 3c bd 99 f0 3a 3c 9f 0d 3b 37 6b eb 3c
       0.015070913 0.0018356364 0.0021609804 0.028737647
000120 a0 f5 a1 3b 06 65 a1 3d 3b 10 ab 3b 88 f2 74 3c
       0.004942611 0.07880597 0.0052204407 0.014950402
000130 bf 45 77 3b 1b ee e2 3b b1 12 0d 3b 0a 47 98 3b
       0.003773078 0.006925357 0.0021526034 0.0046471404
000140 9b 62 97 3a 0c 3f 7d 3b f7 a4 17 3c 5a 49 74 3a
       0.0011549772 0.0038642315 0.009255639 0.00093187916
000150 7f a9 0b 3c e7 fc 93 3a 3e 3f 0a 3b a8 ab 6e 3c
       0.008524298 0.0011290581 0.0021094824 0.014567293
000160 5b ed 0a 3b ff 2b 0e 3e 46 3d 7b 3d a9 cb 49 3b
       0.0021198604 0.1388397 0.06133773 0.0030791557
000170 e8 6e 4c 3d 2d 3f 9e 39 5f 75 c9 3c 98 26 14 3d
       0.049910456 0.00030183178 0.0245921 0.03616962
000180 2b 0d b4 3b 4c c9 f9 3c 15 4f 14 3a f5 01 0e 3e
       0.005494734 0.030491494 0.0005657536 0.13867934
000190 01 08 19 3d f8 fe 96 3b 73 db d2 3b c0 a5 b5 3b
       0.03736115 0.0046080314 0.006434852 0.0055434406
0001a0 60 21 0d 3c 25 1c b0 3a 3d fc 0c 3b fc 1b 2c 3c
       0.008613914 0.0013436122 0.002151265 0.010504719
0001b0 f9 d0 41 3e a1 5e 92 3b e4 79 d3 3a 9c d4 0c 3c
       0.18927373 0.004466847 0.0016134349 0.008595612
0001c0 50 20 1a 3d 9e 62 47 3e 4d 91 9d 3b 43 89 e0 3b
       0.03762847 0.19471213 0.004808581 0.0068523004
0001d0 94 91 ec 3c 22 f6 85 3d 52 c3 4d 3b 0a 70 27 3e
       0.02887801 0.06541087 0.0031396938 0.16351333
0001e0 ee 01 24 3b 03 5b 84 3a bc d9 5a 3d f6 fe aa 3a
       0.0025025564 0.0010097924 0.053430304 0.0013045955
0001f0 89 66 f7 bc 1f 1e 10 3b 1e 73 5d 3b 50 7a 78 3d
       -0.03020026 0.002199061 0.003379054 0.06066352

encoder_layer2.weight f4 [64, 128]
000000 fa b4 85 37 ea 7b a7 38 8d 2a 87 bb 8d 0c bb 38
       1.593911e-05 7.986261e-05 -0.0041249455 8.9191926e-05
000010 b6 85 7f 38 36 b9 07 b8 58 71 0d 3b 4e 08 88 39
       6.0921266e-05 -3.2359e-05 0.002158245 0.0002594613
000020 00 56 96 33 29 b3 99 37 d4 2e a4 37 2a 14 23 3c
       7.0005626e-08 1.832245e-05 1.957213e-05 0.009953538
000030 76 55 f6 38 6b c8 74 3a 22 c7 30 37 5a 30 16 37
       0.000117461124 0.0009337726 1.0536782e-05 8.951954e-06
000040 2e 53 3f 39 32 07 a6 36 0e 7a f9 b5 5d d7 49 3a
       0.00018246166 4.948023e-06 -1.8587468e-06 0.0007699633
000050 d6 53 87 b7 74 c6 86 36 93 91 f5 3c c7 03 31 39
       -1.6132293e-05 4.016614e-06 0.029976642 0.00016881443
000060 d1 fb c3 3b c2 5d 4b 38 63 aa 3c 3b aa 4c 53 38
       0.0059809466 4.848629e-05 0.0028788082 5.037772e-05
000070 92 0e 06 38 ee fa 43 3c c8 2b 7e 37 56 cc d0 b7
       3.196166e-05 0.011961682 1.5149773e-05 -2.4890684e-05
000080 a9 78 05 ba ee af 9f 3a bb 45 b2 38 ba 53 18 b7
       -0.0005091527 0.0012183168 8.50069e-05 -9.0794e-06
000090 5a 5a 73 b7 7a 29 4a 39 29 3c f2 3a 34 e3 4c bd
       -1.4504965e-05 0.00019279672 0.0018481064 -0.050021365
0000a0 38 06 86 b7 b3 2c fb 3c 1f 56 61 3b 9f 59 54 3a
       -1.597694e-05 0.030660963 0.0034383608 0.0008100513
0000b0 7f b1 8c 36 6d 0d 1e 39 49 c7 1b bb b1 d9 af 38
       4.1929884e-06 0.00015073056 -0.0023769906 8.3851985e-05
0000c0 b8 c5 03 3c 7f a7 48 3b c4 3c 78 ba a5 ff 66 39
       0.008042745 0.0030617414 -0.0009469504 0.00022029744
0000d0 f0 2f 16 b8 54 1a 13 38 eb 6e f4 37 a5 fe 71 bb
       -3.5807432e-05 3.507205e-05 2.9138717e-05 -0.0036925462
0000e0 12 14 d0 36 c9 86 d6 b6 14 90 5d 37 f4 cb 02 39
       6.2012195e-06 -6.393388e-06 1.3206172e-05 0.00012473745
0000f0 fc fd 54 b7 50 98 2f 3c 55 10 aa b7 8a 82 09 39
       -1.269532e-05 0.0107174665 -2.0273184e-05 0.00013113968
000100 b7 cf 29 3a 2d ed bf 37 39 04 80 37 94 43 0e b7
       0.00064777903 2.2879418e-05 1.5260755e-05 -8.479594e-06
000110 96 86 5e 3a f4 ec b1 b8 09 6a e0 b6 bf 9e 8e 3a
       0.0008488683 -8.484154e-05 -6.6880643e-06 0.001088105
000120 df d2 db 38 f4 e3 c3 3b 12 ee 39 39 af 5d 40 3a
       0.000104820116 0.005978102 0.00017731663 0.00073381787
000130 57 0a 68 36 1d d5 47 39 13 b0 08 b8 08 70 a6 b7
       3.4576713e-06 0.0001905751 -3.258891e-05 -1.984091e-05
000140 be d6 26 b6 f5 9f a8 37 08 f0 3d 39 c4 b4 f0 b6
       -2.4860924e-06 2.0101646e-05 0.00018113863 -7.1736013e-06
000150 fd 91 fe 38 c6 a9 d9 35 12 d9 19 b7 3b 3c 18 3a
       0.00012138856 1.621717e-06 -9.170051e-06 0.0005807315
000160 84 c3 f4 36 06 9a 97 3c be dd 87 3b 68 a7 6d b7
       7.2945277e-06 0.018506061 0.004146307 -1.4165278e-05
000170 0c b1 79 3b f2 9e 02 b6 72 1e a9 3a 1f eb 30 3b
       0.0038099913 -1.9464028e-06 0.001290275 0.0026995612
000180 e2 dd c3 37 38 22 f0 3a 54 99 1a 37 96 9d 6b 3c
       2.3349134e-05 0.0018320745 9.214815e-06 0.014380833
000190 00 bf 48 3b a9 42 86 38 6c d3 0f 38 e5 c2 77 38
       0.0030631423 6.402034e-05 3.429076e-05 5.90709e-05
0001a0 ce 54 8c 39 9a a7 66 b9 b4 1f f5 37 b7 16 d3 39
       0.00026766065 -0.00021996946 2.9221039e-05 0.0004026198
0001b0 99 c7 44 3d f4 98 6e 38 5f 4b 8e 37 36 42 51 39
       0.048041914 5.688607e-05 1.6962817e-05 0.00019956459
0001c0 0d 9d 24 3b 0f f8 1e 3d 80 cc 15 38 26 83 fc 38
       0.0025118024 0.038810786 3.5714824e-05 0.00012040725
0001d0 b3 52 f9 3a db f1 c4 3b d7 ba 8e b6 d8 97 fc 3c
       0.0019021839 0.0060102767 -4.253681e-06 0.030834123
0001e0 cc 0b 3d 37 24 eb 95 b7 c1 5e 87 3b f9 24 86 37
       1.12680245e-05 -1.787168e-05 0.0041311686 1.5991262e-05
0001f0 ab bb 85 bb 6e bd 88 38 80 34 cd 37 96 8f 8e 3b
       -0.0040812097 6.5202694e-05 2.4462352e-05 0.004350613
000200 dd 9b ef b6 cf 76 3c 38 4b f3 0f ba 2c fb 44 b8
       -7.1409e-06 4.4933342e-05 -0.00054912706 -4.6963964e-05
000210 c7 1f 01 b8 1b 16 2a 37 83 65 52 39 e6 8a 87 b7
       -3.078559e-05 1.0137936e-05 0.00020064977 -1.6157934e-05
000220 db 80 4a b7 bd 9e 03 36 47 69 8b b7 00 5f 13 3a
       -1.207014e-05 1.961292e-06 -1.6619115e-05 0.0005621761
000230 c0 a2 c2 37 8f b5 e8 38 6a ec c7 b6 6e 74 46 38
       2.3202389e-05 0.0001109644 -5.9581844e-06 4.7315312e-05
000240 e2 6e bb 37 0e 21 74 b7 7c c4 a4 b6 bb de a7 38
       2.2343771e-05 -1.45512295e-05 -4.9104547e-06 8.004667e-05
000250 21 20 6e 37 91 69 f2 36 78 11 e5 3a cf 6b b9 38
       1.4193386e-05 7.2244516e-06 0.001747652 8.841568e-05
000260 0e c0 bd 39 f5 19 93 b7 88 82 2e 39 d8 34 4b 35
       0.0003619198 -1.7535853e-05 0.0001664256 7.570029e-07
000270 e4 82 c8 b7 eb f2 3c 3a 11 bc 09 37 98 0b 01 b7
       -2.3902809e-05 0.00072078285 8.209624e-06 -7.691699e-06
000280 68 24 1d b9 ec ae dc 39 4b ec 0a b7 51 75 b7 b5
       -0.00014986249 0.00042091997 -8.280457e-06 -1.3668706e-06
000290 10 86 39 37 fb 08 64 b7 b3 05 2f 39 d7 56 a0 bb
       1.1058073e-05 -1.359195e-05 0.00016691424 -0.0048931646
0002a0 57 c4 14 b7 39 1c bb 3a 94 ec 60 39 cc e0 12 ba
       -8.867201e-06 0.0014275379 0.00021450437 -0.00056029554
0002b0 9a fa f6 b5 8f bc 8c ba 9e 02 b7 b9 e2 3f 09 38
       -1.8401363e-06 -0.0010737347 -0.0003490643 3.272284e-05
0002c0 af 9f fc 39 c6 8c aa 39 11 1e 0f b9 2c d4 e5 37
       0.0004818416 0.0003252981 -0.00013648743 2.7397728e-05
0002d0 9e 40 96 37 18 5f 60 b8 91 ad b9 b7 b0 d7 de b9
       1.7911483e-05 -5.3494325e-05 -2.2134542e-05 -0.0004250384
0002e0 13 a2 b8 36 74 e1 38 36 3a 18 b6 b7 4b 9a bb 37
       5.5024952e-06 2.7549368e-06 -2.1707372e-05 2.2363985e-05
0002f0 69 84 19 b8 e1 6c 21 3a 83 e7 8f 36 c6 1c 28 b7
       -3.660136e-05 0.0006157887 4.2886836e-06 -1.002028e-05
000300 c2 89 6a 38 94 4f 4d b7 ab 33 31 b7 e4 9b a7 35
       5.5918244e-05 -1.223748e-05 -1.0562052e-05 1.248784e-06
000310 f0 83 89 39 51 d7 e3 b9 fe 19 77 37 2a 55 2f 38
       0.00026228977 -0.00043457237 1.4728399e-05 4.1802567e-05
000320 e7 60 3d 37 49 26 ac 39 8c c5 2e b8 5d 61 a2 38
       1.128784e-05 0.0003283492 -4.1668813e-05 7.742897e-05
000330 ff f0 a0 b6 08 3d 56 38 69 c7 e5 b7 aa 5b 22 b8
       -4.796427e-06 5.1078416e-05 -2.7391785e-05 -3.870918e-05
000340 dd 33 b1 b6 2c ff 7b b7 ce 1e 0e 38 28 ae 2c 36
       -5.2810487e-06 -1.5020178e-05 3.3884127e-05 2.573137e-06
000350 40 0d bf 36 b2 c2 87 b7 54 b1 ac b7 92 23 23 b9
       5.693786e-06 -1.6183916e-05 -2.0586573e-05 -0.00015558142
000360 82 8b 9c b7 0d b5 75 3a cd 30 d2 b9 be f9 51 b5
       -1.8661613e-05 0.0009372987 -0.0004009068 -7.822199e-07
000370 af d3 91 39 98 7b 06 37 21 e2 1f 39 e9 15 93 39
       0.00027814272 8.015799e-06 0.00015247661 0.0002805435
000380 a8 1a 1e b8 64 27 53 39 bf 56 8e b7 96 01 8a 3a
       -3.769496e-05 0.00020137202 -1.6968113e-05 0.0010529037
000390 08 2f ae 39 13 47 08 38 c3 4c cc 37 d1 dd 59 b7
       0.00033222907 3.249112e-05 2.435444e-05 -1.2985854e-05
0003a0 37 68 93 38 66 e1 e1 b8 2b d5 1b b7 cb 22 8e 38
       7.028918e-05 -0.0001077082 -9.288352e-06 6.777568e-05
0003b0 34 35 51 3b d9 c6 23 b8 f0 c6 73 b7 53 88 78 38
       0.003192258 -3.904742e-05 -1.4530247e-05 5.925477e-05
0003c0 c8 4f 7a 39 f6 9c 11 3b 0b 38 57 37 fc 92 6f 37
       0.00023871579 0.00222188 1.2828047e-05 1.4279733e-05
0003d0 cc a3 7b 39 7d c7 0a 3a 0c f5 53 b6 3f 81 e5 3a
       0.00023998244 0.00052940083 -3.1584086e-06 0.0017509832
0003e0 91 c1 87 b7 0f 4d 03 37 c2 a2 c0 39 72 3b 0e b8
       -1.618339e-05 7.82615e-06 0.00036742358 -3.39108e-05
0003f0 b2 8d 18 ba 27 84 1b b6 ac 1a 29 b7 2f 6c 32 39
       -0.0005819454 -2.3173723e-06 -1.0079395e-05 0.00017015704

encoder_layer2.bias f4 [64]
000000 7c f6 bd 3a d3 24 9f b9 29 1f 90 38 11 d9 7d 3a
       0.0014493014 -0.0003035428 6.872259e-05 0.00096835295
000010 45 01 1c bd 27 fb 47 ba e2 90 f8 39 cd 42 2e 3a
       -0.03808715 -0.0007628672 0.00047410192 0.00066475273
000020 1b 8d 38 3e 9e 7d d6 3c 7b 1d a6 b8 aa da 92 be
       0.18022577 0.026182946 -7.920988e-05 -0.28682452
000030 0b 90 60 39 91 25 b6 3c 26 78 01 ba ce a0 5e b9
       0.00021415965 0.02223471 -0.0004938863 -0.00021231474
000040 18 2b 38 39 b5 67 f3 39 cc 0b c0 36 9f 6e 99 ba
       0.00017563661 0.0004642584 5.7234192e-06 -0.0011705941
000050 3f f8 e5 b9 ed 91 19 b9 b0 5a a3 3c 82 b0 f1 b9
       -0.0004386324 -0.00014645579 0.019940704 -0.0004609861
000060 d6 45 3d 3b 16 d6 94 3a 44 d2 0a 3a fd 1d a0 3d
       0.0028880737 0.0011355306 0.0005295614 0.0781822
000070 40 d2 78 3d 7f dd 3a 3a 75 3d 4d bb 59 d8 0e bd
       0.060747385 0.00071283424 -0.0031317149 -0.034874294
000080 09 67 6e 3a e2 8b ee ba ce 40 a4 bb 81 c3 2e 3a
       0.0009094333 -0.0018199647 -0.005012608 0.00066667056
000090 09 26 db 3b 87 2d 04 3e 30 79 c3 3a c7 f2 81 ba
       0.0066878838 0.12907992 0.0014913436 -0.0009914272
0000a0 72 74 57 39 6e 55 a1 b9 d9 02 88 b8 01 9e 8c b7
       0.00020547377 -0.00030771963 -6.485516e-05 -1.6762877e-05
0000b0 b4 7b 61 39 d6 00 89 3a 6d eb 5b bb 0c 0d 26 3a
       0.00021503755 0.001045252 -0.0033557073 0.00063343416
0000c0 4e 71 c2 39 6a 5e 8e 38 8a 23 63 39 6b b7 4c 3c
       0.00037086982 6.7886736e-05 0.00021661646 0.012494902
0000d0 91 aa 84 b9 f7 62 dd ba be 06 b3 bb a3 fc c6 3a
       -0.00025304084 -0.0016890456 -0.00546345 0.0015181493
0000e0 50 0e d6 b9 d6 ae 14 bc 50 a6 5f b9 a6 c3 2e 38
       -0.00040827924 -0.009074887 -0.00021328893 4.1667045e-05
0000f0 6b d1 35 ba b8 c7 e9 ba e9 97 c8 3a e6 f5 49 b9
       -0.0006935808 -0.001783601 0.0015304062 -0.00019260458

encoder_layer3.weight f4 [32, 64]
000000 85 0c 40 3a a7 54 06 38 9e 57 ce b8 19 f7 fb b8
       0.00073260843 3.202693e-05 -9.8391654e-05 -0.00012014638
000010 e5 e5 5a 37 2c 8d ef 39 a0 b9 8f b6 3e 83 8e b8
       1.3047339e-05 0.00045690814 -4.2833417e-06 -6.7955334e-05
000020 f7 d0 7d 3b 1f 0f ed ba f5 03 7b 38 9a dc 48 3b
       0.003872929 -0.0018086171 5.984675e-05 0.0030649067
000030 c5 5b 25 b8 c5 9f 00 3a 3d 7e de b8 0d 0c f0 37
       -3.9424533e-05 0.000490662 -0.000106092986 2.8615841e-05
000040 89 6e ac b8 94 9c d7 b9 a1 6a 45 b7 b7 62 5d 39
       -8.222188e-05 -0.00041124655 -1.17669415e-05 0.00021112977
000050 69 81 65 38 f9 c9 86 37 d1 78 82 ba 61 3c b5 b7
       5.4718377e-05 1.6068096e-05 -0.0009954219 -2.1604998e-05
000060 5e dd 1d b9 24 7f 70 b7 82 dd b4 b8 33 c1 0a ba
       -0.00015055152 -1.4334717e-05 -8.624328e-05 -0.0005293071
000070 24 4f c7 3a 69 69 17 b9 1c 31 94 37 ac 9a e6 b7
       0.0015206081 -0.0001443975 1.7665843e-05 -2.7490161e-05
000080 01 76 4c b8 48 0d fa 36 d5 bd cf 39 af 30 03 b8
       -4.874729e-05 7.4521267e-06 0.00039623553 -3.1278174e-05
000090 58 da 94 3a 8f 7b 15 bb 28 8f 01 ba 1b a3 16 38
       0.0011356575 -0.0022809242 -0.00049422914 3.591469e-05
0000a0 e4 1e 30 38 86 58 a1 38 81 29 c1 36 c9 82 74 38
       4.199044e-05 7.693567e-05 5.75668e-06 5.8295936e-05
0000b0 d7 b2 42 b8 83 70 e4 34 23 75 6a 38 d2 84 26 b9
       -4.6419762e-05 4.2550172e-07 5.589904e-05 -0.00015880473
0000c0 7a c6 9f 36 e9 0b 22 39 8b fc 32 37 5e 6a a1 39
       4.761675e-06 0.00015453961 1.06684265e-05 0.00030787563
0000d0 ad c7 5a 37 5a 26 f5 b8 da b9 3b 38 85 22 d0 b8
       1.3040303e-05 -0.00011689654 4.4757362e-05 -9.924643e-05
0000e0 af 67 51 b8 87 35 de b9 61 36 74 b8 82 7f 26 38
       -4.9926046e-05 -0.0004238302 -5.8224778e-05 3.9696235e-05
0000f0 53 c3 e4 37 38 56 82 39 7b 69 b5 37 9a 9b c4 36
       2.7270673e-05 0.0002485977 2.1626e-05 5.8593696e-06
000100 9f ce 16 bd 8e ce ac bb b8 7c 82 3c ab 8b 20 3b
       -0.036818143 -0.0052736467 0.015928611 0.002449731
000110 dd ca d7 3d cf 30 cd bb c0 19 28 3a e1 1f a1 3b
       0.1053674 -0.006261922 0.00064125285 0.0049171303
000120 83 28 75 be 47 c6 28 bd e4 78 40 bc 13 57 75 3e
       -0.23941235 -0.041204717 -0.011747573 0.23958997
000130 b4 eb 7b 3b 0d 7f 82 bd 06 67 3b bc ce 60 37 ba
       0.003844005 -0.06371889 -0.011438137 -0.0006995321
000140 3d 0c 4c 3c 7e f7 ac 3b 5e 05 98 bb 64 71 49 ba
       0.01245409 0.005278527 -0.0046393117 -0.0007684438
000150 2e 5f 4d bb c6 87 81 bb 12 bf ae bd aa f3 b3 3b
       -0.003133725 -0.003952953 -0.085325375 0.0054916935
000160 96 39 eb 3b 81 44 e3 3b f7 31 5b 3c 3d eb 39 be
       0.0071784956 0.0069356565 0.013378612 -0.18156143
000170 17 f6 e5 bd 9e 64 8c bb 2d c4 2e 3c b6 0b c3 3d
       -0.112285785 -0.0042844554 0.010666889 0.09523718
000180 15 e0 aa 3b 80 51 6d 3a f7 27 0f ba 0e 46 c8 bb
       0.005214701 0.0009052977 -0.00054609723 -0.006111867
000190 93 e1 80 bd f7 cc 2c be bc b4 d7 39 81 fc 2b bc
       -0.06293025 -0.16875063 0.00041142653 -0.010497213
0001a0 bb fe 44 bb 1a 7e 71 39 4a 87 c4 ba d0 93 90 3b
       -0.0030059058 0.00023030528 -0.0014993933 0.004412152
0001b0 11 29 c6 3b 73 0e 19 3c 7b a9 1f bc 4e 8b 0d 3d
       0.006047376 0.009341824 -0.009744997 0.03455668
0001c0 93 c0 8c 3a a9 2a 0b bc d4 95 49 bb 70 bc 7f bd
       0.0010738544 -0.008494058 -0.003075947 -0.062435567
0001d0 1b 2d 90 3c 3f ad af 3a 2c 4b 3b 3d 99 0d 3f ba
       0.017599633 0.0013403072 0.045725986 -0.0007288098
0001e0 24 ef be 3b 4e f4 19 3d 9f d7 0e 3c b9 06 65 bc
       0.0058268476 0.037586503 0.0087184 -0.013978654
0001f0 22 fd 59 3b 84 87 13 3b 05 d2 e5 bb e7 2f 02 bb
       0.0033262451 0.0022511194 -0.0070135617 -0.0019864978
000200 dd 63 7d ba f1 f4 dd b8 9c 1d ad 39 30 15 e9 38
       -0.0009666065 -0.00010583725 0.00033019192 0.00011114252
000210 92 af 6a b8 e7 39 83 b8 cb fe 18 36 57 2d c3 38
       -5.595346e-05 -6.257352e-05 2.2798074e-06 9.30677e-05
000220 56 31 59 bb 9d 3c fd ba 59 35 76 b9 3e 2f 40 bc
       -0.0033140979 -0.0019320432 -0.00023480262 -0.011730013
000230 56 11 b2 37 50 85 bc ba 20 51 fc 38 39 4d 4e 38
       2.1227326e-05 -0.0014382992 0.00012031407 4.9186146e-05
000240 33 87 68 39 0d bc 9b 38 e8 d5 98 b8 aa 13 f8 b6
       0.0002217561 7.426003e-05 -7.287768e-05 -7.393265e-06
000250 16 02 2c b8 55 16 9a b8 ba 4d 41 ba 09 a9 d4 38
       -4.100994e-05 -7.347452e-05 -0.0007373948 0.00010140433
000260 54 98 26 3a 6c c6 80 38 a2 01 08 39 2c 21 c9 ba
       0.0006355096 6.1404746e-05 0.00012970579 -0.0015344969
000270 df 2e 69 bb 61 ac af b8 2b eb 39 b9 68 a0 b4 b8
       -0.0035580916 -8.376758e-05 -0.00017730582 -8.612947e-05
000280 b3 e7 c3 38 29 34 4d 38 d9 88 6a 38 9c 8e a0 b8
       9.341482e-05 4.8924387e-05 5.5917397e-05 -7.6559576e-05
000290 63 ca 95 ba 27 25 81 bb 01 ec 23 b9 06 b9 02 b9
       -0.0011428114 -0.0039411965 -0.0001563281 -0.00012466693
0002a0 13 d8 aa b8 bf 40 47 36 6b 64 26 b8 56 5a ea 38
       -8.146479e-05 2.9690998e-06 -3.9671006e-05 0.00011174816
0002b0 43 20 df 38 b5 bc 05 39 8a 0a 40 b9 d7 b8 df 39
       0.00010639478 0.00012754167 -0.00018314473 0.0004267159
0002c0 b5 68 b4 37 cc cd 51 b9 80 c4 50 b8 21 2b 85 ba
       2.150643e-05 -0.00020008459 -4.977407e-05 -0.0010159948
0002d0 5e 59 c8 b8 ca 1e e7 37 75 28 36 3a e8 61 06 b9
       -9.553389e-05 2.7551683e-05 0.00069487776 -0.00012815709
0002e0 43 60 f6 38 2f f3 38 3a e9 a6 3e 39 2e f1 2c b9
       0.00011748124 0.000705528 0.00018181991 -0.00016493045
0002f0 7c b4 00 b8 3c 28 06 38 a8 0e 8d b8 4f c9 d4 b7
       -3.0685667e-05 3.198556e-05 -6.726134e-05 -2.5366111e-05
000300 e0 45 71 3b bd c1 48 ba e7 2c 4f 3c f3 a0 ed 3a
       0.003681533 -0.0007658264 0.012644983 0.0018129632
000310 2a 1c 5b bd 77 9d 8b bb 5f 1a ce ba 8f aa a6 ba
       -0.053493656 -0.0042607146 -0.0015724412 -0.0012715625
000320 3c c2 1b 3d f7 70 ab bc 86 51 98 3b 15 8f 1c 3d
       0.038027033 -0.02092789 0.00464839 0.03822239
000330 63 d8 c2 ba b9 47 22 3d 3a 2e 7a 3b 8b 4b 82 3b
       -0.0014865514 0.03961918 0.0038174526 0.0039762906
000340 11 3b a9 bb c5 a5 95 bc ac 5c 72 3c 1a de 8d b8
       -0.005164512 -0.018267522 0.0147926025 -6.7647736e-05
000350 42 03 a6 3a fb 03 28 3a b5 44 47 bb 24 f9 91 ba
       0.0012665766 0.00064092845 -0.0030405943 -0.0011136872
000360 a1 da a7 bc 3c 03 13 ba aa 55 ee ba 70 01 05 be
       -0.020489993 -0.0005608087 -0.0018183489 -0.1298883
000370 90 84 ef 3c 50 20 9a 3b 0e 12 27 bc 3f 51 89 bc
       0.029238015 0.004703559 -0.010197176 -0.016762374
000380 4a 6c 6e 3a 41 5f d2 3b 77 bf bc 3c 8d df 44 3c
       0.0009095116 0.0064200466 0.023040516 0.012016189
000390 81 43 1a 3c dc 9a 41 bd f4 4d 1e bb 29 22 9f 3a
       0.009415508 -0.047266826 -0.002415535 0.0012140918
0003a0 7c f1 32 bb 55 af 73 bb 1c 5b 2f ba ee cd bd bb
       -0.002730458 -0.0037183363 -0.00066892966 -0.005792371
0003b0 81 9d c0 ba 07 fe 92 bb ab ea 57 bb 58 2c 28 bb
       -0.0014695377 -0.004485849 -0.003294627 -0.0025661197
0003c0 32 8e 0e bb 7d 34 b8 3b d8 71 dd 39 bb ab 11 3c
       -0.0021752235 0.0056214915 0.00042237225 0.008891041
0003d0 b5 5d 2d 3c 00 c2 b4 bb f9 56 e7 bc 66 ed da bc
       0.0105814235 -0.0055162907 -0.028239714 -0.026724529
0003e0 68 92 8f bb 38 0b 75 3d 59 7b bd ba 94 19 32 3b
       -0.0043814667 0.059825152 -0.0014456316 0.002717589
0003f0 8f 62 a6 bb cc a8 2c 3b 01 dd ff 36 6d 00 5b 3a
       -0.005077667 0.0026345728 7.6253204e-06 0.00083542505

encoder_layer3.bias f4 [32]
000000 bd db 75 39 88 15 29 be 3c 86 75 b8 d4 e2 06 3d
       0.0002344688 -0.1651212 -5.8537567e-05 0.032931164
000010 99 f9 74 3d 41 3a 1b 3b fd 78 94 3c 8c 77 81 3c
       0.059808347 0.0023685845 0.018124098 0.015804075
000020 5e 2e f5 3c ae 4e bb b8 e3 2b 2d 3d 49 55 57 bc
       0.029929336 -8.93151e-05 0.04227818 -0.013142892
000030 6b dc 41 38 fd 5b 23 bc 78 99 c7 39 9c 76 08 3f
       4.6220066e-05 -0.009970662 0.0003807058 0.53305984
000040 a5 f8 35 bd 64 7e 9e 3b f9 10 8b bc 70 d8 b9 3b
       -0.04442658 0.0048368443 -0.016975867 0.0056715533
000050 39 2d 0c 3e e7 b5 ea 39 06 86 a6 3b 12 df 8e 3c
       0.13689126 0.00044767486 0.005081895 0.017440353
000060 48 1a af 39 24 00 f0 3b 3f 51 00 bc 0e c2 2d 3d
       0.00033398182 0.0073242355 -0.007831871 0.042421393
000070 96 97 70 3a 3d c7 d5 3a 3b ac 25 3d 32 fa 6c 3e
       0.00091778615 0.0016309988 0.040447455 0.23142317

encoder_layer_mu.weight f4 [2, 32]
000000 65 72 84 39 44 10 1c 3e f8 e7 66 39 4f cb 55 3b
       0.00025262233 0.1524058 0.00022020924 0.0032622402
000010 39 74 18 3b 64 9a 3a bc 97 36 24 bb c4 06 63 3b
       0.0023262633 -0.011389349 -0.0025056952 0.0034641484
000020 0f 1b 35 be c2 82 4a 39 13 d5 a2 3b 99 f0 15 bb
       -0.17686103 0.00019312932 0.004969248 -0.0022879003
000030 da d9 44 36 d0 7f 1a 3d f3 82 08 39 c2 ee 9e bb
       2.9333082e-06 0.037719548 0.00013018753 -0.0048502395
000040 eb 68 af 3d d6 8c a8 3b 08 e3 78 3c 5e dd 23 bb
       0.085649334 0.005143742 0.015190847 -0.0025003771
000050 b3 8a 91 bc 7e 24 3d 39 94 26 aa 3a 40 2d f3 3a
       -0.017766332 0.00018038039 0.0012981468 0.0018552914
000060 2f 49 df 38 5b 91 24 3c df 6a 06 3b 09 db f4 3b
       0.000106471 0.010044421 0.0020510477 0.0074724
000070 65 41 51 b9 74 72 9e 3a 0c 07 4f ba 01 16 d0 3a
       -0.00019956155 0.0012088553 -0.00078974734 0.0015875698
000080 c6 46 51 b9 87 4a dc 3d bd 1e 99 3a 94 af 8a bb
       -0.00019958158 0.107564025 0.0011682134 -0.0042323563
000090 7a 5e c9 bb 13 a2 d3 3b 08 dc 83 3a ad af 52 bc
       -0.0061452957 0.0064585297 0.0010060081 -0.012859267
0000a0 22 05 4e be f6 68 42 3a 9e 36 0b bc 48 0e 60 ba
       -0.20119146 0.0007416153 -0.0084969085 -0.000854705
0000b0 b7 09 5a b9 a9 52 ac 3b f5 5f 22 3a 2a ae b8 bc
       -0.00020793719 0.0052588773 0.0006194108 -0.022543985
0000c0 4f 9d d1 ba c0 a2 29 bb fb c3 df bb 33 6c f3 3a
       -0.0015992316 -0.002588436 -0.0068287826 0.0018571675
0000d0 b5 d0 78 bc f3 58 f4 b8 a5 90 08 ba 36 24 2a ba
       -0.015186478 -0.00011651395 -0.0005209542 -0.0006490381
0000e0 0b 27 11 3a 47 1a da bb 9e fa fa 39 5f 13 0d bc
       0.0005537129 -0.0066559645 0.0004787044 -0.008610575
0000f0 e4 0f 01 3a 74 81 26 ba 7d b9 29 bb 7b ab 1b bc
       0.00049233274 -0.00063516875 -0.0025897913 -0.009501333

encoder_layer_mu.bias f4 [2]
000000 68 ab 0b 3d 39 ae 49 bb
       0.034099013 -0.003077401

encoder_layer_sigma_square.weight f4 [2, 32]
000000 43 77 bd 3a 9f d6 0d 3f 78 de ba bb 92 e3 0e 3d
       0.0014455098 0.5540561 -0.00570279 0.034884997
000010 79 62 08 3e 41 ae 79 3e 21 50 7b 3c 7a c3 c5 3e
       0.13318814 0.24382879 0.015338928 0.386257
000020 56 ec 26 3f 89 62 0c bb 91 19 64 3d 94 75 ad be
       0.6520437 -0.0021421036 0.055688445 -0.33878767
000030 8e c8 37 39 a3 7f 54 3e a6 2a 4e ba b4 57 bb bf
       0.00017526952 0.20751815 -0.00078646315 -1.463614
000040 ef 86 bb 3e 67 b3 1f 3c f6 f9 e9 ba e2 82 4f 3a
       0.36626384 0.009747363 -0.0017850983 0.00079159264
000050 a5 71 20 bf 6c fe 8d 3a 7b 57 57 3c a1 6a 9d 3d
       -0.6267341 0.001083327 0.013143416 0.076863535
000060 b4 28 18 ba d0 2f 80 3c 66 28 16 3b 4b a6 b8 3d
       -0.0005804405 0.015647799 0.0022912263 0.09016093
000070 86 c2 3b b9 ad ab 89 3b fa c4 87 3d e9 f4 64 bf
       -0.00017906175 0.0042013736 0.06629367 -0.89436203
000080 97 bc 7c 3a 12 a9 01 3f 29 31 18 3b e6 db e0 3c
       0.0009641139 0.50648606 0.002322266 0.027448606
000090 c7 2a f5 3d 5a 3a 63 3e 67 73 83 3c 63 30 b3 3e
       0.1197105 0.22190228 0.016046239 0.34997854
0000a0 6a 24 17 3f 27 7d a0 39 3e 72 3b 3d 47 1e a5 be
       0.5903994 0.00030610824 0.045763247 -0.32249662
0000b0 e9 05 9f 38 cd 64 46 3e 4c f1 3b b8 b9 d4 b8 bf
       7.582812e-05 0.1937439 -4.4809e-05 -1.4439918
0000c0 56 a4 aa 3e 54 09 b0 3b 5a 79 0a bc 80 13 1f 3b
       0.33328503 0.0053722057 -0.008451784 0.0024273098
0000d0 2e d6 1a bf 72 5b 56 3a 40 36 2f 3c 97 97 90 3d
       -0.6048306 0.00081770786 0.010694087 0.070601635
0000e0 65 2f 5f b9 b1 fb 18 3c 1d 28 17 3b 2c 41 9b 3d
       -0.00021284593 0.009337352 0.002306468 0.0758079
0000f0 94 5f 91 39 4a f1 2a 3b 6b 78 7b 3d f9 53 5e bf
       0.00027727766 0.002608376 0.061394136 -0.8684688

encoder_layer_sigma_square.bias f4 [2]
000000 f9 cd 4f bf 16 70 51 bf
       -0.81173664 -0.81811655

decoder_layer1.weight f4 [32, 2]
000000 0c ff 12 36 c0 f8 70 b5 ed f2 85 38 0d 5c 50 39
       2.1904152e-06 -8.9768946e-07 6.387183e-05 0.00019870717
000010 90 5e ba b6 de 91 83 b8 db 4e ea 3d 08 a2 b8 3e
       -5.5542405e-06 -6.273737e-05 0.11440822 0.3606112
000020 a6 a4 21 b5 a1 83 d1 b4 44 f4 20 38 eb ae d2 39
       -6.021677e-07 -3.9025056e-07 3.8374463e-05 0.00040184645
000030 81 a4 27 b9 80 5d d9 b9 08 ea 16 32 90 b2 44 b2
       -0.00015987644 -0.00041459128 8.784362e-09 -1.1449302e-08
000040 80 42 df 34 ff 0d 0c 37 d9 3a 14 38 04 f7 8c 38
       4.1585372e-07 8.347909e-06 3.5340756e-05 6.7217305e-05
000050 c2 ff 36 b6 e2 75 c1 b7 dd b5 c1 b7 cd c0 98 37
       -2.7268984e-06 -2.3062286e-05 -2.309208e-05 1.8209592e-05
000060 27 57 57 b7 88 86 64 36 ac 89 d7 be d4 b8 06 c0
       -1.283529e-05 3.4052955e-06 -0.42097223 -2.105031
000070 66 fe 64 b8 d6 85 80 b8 54 44 42 b6 64 84 63 b7
       -5.4596363e-05 -6.1284445e-05 -2.8948025e-06 -1.3561079e-05
000080 53 e1 d1 bf db 44 a9 3f db 2d 89 33 8b 0f ca 32
       -1.6396888 1.3224138 6.387901e-08 2.3522963e-08
000090 43 15 0f b7 69 33 72 b7 ed fa 81 b6 96 61 0f b8
       -8.528415e-06 -1.4436294e-05 -3.873711e-06 -3.418474e-05
0000a0 75 f6 c3 b8 95 1a 0b b9 6c 9c bc 38 a5 42 33 37
       -9.344231e-05 -0.00013265976 8.9936744e-05 1.0684748e-05
0000b0 c1 93 6f 35 b9 80 5d 37 00 60 92 34 8e dc 89 b3
       8.924945e-07 1.3202597e-05 2.7264468e-07 -6.419678e-08
0000c0 63 83 48 b6 52 71 3d b8 8e 3c c2 b4 f2 7e 9b 34
       -2.98788e-06 -4.516665e-05 -3.6179375e-07 2.8963365e-07
0000d0 40 e9 5e 3b df 97 24 3b 8f 01 68 b8 c1 44 8f 37
       0.003401354 0.0025114936 -5.5314562e-05 1.7078944e-05
0000e0 58 eb 8a b4 d5 b5 9d b6 6b 2e bd 34 d5 69 83 35
       -2.5875738e-07 -4.7001326e-06 3.5237767e-07 9.791062e-07
0000f0 20 fb c8 b2 80 a9 21 b2 fc 05 ff 3f 7a 35 2d 3f
       -2.3397263e-08 -9.409973e-09 1.9923701 0.67659724

decoder_layer1.bias f4 [32]
000000 69 7c 64 33 d0 c4 9f b6 8c ec 13 36 89 1e 86 bc
       5.3198537e-08 -4.7614813e-06 2.2042395e-06 -0.016371982
000010 20 81 14 30 72 68 50 b7 a7 f8 99 b8 d4 34 6f 31
       5.4025584e-10 -1.2422084e-05 -7.3419236e-05 3.4809107e-09
000020 69 52 cd b4 b4 21 97 b6 75 58 91 36 01 82 bd b6
       -3.8244187e-07 -4.5040742e-06 4.3316345e-06 -5.6477734e-06
000030 77 5d 67 b6 ea 39 47 be d3 8d c2 37 b9 70 bb 34
       -3.4476086e-06 -0.19455686 2.3192644e-05 3.491348e-07
000040 e0 1b 34 be bb c2 dd 32 2d ae 20 35 61 9f be 35
       -0.17588758 2.581634e-08 5.9858104e-07 1.4202489e-06
000050 04 45 de b5 8d b3 bf 35 34 a4 70 b3 e8 ed 9c 32
       -1.6560375e-06 1.4282865e-06 -5.6028696e-08 1.8268977e-08
000060 b7 11 30 36 01 5d c3 b4 49 7a 93 b7 b8 70 36 38
       2.6236355e-06 -3.638925e-07 -1.7580709e-05 4.349716e-05
000070 1f b5 f3 33 20 b0 03 34 b4 f3 ae 33 81 a8 2c be
       1.1348515e-07 1.22644e-07 8.146836e-08 -0.16861154

decoder_layer2.weight f4 [32, 32]
000000 0d b3 8c b4 dc ba f8 b5 13 a2 43 34 70 fc 29 bc
       -2.620731e-07 -1.8531823e-06 1.8219752e-07 -0.010375127
000010 72 e1 b8 32 db 64 18 36 35 0e 30 39 96 a6 45 b2
       2.152294e-08 2.270847e-06 0.0001678996 -1.15047865e-08
000020 6b b2 7e b6 da 59 64 b6 d9 89 87 36 80 ce 40 b5
       -3.7952802e-06 -3.4026948e-06 4.039361e-06 -7.182607e-07
000030 9e 66 5a b6 a0 1d 03 be e8 f1 24 b9 67 a2 28 35
       -3.2544262e-06 -0.1280427 -0.00015730376 6.2821204e-07
000040 5a 23 12 be 76 83 0b 34 a5 e8 bf b5 b6 db 05 35
       -0.14271298 1.2993209e-07 -1.4298317e-06 4.986608e-07
000050 f0 98 83 b7 ee ee 0c b7 4f 99 9b 36 46 06 2f b0
       -1.5687634e-05 -8.40028e-06 4.6372074e-06 -6.3673544e-10
000060 94 22 a4 b6 ea 86 4f 35 a7 ee b0 b7 0d 92 d6 38
       -4.8916063e-06 7.7309835e-07 -2.1091966e-05 0.00010231519
000070 68 ab 65 33 d9 2e 96 31 62 35 81 b4 e1 f5 14 be
       5.347411e-08 4.3709005e-09 -2.4066964e-07 -0.1454692
000080 a3 24 e1 35 c5 c1 07 34 4a a1 12 b7 ef 77 32 3b
       1.6774469e-06 1.2643348e-07 -8.739831e-06 0.002723213
000090 9c 6c d1 b4 f1 e2 5e b5 d5 ac 0b b9 49 b7 ce b1
       -3.9008307e-07 -8.303169e-07 -0.00013320458 -6.016226e-09
0000a0 af d1 04 b7 1c 12 28 b6 8c db be 38 31 09 5b b8
       -7.916634e-06 -2.5044492e-06 9.1008e-05 -5.222223e-05
0000b0 b6 c3 5e b7 42 a9 c6 3c 2b 0e b2 b8 13 93 07 36
       -1.3277799e-05 0.02425063 -8.4903404e-05 2.0202176e-06
0000c0 d6 e8 fa 3c ac a0 36 36 ef ce 12 36 c9 44 f0 b5
       0.030628603 2.7213637e-06 2.1876147e-06 -1.7901413e-06
0000d0 d7 17 a6 b5 fb a6 86 b6 a4 cb a6 b7 83 37 9d 34
       -1.2374902e-06 -4.0129503e-06 -1.988357e-05 2.928392e-07
0000e0 f1 09 b0 b7 9a a3 d6 34 ed d9 88 37 0d 5c 82 b8
       -2.0985464e-05 3.9979642e-07 1.6313943e-05 -6.216029e-05
0000f0 62 3f d8 b4 64 1a 52 b6 68 99 3d b5 a4 03 fa 3c
       -4.0279252e-07 -3.13078e-06 -7.063122e-07 0.030519314
000100 7b 6d be 34 9e 53 91 37 ec fc 58 b7 ae 59 cc 3c
       3.5469915e-07 1.7324284e-05 -1.2933491e-05 0.024945106
000110 cb eb 35 b4 be 72 c4 37 4a a3 a1 ba 6f 7a 6c 32
       -1.694272e-07 2.3418452e-05 -0.0012331989 1.3764846e-08
000120 b0 e8 96 36 e8 73 0b 38 ee cf c1 b8 ed b2 e8 b7
       4.4974367e-06 3.324813e-05 -9.241687e-05 -2.7739874e-05
000130 ce 94 36 b8 0e 8f 22 3e e8 63 03 ba 18 bf 7e b6
       -4.3530767e-05 0.15874884 -0.00050121406 -3.796018e-06
000140 bc a0 7f 3e ce 8f c1 34 96 2c cb b6 86 02 26 b7
       0.24963659 3.6053683e-07 -6.055062e-06 -9.894959e-06
000150 bd f2 80 b7 73 2b db 36 54 b4 03 38 07 01 ef 34
       -1.5371823e-05 6.5317668e-06 3.1400778e-05 4.4517967e-07
000160 5d 91 93 b7 a8 9d 7d b3 31 18 6e 39 39 ed 5c b9
       -1.7591456e-05 -5.904954e-08 0.00022706461 -0.00021069207
000170 17 9b aa b5 ca 47 8e 35 be e2 a0 34 bb 01 8d 3e
       -1.2711124e-06 1.0600718e-06 2.99673e-07 0.27540383
000180 25 dd 1a b5 5d f6 e3 b4 67 7a a6 35 72 e1 a4 36
       -5.769128e-07 -4.2461298e-07 1.2403588e-06 4.913826e-06
000190 4b 09 62 32 d8 a1 6f 36 e1 a6 b4 b7 5e c6 c8 32
       1.3157044e-08 3.570798e-06 -2.1535381e-05 2.3373271e-08
0001a0 68 aa 18 b6 5c e4 10 b5 18 3c 78 b7 27 09 29 b7
       -2.2748955e-06 -5.3976487e-07 -1.4795944e-05 -1.0075316e-05
0001b0 62 32 b5 34 51 df 46 34 1d 31 9e b7 c6 34 b5 34
       3.3750536e-07 1.8521429e-07 -1.8857938e-05 3.3752275e-07
0001c0 24 b1 da b5 87 03 77 34 5d dd 35 34 ea 02 3b b6
       -1.629382e-06 2.3004951e-07 1.693747e-07 -2.7866868e-06
0001d0 4e b9 79 35 82 f3 f8 b6 34 16 6e 36 4e 9a 63 31
       9.302938e-07 -7.419324e-06 3.5477688e-06 3.312056e-09
0001e0 8d d6 50 b7 84 76 dd b5 42 4a 95 b5 ce bb 24 b7
       -1.244772e-05 -1.6500276e-06 -1.1122977e-06 -9.818888e-06
0001f0 52 e8 3c b6 09 18 b1 b3 7a 60 d3 33 9c fc 0d b6
       -2.8149411e-06 -8.246577e-08 9.843002e-08 -2.1157675e-06
000200 3a ae 8c 35 32 d7 1a b5 16 2e 12 b6 d1 2c a6 38
       1.048152e-06 -5.768262e-07 -2.178252e-06 7.9238445e-05
000210 6c 80 8c 33 e6 a9 23 b5 b3 b8 e6 b6 4a a7 2b b3
       6.542618e-08 -6.0969467e-07 -6.876036e-06 -3.996619e-08
000220 f2 04 a8 35 f9 c9 16 b6 dd 1f b6 b7 34 6d d6 b6
       1.2518415e-06 -2.2469305e-06 -2.1710928e-05 -6.39041e-06
000230 87 f8 94 b6 46 da 1b 3a eb d4 3a 36 33 b2 91 33
       -4.439676e-06 0.0005945306 2.7840094e-06 6.784503e-08
000240 f2 a7 70 3a 84 a1 9e b4 a5 53 f5 b3 e3 d2 eb b4
       0.0009180299 -2.9547311e-07 -1.14239164e-07 -4.39256e-07
000250 df e5 93 b6 f4 72 13 37 ad 4d 0d 37 42 ba 30 b4
       -4.407702e-06 8.788647e-06 8.42234e-06 -1.6459038e-07
000260 c2 23 61 37 41 c4 1f 35 37 31 e5 35 ee ed 33 b7
       1.3419371e-05 5.95177e-07 1.7076153e-06 -1.0724629e-05
000270 97 08 1d b4 48 9c 0d 35 a0 e0 93 b4 60 3e 74 3a
       -1.462489e-07 5.275401e-07 -2.754432e-07 0.0009317156
000280 b0 94 5b b1 75 be eb 31 1d 67 2a b2 92 0b e1 b7
       -3.1953213e-09 6.8610526e-09 -9.918748e-09 -2.6827478e-05
000290 91 1f e9 ae b5 cd c7 b3 08 8e 66 b5 46 35 2d af
       -1.06012206e-10 -9.3040775e-08 -8.588836e-07 -1.5753185e-10
0002a0 21 d0 0f 35 81 6f 31 34 4d 4a a0 32 f1 d9 ef b4
       5.357452e-07 1.6524974e-07 1.866024e-08 -4.4675792e-07
0002b0 78 43 4b b3 9f b4 69 b9 c8 36 fb 33 33 55 6c 31
       -4.7325983e-08 -0.00022287898 1.1698063e-07 3.439095e-09
0002c0 89 30 b9 b9 f6 ad 11 b1 c9 95 bc b2 4d 67 ac b2
       -0.0003532211 -2.1199162e-09 -2.1954195e-08 -2.0070411e-08
0002d0 b0 84 15 b2 ec 13 ee b3 32 53 97 32 28 94 39 32
       -8.703111e-09 -1.10863624e-07 1.7616546e-08 1.0802104e-08
0002e0 07 c1 70 32 e2 c5 46 33 4a a9 a6 b3 9a d3 59 b5
       1.4013728e-08 4.628044e-08 -7.760771e-08 -8.114672e-07
0002f0 f0 42 3d b0 f4 0f ba b2 bd 9d e8 31 e5 17 b6 b9
       -6.8852923e-10 -2.1660505e-08 6.7700214e-09 -0.00034731548
000300 d8 53 d1 b5 72 57 f8 b5 92 f4 2f b3 dd e2 a9 3c
       -1.5596115e-06 -1.850289e-06 -4.0967798e-08 0.02073806
000310 eb eb 96 34 cd 2e 73 b8 3c 6a 21 b8 b5 13 06 35
       2.811133e-07 -5.79793e-05 -3.848433e-05 4.994757e-07
000320 1a 44 c0 b7 ae 85 92 b8 c3 af bd 37 5c c0 37 b9
       -2.2919896e-05 -6.986722e-05 2.2612401e-05 -0.000175239
000330 55 8f 58 b8 d0 20 61 3e bf 8b b2 37 54 b7 8e 35
       -5.16319e-05 0.21985173 2.1284328e-05 1.063318e-06
000340 47 2f 6f 3e 41 7b 21 36 57 a5 e5 b6 a0 2e 85 36
       0.23357879 2.4062613e-06 -6.84398e-06 3.9691367e-06
000350 4c b5 7d b8 29 88 38 b8 0a 3f 97 b8 5f 8f fd b5
       -6.0488746e-05 -4.3995828e-05 -7.211983e-05 -1.8891695e-06
000360 49 fd 83 38 b6 5c eb b5 dd 5a 23 b7 41 33 20 ba
       6.293745e-05 -1.7535847e-06 -9.736713e-06 -0.0006111153
000370 15 28 86 35 bb 6c 2d 36 c3 e6 a1 36 a9 3f 76 3e
       9.995443e-07 2.5842298e-06 4.825038e-06 0.24047722
000380 63 05 dd 33 64 b5 94 34 97 82 97 34 31 7b 23 3a
       1.0292094e-07 2.7699127e-07 2.8220958e-07 0.00062363135
000390 74 74 11 33 1d 77 37 35 c2 6c a0 b7 d9 92 01 32
       3.3866357e-08 6.8346145e-07 -1.912413e-05 7.5421775e-09
0003a0 ec b3 b3 34 dd f0 ac b5 39 22 87 b7 ad 53 65 b5
       3.3472259e-07 -1.2885099e-06 -1.610919e-05 -8.543091e-07
0003b0 72 f0 5d b5 49 20 a8 3b 11 da 68 37 4a 32 d7 34
       -8.267881e-07 0.005130802 1.387905e-05 4.008346e-07
0003c0 0e ca e8 3b 2d 0a 06 b5 25 7c 00 b5 cf 96 e9 34
       0.007104165 -4.99337e-07 -4.786437e-07 4.350936e-07
0003d0 1f aa b9 b6 46 af 9e b5 0d 7a 6a 34 58 a1 00 33
       -5.5332343e-06 -1.1822929e-06 2.183735e-07 2.9949064e-08
0003e0 a2 62 6b b6 7f a9 90 33 cc 85 a9 36 66 ae 35 b8
       -3.507514e-06 6.736354e-08 5.0521685e-06 -4.3316184e-05
0003f0 ae 9d d4 34 4a 1c a1 33 08 86 ed b3 a6 07 e2 3b
       3.9602804e-07 7.5022925e-08 -1.1060553e-07 0.0068978844

decoder_layer2.bias f4 [32]
000000 2d 16 4e bd d3 fc 23 3c fa 60 04 3d a7 65 d5 b4
       -0.050314117 0.010009008 0.032319047 -3.9748303e-07
000010 0e e8 9d 39 36 dc f1 b8 35 8e 7f 3d 07 ce 17 3b
       0.00030118268 -0.00011532793 0.06239148 0.0023163573
000020 b3 4e 82 3c 51 8d e2 bc 29 01 06 be 7f 18 06 3b
       0.015906667 -0.027655276 -0.1308638 0.0020461378
000030 e0 47 28 ba 9a 27 9c 3d c5 2f 30 bd 08 1a 0b 3a
       -0.00064194016 0.07624741 -0.043014307 0.0005306308
000040 c0 53 10 be 59 72 37 bc c2 a0 eb bc 2b c8 36 be
       -0.14094448 -0.011196696 -0.028763179 -0.17849796
000050 0c 97 96 bb cd d7 a7 bc db cb c8 bd 54 00 e8 bd
       -0.004595643 -0.020488644 -0.09804507 -0.113281876
000060 46 c2 3f 3b c9 4b 27 b5 0b 65 a5 bc d1 8b 31 be
       0.0029260083 -6.232263e-07 -0.020189783 -0.17338492
000070 3b 41 50 3b 82 41 35 ba 4c 73 c4 3d e2 1a 71 3d
       0.0031777162 -0.00069143635 0.09592304 0.058863528
