results/vae_models/Iris.pt (torch, 320711 bytes, 75 tensors)

dof f4 [4]
0	0x405804b1	3.3752863
1	0x404d8515	3.2112477
2	0x40527053	3.2881057
3	0x4051e15b	3.2793796

encoder_layer1.weight f4 [128, 4]
0	0x3bce9e05	0.0063054585
1	0xbbfa4610	-0.0076377466
2	0xbb598a47	-0.0033193992
3	0xbba22234	-0.004947925
4	0xbbe047e3	-0.006844507
5	0xbd2be9ce	-0.04197102
6	0xbe8a3f7a	-0.27001554
7	0x3d217c26	0.039425038
8	0xbe06ee5c	-0.13176864
9	0x3f01c303	0.5068819
10	0xbe8a3a29	-0.26997498
11	0xbe819a17	-0.25312874
12	0xbcdb0e11	-0.026740106
13	0xbc89c48a	-0.01681735
14	0xbea3103a	-0.31848317
15	0xbda46a2b	-0.080280624
16	0x3c4f2dc3	0.012645188
17	0xbc2dbf7e	-0.010604737
18	0xbc12baa6	-0.008955633
19	0xbb4ba809	-0.0031075499
20	0xbe018700	-0.12649155
21	0x3dd087a1	0.10182119
22	0xbe9f5e9b	-0.31126866
23	0xbd67c727	-0.05658641
24	0xbce38119	-0.02777152
25	0x3c0a83fc	0.008454319
26	0x3c715797	0.014730356
27	0x3bf21679	0.007387933
28	0x3db5efe7	0.08883648
29	0xbe6db912	-0.2321513
30	0xbe8e63da	-0.27810556
31	0xbd2c4fe9	-0.042068396
32	0xbdf72c7b	-0.12069031
33	0xbf22ac18	-0.63543844
34	0x3e1a1a76	0.15049157
35	0xbd6baefb	-0.05753992
36	0xbd65d2d9	-0.056109283
37	0x3d94f77a	0.07273765
38	0xbe53a16c	-0.20667046
39	0xbe0feef8	-0.14056003
40	0xbd46b15e	-0.048508994
41	0xbf1c23f1	-0.6099234
42	0xbd6a59be	-0.05721449
43	0xbbd68f3e	-0.0065478375
44	0x3b5c6956	0.003363212
45	0xbd58602a	-0.052826084
46	0x3d07fd87	0.033200767
47	0xbd3b6367	-0.045749094
48	0xbd8890e2	-0.06668259
49	0xbe8e1ab3	-0.27754745
50	0xbe0e3765	-0.13888319
51	0xbe7cabde	-0.24674937
52	0xbca63d56	-0.02029292
53	0xbdb144bc	-0.08655688
54	0xbebf2264	-0.37330925
55	0xbd92f6b7	-0.07175963
56	0x3c507672	0.012723552
57	0xbec08128	-0.37598538
58	0x3c995151	0.018715532
59	0xbdd83b2a	-0.1055816
60	0xbdd81509	-0.10550887
61	0xbe557f9c	-0.2084946
62	0xbe522e79	-0.2052554
63	0xbe291828	-0.16513121
64	0x3d94cb99	0.07265396
65	0xbd7c9cfd	-0.061673153
66	0xbdb10a65	-0.08644561
67	0x3c770cfb	0.015078778
68	0x3d5e817d	0.05432271
69	0xbd203643	-0.039114248
70	0xbc87f98a	-0.016598482
71	0xbcf60b7e	-0.030034777
72	0xbcbc0cd5	-0.022955338
73	0xbf0b7042	-0.54468167
74	0x3cf60537	0.030031784
75	0xbe03cd01	-0.12871172
76	0x3ccc1005	0.024909982
77	0x3a1df238	0.0006025168
78	0xbb71f295	-0.0036918272
79	0xbad2154f	-0.0016028079
80	0x3ce5aa92	0.028035436
81	0xbf5a83ad	-0.8535717
82	0x3e58439d	0.21119542
83	0x3d70e0ca	0.058808126
84	0xbd704b0b	-0.058665317
85	0x3f0ea175	0.55715114
86	0xbec3438f	-0.3813748
87	0xbe278602	-0.16359714
88	0xbd18546e	-0.037189893
89	0xbc57928c	-0.013157498
90	0x3bcf6e64	0.0063302983
91	0x3c78ed12	0.015193241
92	0xbb132255	-0.0022450883
93	0xbe21ee8c	-0.15813655
94	0xbd41b8cf	-0.047295388
95	0xbd3b1854	-0.045677498
96	0xbd2d42f7	-0.04230019
97	0xbda2c77c	-0.07948205
98	0xbdab8442	-0.083748356
99	0x3da608fb	0.08107182
100	0x3b9ce900	0.004788518
101	0xbe801c05	-0.25021377
102	0xbe09c573	-0.13454227
103	0x3ca4695d	0.020069772
104	0x3d3a01a1	0.04541171
105	0xbebcd58e	-0.3688168
106	0xbce150bf	-0.027504323
107	0xbd431daa	-0.04763571
108	0xbcf92610	-0.030413657
109	0xbe483e57	-0.19555031
110	0xbcb274c3	-0.021784192
111	0x3d01a835	0.031654555
112	0xb937fd04	-0.00017546496
113	0x3b8a8e5a	0.0042283954
114	0xbc4e7241	-0.012600482
115	0x3c3753ea	0.01118944
116	0x3c0b3023	0.008495363
117	0xbb21a806	-0.00246668
118	0x3c53979b	0.0129145635
119	0xbc9044e1	-0.017610969
120	0xbcc91ce7	-0.024549915
121	0x3d1f297e	0.03885793
122	0xbe02235a	-0.12708798
123	0xbcedabcb	-0.029012581
124	0xbc919c20	-0.017774642
125	0x3b6abdfe	0.003581881
126	0xbc0a7ca9	-0.008452573
127	0x3ca44ccb	0.020056149
128	0xbd062959	-0.032754276
129	0xbf1d5661	-0.6145993
130	0x3e812925	0.25226703
131	0x3bbb7e56	0.0057218475
132	0xbce1bd10	-0.027555972
133	0xbb0fc591	-0.0021937827
134	0xbbfabaea	-0.0076516764
135	0x3c5a2a0d	0.01331569
136	0x3d88a9ee	0.066730365
137	0xbe716a85	-0.2357579
138	0xbe0386ae	-0.12844345
139	0xbdbbc533	-0.09168472
140	0x3b7737e8	0.0037722532
141	0x3c82455f	0.01590222
142	0x3aee1be2	0.0018166269
143	0x3bb9e13a	0.005672601
144	0xbc5481c2	-0.01297039
145	0xbe9f26c6	-0.3108427
146	0xbd8ad7f4	-0.06779471
147	0xbd86db0f	-0.06584751
148	0x3c191522	0.009343417
149	0xbb1212a4	-0.0022288943
150	0xbaf74fe4	-0.0018868414
151	0xbb87d11d	-0.0041448013
152	0x3d02ea07	0.031961467
153	0xbcc0546f	-0.023477761
154	0xbd4107c7	-0.047126558
155	0x3c6d4393	0.014481443
156	0x3c98aa35	0.018635849
157	0xbca621ae	-0.020279732
158	0xbcaf5bc8	-0.02140607
159	0x3b0bd3fb	0.0021336067
160	0xbd2e1ff1	-0.04251093
161	0xbe5527fa	-0.20816031
162	0x3d5eff47	0.05444267
163	0xbd968762	-0.07350041
164	0xbceaf129	-0.028679447
165	0x3b05c68c	0.0020412533
166	0xbba21a74	-0.004947001
167	0x3c96c8b1	0.018406244
168	0xbde66027	-0.11248808
169	0x3ed4bb80	0.415493
170	0xbed6b89d	-0.41937724
171	0xbecbd412	-0.39810234
172	0x3dea536e	0.11441694
173	0xbd445a3a	-0.04793761
174	0xbe8ed2f2	-0.27895314
175	0xbed29b4c	-0.41134107
176	0xbd18d248	-0.037309915
177	0xbe1530dc	-0.1456942
178	0xbd3d5f68	-0.046233565
179	0x3d3611ae	0.044450454
180	0x3d0e3b9f	0.034724828
181	0xbd3d5b99	-0.046229932
182	0xbcb896af	-0.022532789
183	0xbc5fcbfb	-0.013659473
184	0x3bf326ad	0.007420382
185	0x3a825b9c	0.0009945515
186	0xbacc7581	-0.0015598984
187	0x3a94863e	0.0011331511
188	0x3ca0ccea	0.01962896
189	0xbb4f7e20	-0.003166087
190	0xbb52ac63	-0.0032146208
191	0xbb0d3089	-0.0021543822
192	0xbd918750	-0.07105887
193	0xbe3079c7	-0.17233954
194	0xbd359000	-0.044326782
195	0x3d0023a9	0.03128401
196	0xbd808b9f	-0.062766306
197	0x3e4511b4	0.19245034
198	0xbe646ed5	-0.22307904
199	0xbe44d1e7	-0.19220696
200	0xbc4016b1	-0.01172416
201	0xbdcd5c32	-0.100273505
202	0xbe536c61	-0.20646812
203	0xbdff2e75	-0.12460033
204	0xba424dca	-0.0007412104
205	0x3ce66afa	0.028127182
206	0x3b8b26dd	0.004246576
207	0x3c2f1640	0.010686457
208	0xbd5597b4	-0.05214663
209	0x3b1bcdfd	0.0023773902
210	0x3b9741d2	0.0046160007
211	0x3cf6977d	0.030101532
212	0xbe6f8ca5	-0.23393495
213	0xbe8b0ddc	-0.2715901
214	0xbb2bc566	-0.0026210188
215	0xbd91e8a7	-0.07124453
216	0xbcfcdd24	-0.030867167
217	0xbeac0b27	-0.3360226
218	0x3d21ac68	0.03947106
219	0xbd7359cc	-0.05941181
220	0xbbf021b7	-0.007328238
221	0xbe5bc81c	-0.21463054
222	0xbe48af13	-0.19598036
223	0xbd3aaf17	-0.045577135
224	0xbe4ade4f	-0.19811366
225	0xbf0ebe72	-0.55759346
226	0xbda646c7	-0.081189685
227	0xbe0bc712	-0.13650158
228	0xbbc057f7	-0.005869861
229	0xb9b00d3e	-0.00033579202
230	0xb92b0958	-0.00016311312
231	0xbaa14645	-0.0012304267
232	0x3c24300b	0.01002122
233	0xbd8a66d0	-0.06757891
234	0xbcc1ccd2	-0.023657236
235	0xbae1d90f	-0.0017230826
236	0x3a9e73c8	0.0012088949
237	0xbcd17cc0	-0.02557218
238	0xbbcd5862	-0.0062666396
239	0xbc414df3	-0.01179837
240	0x3c3099ff	0.010778903
241	0xbb77d558	-0.0037816372
242	0xbbf57d97	-0.007491778
243	0xb9f297a0	-0.00046270806
244	0xbdee7888	-0.11644083
245	0xbeb1c95d	-0.3472394
246	0x3bc04f94	0.0058688615
247	0xbd8fb908	-0.07017714
248	0xbbb2c961	-0.005456135
249	0xbcb5703a	-0.02214824
250	0xbc3b1c09	-0.011420258
251	0xbc298cd5	-0.010348518
252	0x3c403fe6	0.011733985
253	0xbd12111e	-0.035660855
254	0xbd482084	-0.048859134
255	0xbe547825	-0.20748957

encoder_layer1.bias f4 [128]
0	0x3aa1b680	0.0012337714
1	0x3e24355c	0.1603598
2	0x3e736db5	0.23772319
3	0x3e6abb8c	0.22923106
4	0x3b78f267	0.003798628
5	0x3e825afa	0.25460035
6	0xba151836	-0.00056875066
7	0x3e6d96fc	0.23202127
8	0x3e7b8b74	0.24564916
9	0x3e5922ff	0.21204756
10	0x3e927848	0.28607392
11	0x3ce2f2af	0.027703611
12	0x3eaccf45	0.33751884
13	0x3e945d2b	0.28977332
14	0x3e40bbd8	0.18821657
15	0x3e8f4b26	0.2798702
16	0x3cc2afb9	0.023765432
17	0x3c4b5528	0.01241044
18	0x3e8c5500	0.274086
19	0x3b14faa5	0.0022732404
20	0x3e153463	0.14570765
21	0x3e443f3b	0.19164746
22	0x3c60a9a1	0.013712318
23	0x3df92198	0.121646106
24	0x3d6901ef	0.05688661
25	0x3e29278c	0.16518992
26	0x3e242b37	0.1603211
27	0x3da90bc3	0.082541965
28	0x3b1f841c	0.0024340218
29	0xb9d140e8	-0.00039911945
30	0x3dcf0992	0.10109247
31	0x3a94f43b	0.001136429
32	0x3db360f0	0.08758724
33	0x39fe4597	0.00048498504
34	0x3e41320a	0.18866745
35	0xbaa516bc	-0.0012595276
36	0x3e538ee8	0.20659983
37	0x3957a85d	0.00020566718
38	0x3c0a36cb	0.008435915
39	0x3c0c144d	0.008549762
40	0x3de95c5e	0.11394571
41	0x3ab6566d	0.0013911255
42	0x3e42ceaf	0.19024156
43	0x3ea4b5ff	0.32170102
44	0x3d9ceb66	0.07662086
45	0x3ca47e42	0.020079736
46	0x3ac37598	0.0014912365
47	0x3b59e519	0.0033248125
48	0x3de9974e	0.11405812
49	0x3e5e591d	0.21713682
50	0x3e7269ab	0.23673122
51	0xbc3737ab	-0.011182706
52	0x3c047d17	0.008086464
53	0x3e83e164	0.25757897
54	0x3e1e739e	0.15473792
55	0x3e684ddb	0.2268595
56	0x3ecd3965	0.4008285
57	0xb9e51d03	-0.000436999
58	0x3d17f719	0.037100885
59	0x3b91238c	0.0044292863
60	0x3a8d3c95	0.0010775501
61	0x3e6cc586	0.23122224
62	0x3a785b9c	0.00094741
63	0x3e25e672	0.16201189
64	0x3e8bec2b	0.2732862
65	0x3b89e2dc	0.004207952
66	0x3b9307d1	0.004487016
67	0x3b0aa57f	0.0021155772
68	0xbbdc5012	-0.0067234123
69	0x3b7eeb4b	0.003889757
70	0x3b7ba289	0.003839644
71	0x3b663e1b	0.0035132233
72	0xbb79b47f	-0.0038101969
73	0xbc37ebda	-0.011225665
74	0x3cc854f0	0.024454564
75	0x3c5c221a	0.013435865
76	0x3e3f41a1	0.18677379
77	0x3d90f44e	0.070778474
78	0x3e220173	0.15820865
79	0xbb8920f8	-0.0041848384
80	0x3e7f61f7	0.24939714
81	0x3e5ec9c9	0.21756662
82	0x3ecbc27e	0.39796823
83	0x3e6001bd	0.21875663
84	0xb8b763a8	-8.7446824e-05
85	0x3bf70ae3	0.0075391396
86	0x3ddc7941	0.10765315
87	0x3e2e0c4f	0.16996883
88	0x3db05a06	0.086109206
89	0x3ddd27fa	0.107986405
90	0x3c8a30f5	0.016869048
91	0x3db619a9	0.08891613
92	0x3a4b425b	0.0007753723
93	0x3b99ff0c	0.0046995934
94	0x3d98d769	0.07462961
95	0x3e903fd2	0.2817369
96	0x3bfad013	0.007654199
97	0xb9db6958	-0.00041849422
98	0xbd30b5f9	-0.043142293
99	0x3d612908	0.05497077
100	0x3dc330b1	0.095307715
101	0x3c1f393c	0.009718236
102	0x3e1e69f0	0.154701
103	0x3eb7b83b	0.35882744
104	0x3a42d4e4	0.0007432236
105	0x3b568e0e	0.003273848
106	0xb97f9890	-0.00024375529
107	0x3e6f64af	0.23378251
108	0x3c9c834a	0.019105572
109	0x3d29efed	0.041488577
110	0x3cd55619	0.026042031
111	0x3b1e010c	0.002410951
112	0x3e9b089d	0.3028001
113	0x3be988b9	0.0071268943
114	0x3be57363	0.0070022806
115	0x3e0909ca	0.1338264
116	0x3b06ecdd	0.002058796
117	0x3d8b474a	0.06800707
118	0x3d65cb61	0.05610216
119	0x3e0eaf99	0.13934173
120	0x3e038bd1	0.12846304
121	0x3ae4f892	0.0017469099
122	0x3c0291ef	0.007969364
123	0x3b8f67b0	0.004376374
124	0xbe38bbe3	-0.18040423
125	0x3e0d7943	0.13815789
126	0x3eab5354	0.33462012
127	0xbb8cd3f1	-0.0042977263

encoder_layer2.weight f4 [64, 128]
0	0x37cc21c2	2.4334415e-05
1	0xb87125c6	-5.7494057e-05
2	0x3b0cc67c	0.002148061
3	0xba77365c	-0.00094304024
4	0x3891517f	6.9293186e-05
5	0xba4673d5	-0.0007570361
6	0x385c1078	5.2467425e-05
7	0xb8f06d3c	-0.00011464438
8	0x3b1869fb	0.0023256529
9	0xba15876c	-0.00057040784
10	0x3b05b783	0.002040357
11	0x3a1138f3	0.0005539797
12	0xbab5f5fa	-0.0013882511
13	0xbac3dc9d	-0.0014943067
14	0x3b0e79ce	0.0021740082
15	0xbacc2560	-0.0015575103
16	0x39033a4d	0.00012514852
17	0x39447b18	0.00018737873
18	0x3b288573	0.0025714308
19	0xb94788a5	-0.00019029023
20	0xbb6b1986	-0.0035873367
21	0x3ace4cf1	0.0015739483
22	0x39c20627	0.00037007147
23	0x3a7bccb5	0.0009605394
24	0x3a6120d5	0.0008587961
25	0x3aaf3191	0.0013366212
26	0x3ae18f75	0.0017208891
27	0x3aa18e97	0.001232582
28	0x391613f2	0.00014312545
29	0x382c74d9	4.111682e-05
30	0x36ea99d4	6.9916514e-06
31	0x36ac08b9	5.127015e-06
32	0x39983a69	0.00029035218
33	0x391f5a36	0.00015197028
34	0x3a184fec	0.0005810249
35	0x39f03596	0.00045816292
36	0x3ad2e0d1	0.0016088729
37	0x37142ce2	8.8319375e-06
38	0x38a27af3	7.747663e-05
39	0x38b4480f	8.596491e-05
40	0x3ae6627d	0.0017576959
41	0x3888133e	6.4885695e-05
42	0xbbb8184c	-0.005618131
43	0xbbb2da6c	-0.005458167
44	0x3a82b98e	0.0009973512
45	0x39927fa1	0.0002794238
46	0xb8b2ceeb	-8.526243e-05
47	0xb924915a	-0.00015694406
48	0x3ad62caa	0.0016340215
49	0xba3860ed	-0.0007033486
50	0xb9e865e0	-0.0004432639
51	0x392bed5b	0.00016396253
52	0x399665c8	0.00028686062
53	0x3ae79d4e	0.0017670782
54	0x3b079273	0.0020686656
55	0x39d4a8f5	0.00040561674
56	0x39e1e7a0	0.00043087918
57	0xb6cb4603	-6.058022e-06
58	0x3a13082f	0.00056088244
59	0x38aaa3f2	8.136769e-05
60	0x36ba314b	5.5489704e-06
61	0x3b177bb9	0.0023114516
62	0x39ec6532	0.00045088824
63	0x3808a15e	3.257521e-05
64	0xbab081fc	-0.0013466473
65	0x38787fdb	5.9246882e-05
66	0xb95c5f86	-0.0002101642
67	0x39aad757	0.00032585367
68	0x376eaba8	1.4225872e-05
69	0x382eb371	4.165195e-05
70	0xb6c24db8	-5.790698e-06
71	0x36ff12af	7.6017673e-06
72	0x39205552	0.00015290573
73	0xb8c3361b	-9.3084025e-05
74	0x3a803b8e	0.0009783374
75	0x38b1480f	8.45344e-05
76	0x3b04ae7f	0.002024561
77	0x3a41779c	0.0007380189
78	0x3b075509	0.002065005
79	0x3a07c252	0.00051787973
80	0xba57cb6e	-0.00082319125
81	0x3b242d91	0.0025051574
82	0xba666ba9	-0.00087898463
83	0x3b2dea5c	0.0026537394
84	0xb902decc	-0.00012480764
85	0x37c71ce4	2.3736102e-05
86	0x3aa14941	0.0012305157
87	0x3ae142c6	0.0017186038
88	0x3a7d5555	0.00096638995
89	0x3a64519a	0.00087096693
90	0x398afd9d	0.00026510368
91	0x3aa977ae	0.0012929344
92	0x37b50202	2.1577816e-05
93	0x389e2c8d	7.542325e-05
94	0x3aad8ab3	0.0013240188
95	0x3b44c935	0.0030027155
96	0xba080e4b	-0.0005190118
97	0x39b4da10	0.00034494745
98	0xba86426d	-0.0010243185
99	0x3aa1ac4f	0.0012334677
100	0x3abd6c25	0.0014451785
101	0x396893e0	0.00022180332
102	0x3b009142	0.001961783
103	0x3a801e39	0.0009774632
104	0xba305537	-0.0006726565
105	0x38984123	7.2600575e-05
106	0x35516152	7.8000187e-07
107	0x39023377	0.00012416938
108	0x39a4729f	0.00031365917
109	0x39f87b8a	0.0004739429
110	0x39c30218	0.00037194858
111	0x38fed3a9	0.000121510886
112	0xbb25c90f	-0.0025296842
113	0xb9956fd6	-0.0002850282
114	0x38e55f62	0.00010937337
115	0x3a8d9e0c	0.0010804548
116	0x385378c0	5.0418777e-05
117	0x3ac250aa	0.0014825065
118	0x3a6ef054	0.0009114791
119	0x3ad20eda	0.0016026155
120	0x3a9d2abe	0.0011990888
121	0xb92332db	-0.00015563836
122	0x386f334d	5.7029818e-05
123	0x39718d9e	0.00023036308
124	0x39bb2cd8	0.0003570083
125	0x3b13e105	0.0022564542
126	0xbbd1e407	-0.006405357
127	0xb77129fd	-1.4374496e-05
128	0x3689e59f	4.1096496e-06
129	0x39406da1	0.00018351387
130	0x39e15648	0.0004297963
131	0x398d4520	0.00026945118
132	0x356207c4	8.420286e-07
133	0x39a55708	0.00031536096
134	0xb6f092be	-7.1696404e-06
135	0x39110270	0.00013829186
136	0xb91ef140	-0.00015157927
137	0x39977651	0.00028889117
138	0xb8b0224c	-8.398722e-05
139	0xb495bef2	-2.7892344e-07
140	0x39435e06	0.00018631676
141	0x399d8045	0.00030040942
142	0xb89587f5	-7.1301976e-05
143	0x39371b7e	0.00017462482
144	0x36853cd5	3.9707907e-06
145	0x36cc02fe	6.080022e-06
146	0xb898f9e6	-7.294472e-05
147	0x37bffd0c	2.2886808e-05
148	0xb987a816	-0.0002587444
149	0x39e3668c	0.00043373217
150	0xb51733ce	-5.632727e-07
151	0x380105e2	3.0761476e-05
152	0x36c38b96	5.827703e-06
153	0x37944c1d	1.7678418e-05
154	0xb8c8179f	-9.541143e-05
155	0xb88784b2	-6.462018e-05
156	0x38807b1e	6.126448e-05
157	0xb44b7cf0	-1.89513e-07
158	0x392422b6	0.0001565319
159	0xb5f24199	-1.8049496e-06
160	0xb9744f31	-0.00023299154
161	0xb70bdd80	-8.336618e-06
162	0x38883733	6.495267e-05
163	0x382b5a68	4.0853774e-05
164	0x378b118c	1.6578262e-05
165	0x343a4137	1.7346325e-07
166	0x36c6af02	5.9212334e-06
167	0xb4f7cb16	-4.61551e-07
168	0xb8283a8b	-4.0108844e-05
169	0x35e15a83	1.6790149e-06
170	0x39ce6e9e	0.00039373798
171	0x39ad19b8	0.00033016293
172	0xb807cf80	-3.2379758e-05
173	0x365dd5c3	3.3055992e-06
174	0x379fac37	1.903447e-05
175	0x38003fa1	3.0576837e-05
176	0x3711db38	8.693714e-06
177	0x39b53250	0.00034560496
178	0x39678736	0.00022080247
179	0xb7114bba	-8.660305e-06
180	0xb642cdb3	-2.9027985e-06
181	0x38a21373	7.728385e-05
182	0xb8b6faea	-8.725173e-05
183	0x390f780e	0.00013682267
184	0x389b29c3	7.398755e-05
185	0x37a86940	2.0076171e-05
186	0xb4ab7254	-3.1934417e-07
187	0xb769637a	-1.3911043e-05
188	0x35d1176a	1.5578528e-06
189	0x36d952f6	6.476762e-06
190	0x36b50914	5.395277e-06
191	0x3934d50f	0.00017245508
192	0x395f1bbf	0.00021277273
193	0x3669b5ca	3.482552e-06
194	0x3680456b	3.8227786e-06
195	0xb5fe67ca	-1.8954681e-06
196	0x35412f9e	7.1967395e-07
197	0x3682570a	3.8844346e-06
198	0x369ec836	4.7320746e-06
199	0x36fd93e3	7.557204e-06
200	0xb8050b07	-3.171994e-05
201	0x368b0bbb	4.1438884e-06
202	0x37cfff52	2.4795216e-05
203	0x34751e90	2.2828522e-07
204	0xb9002c59	-0.00012223552
205	0xb7d83a3a	-2.577632e-05
206	0x35dcc1fc	1.6447734e-06
207	0x38640d97	5.4372093e-05
208	0x394f636d	0.00019778097
209	0xb80a097d	-3.29106e-05
210	0x3904531a	0.00012619459
211	0xb84b9711	-4.8539663e-05
212	0x369c5d23	4.660005e-06
213	0x36e1e73c	6.7324418e-06
214	0xb8233e76	-3.89204e-05
215	0x37d1b3e2	2.4998506e-05
216	0xb2e19a80	-2.6263706e-08
217	0xb69c248d	-4.6534174e-06
218	0x36827983	3.8884477e-06
219	0xb75c5848	-1.3133576e-05
220	0xb67a63e3	-3.7311045e-06
221	0x3615af92	2.2304926e-06
222	0xb6258865	-2.4666308e-06
223	0xb84b0eb2	-4.8412658e-05
224	0x3782f4d0	1.5611207e-05
225	0xb849b8b7	-4.8094164e-05
226	0xb5f27537	-1.8064519e-06
227	0x37f267d9	2.8897006e-05
228	0x3842abee	4.6413326e-05
229	0x3695699e	4.4528415e-06
230	0xb94393d2	-0.00018651717
231	0x384a3d10	4.8217422e-05
232	0x36e5e591	6.851457e-06
233	0xb715d4ae	-8.93061e-06
234	0x36cdc047	6.13186e-06
235	0x39b72e0b	0.00034938785
236	0x358c1559	1.0437026e-06
237	0xb8037a2f	-3.1346626e-05
238	0xb27c7f80	-1.4697321e-08
239	0xb7197f09	-9.149088e-06
240	0x39df5587	0.00042597597
241	0x375deff9	1.32284995e-05
242	0x363d500e	2.8209793e-06
243	0xb7f946c6	-2.971607e-05
244	0x3655a120	3.183326e-06
245	0x37aa512b	2.0303376e-05
246	0x353198bc	6.6159896e-07
247	0xb9363639	-0.00017377072
248	0xb770da5a	-1.4355954e-05
249	0x3769123d	1.3892129e-05
250	0x360e9ba3	2.1250241e-06
251	0x38bb7ce0	8.940115e-05
252	0xb95886b3	-0.00020649545
253	0x363cb552	2.8119725e-06
254	0x3873c758	5.8121368e-05
255	0xb7396901	-1.1051307e-05

encoder_layer2.bias f4 [64]
0	0xba97b808	-0.0011575231
1	0x38656a56	5.4696888e-05
2	0x3d4e7fbf	0.050414797
3	0x3e0c86c1	0.1372328
4	0xba0245cd	-0.00049695076
5	0x3cb75f61	0.022384347
6	0x3a724d54	0.000924309
7	0xbeb576fb	-0.35442337
8	0xbb9453c3	-0.0045265867
9	0x3da70e6e	0.08157049
10	0x3984c161	0.0002532108
11	0x3a03d8f2	0.0005029581
12	0x3bebe21d	0.0071985857
13	0x3d30501d	0.043045152
14	0xb9ee7de0	-0.00045488682
15	0xbc9488e5	-0.018131683
16	0x3e17790a	0.14792266
17	0x3a61c5b6	0.000861253
18	0x397a347c	0.0002386141
19	0xbd56a21c	-0.052400693
20	0x3e40203a	0.18762293
21	0x3c16c853	0.009203034
22	0xbba381de	-0.0049898466
23	0x3a86a890	0.0010273624
24	0x3c6f4b36	0.014605334
25	0xbe5d0197	-0.21582638
26	0x3615477c	2.224434e-06
27	0x38369499	4.3530574e-05
28	0x3e826fbf	0.2547588
29	0x382224d7	3.865812e-05
30	0x3ac4731c	0.0014987919
31	0x3ca14ef2	0.019690964
32	0xb9c9f887	-0.00038522875
33	0xbef4dc5a	-0.47824365
34	0x3cb7e4d3	0.02244798
35	0xb9a0055a	-0.00030521565
36	0x3c530127	0.012878693
37	0xb9a9569d	-0.00032298724
38	0x3ca0ae9d	0.019614512
39	0x3b18bc02	0.002330542
40	0xbe1e37c8	-0.15450966
41	0xbd778dcd	-0.060437966
42	0x3c191d12	0.00934531
43	0xbdb21b86	-0.08696656
44	0x3afa97c2	0.0019118714
45	0xbe6ba2c6	-0.23011312
46	0x391e9a61	0.00015125565
47	0x3c3fc22e	0.011704011
48	0x38f06396	0.00011462641
49	0x39980cc1	0.00029001202
50	0x3b8e87ad	0.00434967
51	0xb9e74242	-0.0004410912
52	0x391133a4	0.00013847515
53	0x3dffed40	0.12496424
54	0x3bd29e05	0.006427529
55	0x3b568ab1	0.0032736475
56	0x3d938133	0.07202377
57	0x38f0f415	0.000114895556
58	0x39e259bc	0.00043172936
59	0x3cda9b2a	0.026685316
60	0x3e598e63	0.21245722
61	0x3d94332d	0.072363235
62	0x3ca97a9a	0.020688344
63	0x3cfa1721	0.030528607

encoder_layer3.weight f4 [32, 64]
0	0xbbb093b6	-0.0053887023
1	0xb9ccf844	-0.00039094884
2	0x3bc965bd	0.0061461614
3	0x3d085540	0.033284426
4	0xb833c8ac	-4.2863816e-05
5	0x3c4374e1	0.011929722
6	0x39516117	0.00019967962
7	0x3ee2e75f	0.44317147
8	0xbc280aeb	-0.010256509
9	0x3d799783	0.06093551
10	0xbade4065	-0.0016956447
11	0x3a42d275	0.0007431873
12	0xb9aa9af0	-0.00032540364
13	0x3a17c6a4	0.00057897926
14	0x3a36a6e9	0.00069676206
15	0xbd2ef3f7	-0.04271313
16	0xbccedf8b	-0.025253078
17	0xb91332b0	-0.00014037895
18	0xbb22aade	-0.0024821083
19	0x3b2540c5	0.0025215608
20	0x3e011301	0.12604906
21	0x3b3e7042	0.002905861
22	0xbdd2babb	-0.10289522
23	0xbab3ec54	-0.0013727047
24	0x3affb1f7	0.0019507994
25	0xbd98f09a	-0.07467766
26	0xbaf568c6	-0.0018723242
27	0xb909e21b	-0.00013149569
28	0x3d90e5a2	0.07075049
29	0x393b9b38	0.00017891533
30	0xb911368e	-0.00013848601
31	0xbc3dbdce	-0.0115808975
32	0x3b564dd0	0.0032700188
33	0x3e92d846	0.2868063
34	0xbbbcad52	-0.005757966
35	0xb85386b4	-5.0431772e-05
36	0x3ae00499	0.0017091214
37	0xb84f71c8	-4.9458613e-05
38	0xbb5a30ed	-0.0033293322
39	0xbb669ff0	-0.0035190545
40	0xbc1339af	-0.008985921
41	0x3cadce35	0.021216491
42	0xba848187	-0.0010109403
43	0xbd63f325	-0.055651803
44	0xbadc6260	-0.0016813986
45	0xbd224ca1	-0.03962386
46	0xb9dca756	-0.00042086345
47	0x3ae24ca9	0.0017265278
48	0xba381563	-0.000702223
49	0x39baccb7	0.0003562921
50	0xbad71e84	-0.0016412293
51	0x3c5c440a	0.013443956
52	0x390b9a4b	0.00013313552
53	0x3cfa7e52	0.030577812
54	0xbc2c8732	-0.01053028
55	0x3af07e13	0.001834812
56	0x3c54137c	0.012944099
57	0xba750e1b	-0.000934811
58	0x3a2a7438	0.00065023033
59	0xbc7dd210	-0.015491977
60	0x3be39a0c	0.006945854
61	0x3d002aaf	0.031290706
62	0x3bd2fd34	0.0064388756
63	0x3b0337c5	0.0020022255
64	0xbb88b942	-0.004172475
65	0xba4ded47	-0.00078554865
66	0x3d794d0d	0.060864497
67	0x3cfc9bb3	0.030835962
68	0xbb2660ef	-0.0025387367
69	0x3b3d0f59	0.002884826
70	0x39877f86	0.0002584422
71	0xbe0fff00	-0.14062119
72	0xbd68e9f0	-0.056863725
73	0xbd1ffabd	-0.039057482
74	0xbb894105	-0.004188659
75	0x3aa081b6	0.0012245688
76	0x3c5f1d2c	0.013617795
77	0x3ca450f8	0.02005814
78	0x3a68f301	0.0008886308
79	0x3df3079b	0.11866685
80	0xbe0bfa8d	-0.13669796
81	0xbab143a0	-0.0013524182
82	0xbb3201e2	-0.0027161767
83	0xbcd8c90c	-0.026463054
84	0xbe0e5f8a	-0.13903633
85	0x3b28cb7e	0.0025756056
86	0x3e3bf576	0.18355355
87	0xbae60773	-0.0017549827
88	0x3a5fc23e	0.0008535719
89	0xbd2aa086	-0.041656993
90	0xbacf0193	-0.0015793316
91	0x38c634b2	9.451191e-05
92	0xbe5a3273	-0.21308307
93	0x395d4332	0.00021101235
94	0x39082169	0.00012982417
95	0x3ba5229a	0.005039525
96	0xba1bb732	-0.0005940079
97	0xbe619607	-0.22029887
98	0xbb12527c	-0.0022326997
99	0xba75b6c4	-0.00093732425
100	0x3bc124d4	0.005894283
101	0xba57bab9	-0.0008229423
102	0x3b651118	0.0034952816
103	0x38c792a8	9.516376e-05
104	0xbd81f2f3	-0.06345167
105	0x3b0e80e0	0.0021744296
106	0xba3028ef	-0.0006719967
107	0x3e580911	0.21097209
108	0x392c75d8	0.00016447098
109	0xbd395134	-0.045243457
110	0x39795dfe	0.00023781505
111	0x3a07e93c	0.0005184596
112	0xbaafa6fe	-0.0013401208
113	0x3a4cedf5	0.0007817441
114	0xbb84d8c9	-0.004054163
115	0xbb4ec7d6	-0.0031552217
116	0x3a428a47	0.00074211176
117	0x3e054b52	0.13017014
118	0x3b2d6f2d	0.002646397
119	0xb9d3d4bf	-0.00040403564
120	0x3a3f654c	0.0007301166
121	0xba6db627	-0.00090679753
122	0xbb0809fa	-0.00207579
123	0x3c8e9023	0.017402714
124	0xbe4e733c	-0.20161146
125	0x3c906dc6	0.017630469
126	0x3e3865b4	0.18007547
127	0x3a7e7bbf	0.00097077707
128	0xbb39d019	-0.0028352796
129	0xba053de4	-0.000508277
130	0xbc872c8c	-0.016500734
131	0x3dd7c5ad	0.105357505
132	0xbaccd375	-0.0015626984
133	0xbc807815	-0.01568226
134	0xb8f653d0	-0.000117458054
135	0x3f028653	0.5098621
136	0xbcac2ea6	-0.021018337
137	0x3c8cab21	0.017171444
138	0xbb9995a3	-0.0046870275
139	0x3a08690b	0.0005203641
140	0x3ac2eae1	0.0014871025
141	0x3a5f4537	0.0008517089
142	0xb912aa21	-0.00013987023
143	0xbe2786f2	-0.16360071
144	0xbd5cdcc3	-0.053921472
145	0xba5c8411	-0.00084120134
146	0xb9995f78	-0.00029253564
147	0xbbbde459	-0.0057950434
148	0x3d15ece5	0.036602873
149	0x39399cd9	0.00017701405
150	0xbe410900	-0.1885109
151	0x396d885e	0.00022652882
152	0x3b5defb9	0.003386481
153	0xbd9b6b73	-0.07588854
154	0x3a9c90c0	0.0011944994
155	0x394a81ec	0.00019312621
156	0x3d176351	0.03695995
157	0xb917cce9	-0.00014476817
158	0xba286cb8	-0.0006424892
159	0x3b5573f9	0.0032570346
160	0xb90a4cae	-0.00013189271
161	0x3d2b7600	0.04186058
162	0xbb3519ad	-0.0027633712
163	0xba1c45f9	-0.00059613545
164	0xba66f6a4	-0.0008810556
165	0xb8c968cc	-9.603947e-05
166	0x3aa7e16c	0.001280827
167	0x3a8a6a4d	0.0010560245
168	0xbcd35374	-0.02579663
169	0xbb6d6cd7	-0.0036228204
170	0xbb4c50a3	-0.0031175993
171	0xbce1fb4e	-0.027585652
172	0x3b094202	0.0020943885
173	0xbdf975c0	-0.12180662
174	0x38acb2e1	8.234918e-05
175	0xba81e2cf	-0.0009909513
176	0xba2e5ac0	-0.0006651096
177	0xb8da26ae	-0.00010402255
178	0xba4a523a	-0.0007717941
179	0xbc63f07b	-0.0139123155
180	0x39b725b2	0.00034932565
181	0x3e1bbebe	0.15209481
182	0xbaa792f2	-0.0012784882
183	0xbb86fecf	-0.004119731
184	0xbac29267	-0.0014844657
185	0x3888746a	6.506669e-05
186	0xba736b5d	-0.0009285713
187	0x3c0f874b	0.008760284
188	0xbe332219	-0.17493476
189	0x3cd0699e	0.025440987
190	0x3e66ab50	0.22526288
191	0x39ffe892	0.00048810669
192	0xbbca129c	-0.006166769
193	0x3a838c7d	0.0010036376
194	0x3d9ae1b7	0.07562583
195	0x3dc1deff	0.09466361
196	0x3b4bbcf6	0.0031087971
197	0xbcaddc23	-0.021223133
198	0xb94bdcea	-0.00019441886
199	0x3e9c4ba7	0.30526468
200	0xbd4aa117	-0.049470033
201	0x3c34d5ad	0.011037272
202	0x3be32522	0.006931917
203	0xbac5a594	-0.0015079253
204	0xbc6813ac	-0.014164846
205	0x3cf08e6d	0.029364789
206	0xbac194a5	-0.0014769031
207	0x3cc7fd92	0.024412904
208	0xbd921fd4	-0.07134977
209	0x3ac362b1	0.0014906732
210	0x3a2d1575	0.00066026236
211	0xbc1179f2	-0.008879172
212	0xbb786568	-0.003790224
213	0xbac34914	-0.0014899098
214	0x3ca16ecc	0.019706152
215	0x3b4ea93f	0.0031533984
216	0x3b712f03	0.0036801703
217	0xbe0e4469	-0.13893284
218	0xbb46e50a	-0.003034892
219	0xb93b2601	-0.00017847867
220	0xbd4b6018	-0.04965219
221	0xb9520d70	-0.00020032167
222	0x3aa1d758	0.0012347503
223	0x3b264923	0.0025373183
224	0x3ae5fff7	0.0017547597
225	0xbe18d086	-0.14923295
226	0x3c198c05	0.009371762
227	0x3ac0e182	0.0014715644
228	0xbb17e010	-0.0023174323
229	0x3abe5919	0.0014522403
230	0x3b1573b7	0.0022804567
231	0x3b2ca8ce	0.0026345733
232	0xbdb2fd36	-0.087397024
233	0x3c92e85e	0.017933067
234	0x3bbee790	0.0058259442
235	0x3df4b311	0.11948217
236	0xba456800	-0.0007530451
237	0xbe46e722	-0.19424108
238	0x3a117540	0.00055487826
239	0x3a83ca6a	0.0010054831
240	0x3b1b1972	0.002366629
241	0xbaefb807	-0.0018289097
242	0x3b97096e	0.0046092784
243	0xbb965e54	-0.0045888815
244	0xba46e704	-0.00075875246
245	0x3e33e322	0.17567113
246	0xbc2cb7b8	-0.010541849
247	0xb901ddda	-0.00012385045
248	0x3b466730	0.0030273907
249	0x3ade65dc	0.0016967612
250	0x3af23040	0.0018477514
251	0x3bba7520	0.005690232
252	0xbe276197	-0.16345821
253	0x3cb7c7a8	0.02243407
254	0x3e757e24	0.239739
255	0x3bf911aa	0.0076009827

encoder_layer3.bias f4 [32]
0	0x3dd76923	0.105181
1	0x3c54c464	0.012986276
2	0x3d1a1544	0.037617937
3	0x3da8f4d5	0.08249823
4	0xbd5f6db1	-0.05454797
5	0x3e042f9d	0.12908788
6	0x3d3ead1c	0.04655181
7	0xbd2a7f27	-0.04162517
8	0xbd7abee5	-0.061217207
9	0xbda311f9	-0.079624124
10	0x3c4c0906	0.012453323
11	0xbd360955	-0.044442493
12	0x3caffde4	0.02148337
13	0x3f3fe835	0.74963695
14	0x3f906760	1.1281548
15	0x3db73c07	0.08946996
16	0xbe1a9634	-0.1509636
17	0xbcbb9b77	-0.02290128
18	0xbd2caeee	-0.042159013
19	0x3e3ce294	0.18445808
20	0x3e16cab2	0.1472576
21	0xbd32e465	-0.043674845
22	0xbbb4d24c	-0.0055182334
23	0xbd0ca5b2	-0.034337707
24	0xbd128210	-0.03576857
25	0xbd077dc6	-0.03307893
26	0x3d0a93b7	0.033832278
27	0xbd4fba1e	-0.050714605
28	0xbe3dd343	-0.18537621
29	0xbcd8abb4	-0.026449062
30	0x3cd97f5d	0.02654999
31	0xbd9b3dfc	-0.07580182

encoder_layer_mu.weight f4 [2, 32]
0	0xbe788246	-0.24268445
1	0x3e823f59	0.25438955
2	0x3de39aba	0.11113496
3	0x3e174806	0.14773569
4	0xbdee9cbc	-0.116509885
5	0xbddca6d8	-0.107740104
6	0x3ddb6c52	0.1071402
7	0x3e8b3e2f	0.2719588
8	0xbe1a982d	-0.15097113
9	0x3e6e6d0c	0.23283786
10	0xbea2ad94	-0.31773055
11	0xbe861562	-0.2618819
12	0x3d260c98	0.040539354
13	0xbd1aa525	-0.03775515
14	0x3d4a5416	0.049396597
15	0xbe8b46a6	-0.27202338
16	0x3de03d74	0.10949221
17	0xbe6af1b8	-0.22943771
18	0xbdc4d7a9	-0.096114464
19	0xbe9d6607	-0.30741903
20	0xbdae5b53	-0.085135125
21	0x3e1e5451	0.15461852
22	0xbe67991c	-0.22617
23	0xbe861d26	-0.26194113
24	0x3e3a4e6b	0.18193977
25	0x3e9eb0b8	0.309942
26	0xbea3ca46	-0.3199026
27	0x3dcf7f63	0.10131719
28	0x3e24374f	0.16036724
29	0xbe739e66	-0.23790893
30	0x3ea6e22a	0.32594424
31	0x3dcc76a9	0.0998357
32	0xbdf52ed8	-0.11971825
33	0x3ca6ede5	0.020377109
34	0xbe620137	-0.22070776
35	0xbe0b3010	-0.13592553
36	0x3e5e61ab	0.21716945
37	0xbe93492a	-0.28766757
38	0x3e52ba03	0.2057877
39	0x3e0e61e5	0.13904531
40	0x3e4743c3	0.19459443
41	0x3d9a9080	0.075470924
42	0x3d037cc7	0.03210142
43	0x3d854b5f	0.065085165
44	0xbe0c89fe	-0.13724515
45	0xbd56032d	-0.052249122
46	0x3c9a88a4	0.018863983
47	0x3bcd9d1f	0.006274834
48	0x3e1b480a	0.151642
49	0xbb8fce4a	-0.0043886052
50	0x3e632644	0.22182566
51	0xbd519c2e	-0.051174335
52	0xbe316bc5	-0.17326267
53	0x3e3ea19c	0.18616337
54	0x3e24f5b8	0.1610936
55	0x3d7bbb50	0.061457932
56	0xbd20ae0f	-0.039228495
57	0x3b73d92a	0.0037208297
58	0xbd87529c	-0.06607553
59	0xbe35ab7b	-0.17741196
60	0x3df3334a	0.11875017
61	0xbd2d9337	-0.042376723
62	0xbd42a419	-0.047519777
63	0x3e4cd498	0.20002973

encoder_layer_mu.bias f4 [2]
0	0x3d9b708b	0.07589825
1	0xbe12c80f	-0.14334129

encoder_layer_sigma_square.weight f4 [2, 32]
0	0x3c16f63b	0.009213979
1	0x3e1ff425	0.15620477
2	0x3e258486	0.16163835
3	0x3dfb9a37	0.122852735
4	0x3dee4422	0.11634089
5	0x3dd17ced	0.10228906
6	0xbd675ae6	-0.056483172
7	0x3defed86	0.11715226
8	0x3e1de997	0.15421139
9	0x3e2503b0	0.16114688
10	0x3e22bb2a	0.1589171
11	0x3e3403e6	0.17579612
12	0x3da2c113	0.07946982
13	0xbf6ac110	-0.9170084
14	0xbf9ddde8	-1.2333345
15	0x3df1f5de	0.118144736
16	0x3e4accec	0.19804734
17	0x3de9fe92	0.114255086
18	0x3da54b45	0.08070997
19	0xbd180569	-0.037114535
20	0xbdb4cc6d	-0.088280536
21	0x3e1717d1	0.14755179
22	0x3dea2a99	0.11433906
23	0x3d8c2b74	0.068442255
24	0x3e2dd7e3	0.16976885
25	0x3dfe4b97	0.12416761
26	0x3df81f5e	0.12115358
27	0x3e06e2cd	0.13172455
28	0x3e71a668	0.23598635
29	0x3e2855f1	0.16439034
30	0x3dc97f75	0.098387636
31	0x3d98e49e	0.0746548
32	0xbcf19952	-0.029492054
33	0x3d896837	0.067093305
34	0x3e6dae44	0.23211008
35	0x3e22592a	0.15854326
36	0x3e295a95	0.1653846
37	0x3dc3258e	0.09528647
38	0xbe1b3d5b	-0.15160124
39	0xbc461217	-0.012089274
40	0x3e318495	0.17335732
41	0x3d3c5357	0.045977917
42	0x3e1c7a43	0.15281014
43	0x3e515f50	0.20446515
44	0x3e0c82d5	0.13721783
45	0xbf812808	-1.0090342
46	0xbfb579e2	-1.4177821
47	0x3e06de1b	0.13170664
48	0x3df02bf6	0.11727135
49	0x3de9fc1a	0.11425038
50	0x3df5c47e	0.120003685
51	0xbda4d7a4	-0.08048943
52	0xbdcd1404	-0.10013583
53	0x3d2bc4e1	0.041935805
54	0x3e2eff89	0.17089666
55	0x3db2f7ce	0.08738671
56	0x3e5f7525	0.21822031
57	0x3dea0dc3	0.11428406
58	0x3d982be8	0.074302495
59	0x3e5d9182	0.21637538
60	0x3df77e57	0.12084644
61	0x3dc49b4e	0.095999345
62	0x3d3f17aa	0.046653427
63	0x3d8669d2	0.065631524

encoder_layer_sigma_square.bias f4 [2]
0	0xbf64eee8	-0.8942704
1	0xbf8931ce	-1.0718324

decoder_layer1.weight f4 [32, 2]
0	0xbe4bb1d0	-0.19892049
1	0x3f28f6f9	0.6600185
2	0xbe33a295	-0.17542489
3	0xbe9df2fe	-0.3084945
4	0xbb7ed104	-0.0038881907
5	0x3e278890	0.16360688
6	0xb89b16ac	-7.395199e-05
7	0x3b135bbe	0.0022485103
8	0xb9695a50	-0.00022254256
9	0x3b67db74	0.0035378607
10	0x39bd0626	0.0003605347
11	0xb9e9c3ba	-0.0004458705
12	0xbbb61777	-0.0055569964
13	0x3e125dd3	0.14293604
14	0x36ff7d40	7.6141732e-06
15	0x3d06b67c	0.032888874
16	0x39c447cd	0.0003743753
17	0xb9da6832	-0.00041657832
18	0xbc9ca426	-0.01912124
19	0x3e4d86b6	0.2007092
20	0xbc6970ee	-0.014248116
21	0x3c63ab9d	0.013895896
22	0xbdd26a0e	-0.102741346
23	0x3f1523ac	0.58257556
24	0xbb3ace0e	-0.0028504166
25	0x3d0476ca	0.03233985
26	0xbc8fa24b	-0.017533442
27	0x3dbd89cb	0.092547975
28	0xbf20c44f	-0.62799543
29	0xbdb753de	-0.08951543
30	0x3b17646a	0.0023100623
31	0xbdb69d35	-0.089167036
32	0xbb4ba598	-0.0031074043
33	0x3c6dbe36	0.014510682
34	0xb991b677	-0.00027792502
35	0x3cdfe4d3	0.027330792
36	0xbe806093	-0.2507368
37	0x3b9fc6c3	0.004875989
38	0xbb0db6aa	-0.002162377
39	0x3c60b0f2	0.013714062
40	0xbe86a15c	-0.26294982
41	0xbee254ee	-0.4420542
42	0xba88c6ce	-0.0010435225
43	0xbb14921c	-0.0022670096
44	0x3ef17f61	0.47167495
45	0xbecf080f	-0.40435836
46	0xb961a408	-0.00021518779
47	0x3b71b9dd	0.0036884465
48	0xbcd26a14	-0.025685348
49	0x3de76b0f	0.11299717
50	0xb75786c1	-1.28463735e-05
51	0xb68832bc	-4.059022e-06
52	0x3e573382	0.21015742
53	0xbea42566	-0.32059783
54	0x3de49f10	0.11163151
55	0xbea4faab	-0.32222494
56	0xbe909c95	-0.28244463
57	0xbed03fa8	-0.40673566
58	0xbb9f40e8	-0.0048600323
59	0x3cd61131	0.026131244
60	0x3e956e97	0.29185936
61	0x3e06dcb0	0.13170123
62	0xbc697bb2	-0.014250683
63	0x3e002a34	0.12516099

decoder_layer1.bias f4 [32]
0	0xbef44301	-0.4770737
1	0x3e51a017	0.20471226
2	0x3e72b5ff	0.23702239
3	0x3a284c5e	0.0006420071
4	0x3a8730fa	0.0010314279
5	0xbaafca75	-0.0013411777
6	0x3d249b7f	0.040187355
7	0x3c1eb415	0.00968649
8	0xba13f5a9	-0.0005644211
9	0x3df559ca	0.119800165
10	0x3d892af4	0.06697646
11	0xbe87774b	-0.264582
12	0x3cf56889	0.029957073
13	0x3dbb5609	0.09147269
14	0xbe23c3d9	-0.15992679
15	0xbd9391bb	-0.0720553
16	0x3c9500e5	0.018188903
17	0x3c5f00df	0.0136110475
18	0x3e821944	0.254099
19	0x3c505740	0.0127161145
20	0x3eaf470b	0.3423389
21	0x3a86afc7	0.0010275774
22	0xbee8b36b	-0.45449385
23	0x3c806ab1	0.015675874
24	0x3e0b199c	0.13583988
25	0xb75a41d2	-1.3009138e-05
26	0xbec20531	-0.37894586
27	0xbea4fd12	-0.32224327
28	0x3efd5383	0.49477777
29	0x3d11330e	0.03544908
30	0xbe8f6e52	-0.28013855
31	0x3db173ae	0.08664642

decoder_layer2.weight f4 [32, 32]
0	0x3d98b26c	0.07455906
1	0x3bf87d73	0.007583314
2	0xbdf994b7	-0.12186568
3	0xbc307a4c	-0.010771345
4	0xbc2949ee	-0.010332568
5	0x3c9e9717	0.019359155
6	0xbde7a24c	-0.113102525
7	0xbd6210cc	-0.0551918
8	0xbbf071c6	-0.0073377816
9	0xbd7b44e8	-0.06134501
10	0x3dbbf880	0.09178257
11	0x3d9fdca1	0.078057535
12	0xbda6d6f9	-0.081464715
13	0xbd2e39ac	-0.04253547
14	0xbe978a30	-0.29597616
15	0x3dae46f1	0.08509625
16	0xbd9da1b4	-0.07696858
17	0xbd58d33e	-0.05293583
18	0x3db674df	0.0890901
19	0xbd2650fd	-0.04060458
20	0x3d8181ff	0.06323623
21	0x3cd90173	0.026489949
22	0xbe7d3ec7	-0.24730979
23	0xbb98ed16	-0.0046669347
24	0xbe03ef85	-0.12884338
25	0x3863a9b1	5.4279055e-05
26	0xbc0a0f36	-0.008426478
27	0xbc2e69cd	-0.010645342
28	0xbe24ae2f	-0.16082071
29	0xbda8c69f	-0.08241009
30	0xbe75fc35	-0.2402199
31	0xbd9a8380	-0.07544613
32	0x3b7a003e	0.0038147117
33	0x3e8c42aa	0.2739461
34	0xbe9be387	-0.30447027
35	0xbb8574af	-0.0040727477
36	0xbbd776ff	-0.0065754647
37	0xbb2070f9	-0.00244814
38	0xbdf18b7c	-0.11794183
39	0xbcabf493	-0.020990646
40	0x3b376689	0.00279847
41	0xbe4be4d3	-0.19911508
42	0xbd90d32e	-0.07071529
43	0xbd5b7b45	-0.053584356
44	0xbce5087a	-0.027958144
45	0xbde93e68	-0.11388856
46	0x3ee53791	0.44768956
47	0x3db00334	0.08594361
48	0xbc7d5793	-0.015462774
49	0xbcf34c41	-0.029699447
50	0x3c527950	0.012846306
51	0xbc3ad1b4	-0.011402536
52	0x3ebe2bfa	0.37142926
53	0xbba1fc86	-0.004943433
54	0x3e9f8dd3	0.3116289
55	0xbd4fef68	-0.050765425
56	0xbe3843be	-0.17994592
57	0xb864efd1	-5.4582782e-05
58	0x3f08b319	0.5339828
59	0x3e5f05d0	0.21779561
60	0x3e0a62d8	0.13514268
61	0xbce906c7	-0.028445615
62	0x3d334ecc	0.04377632
63	0xbe0c801e	-0.13720748
64	0x3d490e34	0.04908581
65	0x3c8c03fd	0.017091746
66	0xbc59c97c	-0.0132926665
67	0xb87a4d4d	-5.9676637e-05
68	0x3a69df86	0.0008921552
69	0xb98bc45e	-0.0002665845
70	0x3bcf31ce	0.006323076
71	0xbc2ad54a	-0.010426829
72	0xbb61f6bc	-0.003447934
73	0xbcc40dd5	-0.023932377
74	0xbae6f0ca	-0.0017619368
75	0x3b189a05	0.0023285162
76	0x3b20ac38	0.0024516713
77	0x3c8b0428	0.016969755
78	0xbd65f0d2	-0.056137867
79	0x3c3d11fc	0.011539932
80	0x3bc98b09	0.0061506075
81	0xbb7b2cd2	-0.0038326276
82	0x3d772a81	0.06034327
83	0xbcd03677	-0.025416596
84	0x3c797f26	0.015228068
85	0x3b05fc9a	0.0020444752
86	0x3c53366b	0.012891392
87	0x3b1b8339	0.0023729338
88	0xbc7508dd	-0.014955726
89	0x3931ce5d	0.00016956912
90	0xbc470d2c	-0.0121491365
91	0x3c964ef1	0.01834819
92	0x3b98ad12	0.0046593035
93	0xbc904b22	-0.017613951
94	0xbc57d926	-0.013174331
95	0x3c9362db	0.017991474
96	0x3db1dd89	0.086848326
97	0x3dbcbfcb	0.09216269
98	0xbd70f101	-0.05882359
99	0x3b863fa2	0.004096941
100	0x3b8a2137	0.0042153853
101	0xbaaa7587	-0.0013004997
102	0x3cc317b8	0.02381502
103	0x3d60088c	0.05469565
104	0x3bb2c44c	0.0054555293
105	0x3ccff622	0.02538592
106	0xbd8209d9	-0.063495345
107	0x3d807ce6	0.062738225
108	0x3d4dd0c9	0.05024794
109	0xbcba6f0d	-0.022758031
110	0xbde62d5b	-0.112391196
111	0x3bc343ac	0.005958995
112	0x3c2d3865	0.010572528
113	0x3c59db05	0.013296847
114	0xbdec8e4a	-0.11550577
115	0xbb0af81d	-0.0021205016
116	0x3d60fbb1	0.05492753
117	0xbbe989c9	-0.007127021
118	0xbd66850e	-0.056279235
119	0xbd0a2732	-0.033728786
120	0xbc5adffe	-0.013359068
121	0x39ff0757	0.0004864286
122	0xbd99f553	-0.07517495
123	0x3d2c4683	0.042059433
124	0x3d8a46fe	0.06751822
125	0xbc86ed71	-0.016470643
126	0x3c66d26e	0.014088256
127	0xbd389dc9	-0.04507235
128	0x3da6a365	0.08136634
129	0xbe226299	-0.15857925
130	0xbdd562f0	-0.104192615
131	0xbcd7b660	-0.02633208
132	0xbd24355a	-0.040089943
133	0xbca7512e	-0.020424452
134	0xbe0ca721	-0.1373563
135	0xbd46d7e2	-0.048545726
136	0x3c7d5b98	0.015463732
137	0x3bc28242	0.005935938
138	0xbda5387c	-0.08067414
139	0x3e2a08b8	0.16604888
140	0xbc1b1575	-0.009465565
141	0xbe02e9e0	-0.12784529
142	0xbe8aeabc	-0.27132213
143	0x3de72c02	0.11287691
144	0x3c2b8f69	0.010471203
145	0xbdacb090	-0.08432114
146	0x3db4bf6a	0.08825572
147	0xbaa09519	-0.0012251466
148	0xbdebc453	-0.11512055
149	0xbb0a4383	-0.002109737
150	0x3d096889	0.033546958
151	0xbdd43af5	-0.10362808
152	0xbd186d96	-0.037213884
153	0xb80b59a7	-3.3223678e-05
154	0x3df2d7d7	0.118575744
155	0xbd06e3fc	-0.032932267
156	0xbebc4b97	-0.3677642
157	0x3c6eb482	0.014569404
158	0xba5f355c	-0.0008514726
159	0xbe0b298e	-0.1359007
160	0x3d85711d	0.06515715
161	0xbdc73bf5	-0.09728233
162	0x3b621c51	0.0034501741
163	0x3b4931eb	0.003069992
164	0x3b93f38d	0.0045151175
165	0xb9bd289d	-0.00036079148
166	0x3ca7f2f0	0.020501584
167	0x3affb162	0.001950782
168	0xbae7b229	-0.0017676997
169	0x3c11fb36	0.008909991
170	0xbd24ba59	-0.040216777
171	0x3d2f4ffa	0.04280088
172	0xbbf445ba	-0.007454601
173	0xbca2ce8e	-0.019873884
174	0xbd6fe575	-0.058568437
175	0x3b507595	0.0031808366
176	0xbbbb1c43	-0.005710156
177	0x3c09af75	0.008403649
178	0xbc48383a	-0.012220437
179	0xbcab7647	-0.020930422
180	0x3e1d1a4b	0.15342061
181	0xbb4f1de4	-0.003160351
182	0xbbf1669c	-0.0073669683
183	0xbb321f7a	-0.0027179406
184	0xbbbad6ac	-0.0057018604
185	0xb7cb5a4a	-2.424153e-05
186	0x3c1cc9d5	0.009569605
187	0x3d2bac5d	0.041912425
188	0x3ce124f0	0.027483433
189	0x3b1abfa9	0.0023612774
190	0x3cea15d5	0.028574863
191	0x3d7e49a4	0.062081948
192	0xbc7a1380	-0.015263438
193	0xbb2a1022	-0.0025949557
194	0x3b80ffdf	0.003936752
195	0xba16e157	-0.0005755624
196	0xba69135c	-0.00088911294
197	0xb9a37051	-0.00031173465
198	0xbbfe5014	-0.007761011
199	0xbae0ff99	-0.0017166018
200	0x39bd6697	0.00036125325
201	0xbba3024c	-0.004974639
202	0x3afa48e1	0.0019095206
203	0xbc6e5a3f	-0.0145478835
204	0xbb07dbcc	-0.0020730374
205	0xbb86b697	-0.004111122
206	0x3cd6c05c	0.026214771
207	0x3aa7516c	0.0012765354
208	0xbbc8938c	-0.0061211046
209	0xba2c282d	-0.0006567266
210	0xbc5ebee1	-0.013595314
211	0xbbc62850	-0.006047286
212	0x3d87aec4	0.06625131
213	0x3917ecef	0.00014488747
214	0xbc0e9022	-0.008701356
215	0x3bb8d831	0.0056410064
216	0x39b01056	0.00033581507
217	0x37c5ec7f	2.3594357e-05
218	0xbc7efa88	-0.015562661
219	0xbbb77e21	-0.0055997525
220	0xbdd4d2dd	-0.103917815
221	0xbc320ed4	-0.010867793
222	0xbc16a60f	-0.009194865
223	0xbc8f96b8	-0.017527923
224	0x3d805905	0.06266979
225	0x3c26d462	0.010182472
226	0xbcfa6abc	-0.030568473
227	0x3a3ae38c	0.0007129244
228	0x3ae157d5	0.0017192314
229	0x3a763465	0.00093919627
230	0xbc31f158	-0.0108607635
231	0xbbc38ab7	-0.005967464
232	0xba8ee3b5	-0.0010901602
233	0xbcf8f3c7	-0.03038968
234	0x3c8520ff	0.016251085
235	0x3d7cb52f	0.061696228
236	0xbb547c66	-0.003242278
237	0x3cd25a12	0.025677714
238	0xbdde51ac	-0.108554214
239	0x3bbd6773	0.0057801544
240	0xbbb4beb9	-0.0055159
241	0xbb7400cf	-0.0037231927
242	0x3dbc3d06	0.09191327
243	0x3c18bc24	0.0093222
244	0x3d8c3646	0.06846289
245	0xba551988	-0.00081291096
246	0xbb9fe361	-0.0048794006
247	0xbc71d6bb	-0.014760668
248	0xbc94808f	-0.018127708
249	0xb7bedfd8	-2.2754e-05
250	0x3dc7dfc2	0.09759475
251	0xbc1afb03	-0.00945926
252	0xbd14a7ea	-0.036292948
253	0xbbccc586	-0.0062491326
254	0xbd89dad0	-0.06731188
255	0x3cd68705	0.02618743

decoder_layer2.bias f4 [32]
0	0x3d99b1a5	0.07504586
1	0xbeea5362	-0.4576674
2	0x3b149a49	0.002267497
3	0xbb58e493	-0.0033095225
4	0xbdc31106	-0.09524731
5	0xbc6adf14	-0.0143354125
6	0x3c7cb9dc	0.015425172
7	0x3cd0e4d1	0.025499733
8	0x3d0585e0	0.032598376
9	0x3cc3f8f8	0.023922428
10	0x3d0474e8	0.032338053
11	0x3d03b3e0	0.032153964
12	0xbd30f59e	-0.04320299
13	0x3d120682	0.035650738
14	0x3cf3deb0	0.029769272
15	0x3d84c97d	0.06483743
16	0x3cc75b23	0.02433545
17	0xbc48747c	-0.012234803
18	0x3b4cc243	0.0031243719
19	0xbe4f69c4	-0.2025519
20	0x3beefd6a	0.007293393
21	0xbcc8cdc4	-0.02451218
22	0x3d74d971	0.05977768
23	0x3d386997	0.045022573
24	0x3c2527dc	0.010080304
25	0x3cfb0e93	0.030646598
26	0xbe09e374	-0.13465673
27	0x3c84d9a2	0.016217057
28	0x3c27151b	0.010197903
29	0x3d621f8a	0.05520586
30	0x3c737066	0.014858341
31	0x3d0a83e2	0.03381718

decoder_layer3.weight f4 [32, 32]
0	0x3daaa8f6	0.08333008
1	0x3dc699d3	0.096973084
2	0x3c4356d5	0.011922558
3	0x3ce014db	0.027353695
4	0xbe5fb882	-0.21847728
5	0xbd0ef84f	-0.034904774
6	0xbc25ebce	-0.010127021
7	0x3ca04b92	0.019567285
8	0xbc934a6d	-0.017979825
9	0x3cd2caa8	0.0257314
10	0xbc4fbccb	-0.012679289
11	0xbbb20482	-0.0054326663
12	0x3ba05555	0.004892985
13	0x39b9bad0	0.00035425136
14	0x3b3f5d6c	0.002919997
15	0x3be7d664	0.007075118
16	0x3c3701c1	0.011169852
17	0x3c023828	0.007947959
18	0x3ac6f479	0.001517906
19	0x3e005adc	0.1253466
20	0xbb94f935	-0.0045463094
21	0xbc542ad9	-0.012949669
22	0xbc002e0d	-0.007823479
23	0xbbcb8c19	-0.0062117693
24	0xba654acf	-0.0008746804
25	0x3b4d0f2b	0.0031289558
26	0xbd591673	-0.052999925
27	0x38f3e10a	0.0001162906
28	0xbb29d0ee	-0.0025911885
29	0xbb679e5b	-0.003534219
30	0xbc538ee3	-0.012912485
31	0x3b2f9479	0.0026791377
32	0xbd9340c2	-0.07190086
33	0x3efb3959	0.4906719
34	0x3a8cbbed	0.0010737159
35	0x3cadc1c0	0.021210551
36	0x3d90015a	0.07031508
37	0x3ce9150c	0.028452419
38	0xbc3f1e14	-0.011664886
39	0x3c22d421	0.009938271
40	0x3b6f5ac0	0.0036522597
41	0x3bf60db3	0.0075089573
42	0xbc83bf21	-0.016082348
43	0x3b48dcb3	0.0030649125
44	0xbe852875	-0.2600743
45	0xbbfd0202	-0.0077211866
46	0xbc0755ef	-0.008260234
47	0xbba4f162	-0.005033658
48	0xbb994672	-0.004677587
49	0xbc6c28c3	-0.014414015
50	0x3b557ea0	0.0032576695
51	0x3e25b2b3	0.1618145
52	0x3cb6fc4c	0.022337101
53	0x3c9cbd53	0.019133246
54	0xbd6ffbfc	-0.05858992
55	0x3c5d16ea	0.013494233
56	0xbad668cf	-0.001635814
57	0xbbb66ae2	-0.0055669406
58	0x3e453fc2	0.19262603
59	0xb9a2a0a8	-0.00031018746
60	0xb894404c	-7.069166e-05
61	0xbc822a5f	-0.015889345
62	0x3aa8a27f	0.001286581
63	0xbbffcf66	-0.0078067062
64	0xbd87aa68	-0.06624299
65	0x3e6be050	0.23034787
66	0xbb174c0f	-0.0023086106
67	0xbd2d5ca1	-0.042324666
68	0xbe65d18b	-0.22443216
69	0xbcebf281	-0.028802158
70	0x399ac17a	0.0002951732
71	0xbbcc171e	-0.0062283417
72	0x3b401820	0.0029311255
73	0x3b14e1b9	0.002271755
74	0x39bfc0b8	0.00036573946
75	0xb9b8b2f1	-0.00035228537
76	0x3ebd9984	0.37031186
77	0x3bd4de40	0.006496221
78	0x3955b0ea	0.00020379169
79	0x3c0a8d63	0.008456561
80	0xbc682be0	-0.014170617
81	0x3bde9eb0	0.0067938194
82	0xbb7628d3	-0.0037560954
83	0xbf2b6d4f	-0.66963667
84	0x3c9f2b00	0.019429684
85	0xbb6fa6ee	-0.0036568004
86	0xbd3809b5	-0.044931132
87	0xba456f3f	-0.00075315306
88	0x3bbabfb7	0.0056991237
89	0x3bf69819	0.0075254557
90	0xbdfea447	-0.12433677
91	0xbba03551	-0.0048891683
92	0x3a7c318c	0.000962042
93	0x3b87a7c5	0.0041398727
94	0xbb76274f	-0.003756005
95	0x3bd29d9b	0.0064274794
96	0x3bed40e6	0.0072404025
97	0x3c116cd6	0.008876046
98	0xbc569f84	-0.013099555
99	0x3bb77ad6	0.00559936
100	0x3e274276	0.16333947
101	0xbc06300c	-0.008190166
102	0x3c57fa27	0.0131822
103	0xbc0f182e	-0.008733792
104	0x3c9b4245	0.018952498
105	0xbc823175	-0.015892724
106	0x3c536eec	0.012904864
107	0x3b3cdbd9	0.0028817563
108	0xbbd9fdc5	-0.006652566
109	0x3c0b98f6	0.008520355
110	0x3a31617c	0.00067665405
111	0xbc120512	-0.008912342
112	0xbc75b61c	-0.014997032
113	0xbb43718d	-0.002982232
114	0xbba1ab86	-0.0049337773
115	0xbd63cd14	-0.0556155
116	0xbbdc07c8	-0.006714795
117	0xbc084fee	-0.008319838
118	0xbd38c954	-0.045113876
119	0xbada93ee	-0.0016676167
120	0xbacadfe5	-0.0015478103
121	0xbc80836f	-0.015687672
122	0x3c406afd	0.011744258
123	0x3bf46ad0	0.007459022
124	0x3a87257b	0.0010310853
125	0x3c25664d	0.010095191
126	0x3c4f2d6b	0.012645106
127	0x3b960717	0.004578482
128	0xbcfd92df	-0.030953823
129	0xbc59997f	-0.013281225
130	0x3bb90a7b	0.0056470013
131	0xba9222d0	-0.0011149291
132	0xbd8578fd	-0.06517217
133	0x3b83d07d	0.0040226565
134	0xbb2f159e	-0.0026715766
135	0xbbf1a75d	-0.0073746876
136	0xbbcb13ed	-0.0061974437
137	0xba268de4	-0.0006353541
138	0x3ab6f32c	0.0013957969
139	0xbb1e04f0	-0.002411183
140	0xbb4c9ab9	-0.0031220152
141	0xbc44dc68	-0.01201544
142	0xbb3a98d9	-0.0028472452
143	0xbb5cb849	-0.0033679178
144	0x391bfb4b	0.00014875566
145	0x3c0a4c11	0.008440987
146	0x3be40910	0.006959088
147	0x3b25b6d2	0.0025285971
148	0x3b03363b	0.0020021338
149	0x3bdd2b22	0.0067495266
150	0xbc9d11e1	-0.019173564
151	0x3b511119	0.003190106
152	0xbc782c55	-0.015147288
153	0xbacb9075	-0.0015530722
154	0xbc16027b	-0.009155865
155	0x3b059ec8	0.002038883
156	0xbc61d0a3	-0.013782653
157	0xbc9a69e4	-0.01884932
158	0xbae54d72	-0.0017494394
159	0xbc8390cf	-0.016060261
160	0x3d034762	0.032050498
161	0x3d90e3e9	0.070747204
162	0x3c622aad	0.01380412
163	0x3c6e2f15	0.014537592
164	0x3da2b011	0.07943738
165	0xbd0e325a	-0.034715988
166	0xbb68d756	-0.003552874
167	0xbd4079ad	-0.04699104
168	0xbc59a643	-0.013284269
169	0xbc948fe7	-0.018135024
170	0x3c945707	0.018107904
171	0xbac17067	-0.001475823
172	0x3cf90a5f	0.030400453
173	0x3a319c8f	0.0006775343
174	0x3c2fdb74	0.010733474
175	0xbc753b77	-0.014967791
176	0xbca90f5c	-0.020637207
177	0xbc6f83dd	-0.014618841
178	0x3d21a01e	0.03945934
179	0xbb52b58f	-0.0032151674
180	0xbb23443b	-0.0024912495
181	0xbcb34fc5	-0.021888623
182	0x3d73432c	0.059390232
183	0x3ad7b9fd	0.0016458627
184	0x3b4e54f8	0.003148375
185	0xbd581e1c	-0.05276309
186	0x3c548469	0.012971022
187	0xbbf3c9ba	-0.007439819
188	0xbc8fc734	-0.017551042
189	0x3a96e734	0.0011512996
190	0x3c42abaf	0.011881753
191	0x3ccd7e19	0.025084542
192	0xbc8ef5b0	-0.017451137
193	0x3c46a7ce	0.012124969
194	0x3b3c00ed	0.0028687075
195	0xbc88ccad	-0.01669916
196	0x3c4f67ef	0.012659057
197	0xbb8c0ce8	-0.0042739995
198	0x3b3b8513	0.0028613254
199	0xbc31e81e	-0.010858564
200	0xbaa65194	-0.0012689107
201	0xba79fd5a	-0.00095363485
202	0x3b92aec0	0.004476398
203	0xbad92293	-0.001656609
204	0xba907164	-0.0011020121
205	0xba5c7dba	-0.00084110687
206	0xba13b0ce	-0.0005633951
207	0xbb0d60c0	-0.002157256
208	0xba726337	-0.00092463515
209	0x3bc12aa7	0.005894977
210	0x3bc54c1f	0.006021037
211	0x3bfb5d6d	0.0076710493
212	0x3bab5b74	0.005229408
213	0x3baa1715	0.00519074
214	0x3a1d5c61	0.000600284
215	0x3baddaa8	0.005305607
216	0x3c466ae8	0.012110449
217	0x3bf0acdd	0.0073448257
218	0xbcb0f7f1	-0.021602603
219	0x3b56bc48	0.0032766033
220	0xbc12024a	-0.008911679
221	0xbc2564e6	-0.010094857
222	0xbb100c76	-0.0021980084
223	0xbbf62f24	-0.007512944
224	0xbbc21791	-0.0059232195
225	0xbbf96c97	-0.007611822
226	0xbb7aff40	-0.0038299114
227	0x3c00f986	0.007871991
228	0x3ddb711e	0.10714935
229	0x3ba51709	0.0050381464
230	0x3b283f1e	0.0025672386
231	0xbd1b80e3	-0.037964713
232	0x3b98413d	0.004646449
233	0xbbf22d57	-0.007390659
234	0x3bde4869	0.0067835343
235	0x3abec300	0.0014553964
236	0xbb8843e3	-0.0041584834
237	0x3b374acd	0.0027968169
238	0x3b8b8308	0.0042575635
239	0xbbfd4bcc	-0.007729983
240	0xbc06ffaa	-0.008239666
241	0x3992d9ce	0.00028009567
242	0x3ba252c6	0.004953715
243	0xbd2a6092	-0.041596003
244	0xbb0f4e96	-0.002186691
245	0xbbc6801c	-0.0060577523
246	0x3c2fe37c	0.010735389
247	0x3bfb847b	0.007675705
248	0xbba6de20	-0.0050923973
249	0xbc60a151	-0.013710336
250	0x3c855961	0.01627797
251	0x3bbf4ec5	0.0058382475
252	0xbb5cbf32	-0.0033683297
253	0x3b3faf6c	0.0029248847
254	0x3c17825b	0.009247388
255	0xba124df5	-0.00055810745

decoder_layer3.bias f4 [32]
0	0xbce32c15	-0.02773098
1	0x3d1abe0e	0.037778907
2	0x3e200884	0.15628248
3	0x3cf5e18c	0.030014776
4	0xbcb90227	-0.022584034
5	0x3d61cef5	0.05512901
6	0x3bbbbf45	0.005729588
7	0x3c8e289d	0.01735335
8	0xbd9c3dfb	-0.07629009
9	0x3c978d58	0.018500015
10	0xbd19b328	-0.037524372
11	0xbb0228ef	-0.0019860824
12	0x3d3f7ee9	0.04675189
13	0xbd176685	-0.036963005
14	0x3ba5c389	0.00505871
15	0x3ba217aa	0.0049466686
16	0x3c99f5a5	0.01879389
17	0xbc81a871	-0.01582739
18	0xbca37196	-0.019951623
19	0x3c54ff24	0.013000283
20	0x3c328438	0.010895781
21	0xbb79252c	-0.003801654
22	0x3dcda480	0.100411415
23	0x3d208d77	0.03919741
24	0x3cf07acb	0.029355427
25	0x3b1e6d9a	0.0024174214
26	0xbd9022e8	-0.07037908
27	0x3b642aa0	0.0034815446
28	0xbc0c71f2	-0.008572089
29	0x3d87f52f	0.06638562
30	0x3b88faa2	0.0041802684
31	0xbbdfd448	-0.006830726
