results/vae_models/Seeds.pt (torch, 334535 bytes, 75 tensors)

dof f4 [7]
2.3602204 2.386136 2.4996517 2.4952748 2.525416 2.3503518 2.468846
00000000: da0d 1740 74b6 1840 4bfa 1f40 95b2 1f40
00000010: 6aa0 2140 2a6c 1640 9301 1e40

encoder_layer1.weight f4 [128, 7]
-0.09933792 0.07791678 -0.0019346243 -0.05733443 0.0136301415 0.0839249 0.02672973 -0.063255094
0.26252553 0.19583546 -0.025792733 0.21996604 -0.8890155 -0.09195971 -0.039576057 0.04389024
-0.0020391368 0.013696453 0.009216571 -0.027739601 -0.018832736 -0.12063128 0.0491767 -0.015641076
0.024170747 -0.09812144 0.26710102 -0.004543843 0.55245125 -0.30268675 -0.63112813 0.018608226
-0.14165206 0.051877644 0.23071066 0.042279147 -0.07300931 -0.0010395761 -0.017773576 0.0092960335
0.041314833 0.057561822 0.3600288 -0.19524357 -0.6284089 0.18487644 -0.37786952 -0.043163437
0.056172032 -0.12685446 -0.065765895 -0.033049554 0.15092815 -0.16696261 0.59123224 0.081696495
-0.072295204 0.039298404 -0.011586536 0.027621368 -0.07076382 0.14256531 -0.017854303 0.011527464
-0.016623538 0.0016190417 0.00090966 0.0029803147 0.015490491 0.0009482135 -0.0067097726 0.0139817875
0.0023016054 0.001881398 0.0013331458 -0.0025084568 0.010006798 -0.15199943 -0.17371246 -0.012213249
-0.06677094 -0.039072532 -0.045922138 -0.06490391 -0.14215246 -0.16274546 -0.011580091 -0.062468138
-0.03688571 -0.042154305 -0.060701203 -0.010709034 0.011175086 -0.0009003484 0.0026309434 0.002080746
-0.030145962 -0.0022937772 -0.0046050833 0.00023782904 0.0003403801 0.0037622005 -0.002022036 -0.012522124
0.0030428555 -0.13766596 -0.15902492 -0.011885675 -0.06243413 -0.037767522 -0.039690875 -0.060058046
0.023807477 -0.032810744 0.0021983718 0.026697274 -0.018209113 -0.0016143962 0.012946909 -0.117138505
-0.16117008 -0.0113446405 -0.058341477 -0.035550524 -0.03889358 -0.056354057 0.38032246 -0.10531398
-0.4101603 -0.006432501 -0.24835357 -0.08066371 -0.11256154 -0.15040234 -0.17254052 -0.012165756
-0.066449426 -0.03879155 -0.046038244 -0.06471994 0.44051945 -0.23753704 -0.4659975 0.045450784
-0.1017269 -0.15353803 -0.05794865 0.073174775 -0.03515107 -0.004509501 0.029955301 -0.058836054
-0.25910723 0.04303564 0.028244104 -0.032044396 0.0034977582 0.025043033 0.019876169 0.020787453
-0.034084618 -0.13530853 -0.15956509 -0.0115578035 -0.06109742 -0.036330644 -0.04216009 -0.05951688
-0.14680097 -0.17122352 -0.0121866 -0.0655731 -0.03866224 -0.044390652 -0.06381356 -0.12384232
-0.17334904 -0.012520625 -0.065012224 -0.039746143 -0.043781713 -0.06690432 -0.010717638 0.011105307
0.0052644555 0.021884914 0.0071272114 -0.02618823 0.007361034 -0.13596283 -0.15724505 -0.011352073
-0.060526405 -0.03582783 -0.042062018 -0.058908883 -0.075129114 -0.20082586 -0.01331402 -0.072011285
-0.04470118 -0.04427761 -0.069299884 0.13707198 0.0030596126 0.00915499 -0.03164455 0.06070797
-0.59153515 -0.05356775 0.31535712 -0.075777665 -0.47948676 -0.015184903 -0.33665666 0.38213933
0.22598068 -0.13308626 -0.15851824 -0.011620857 -0.06084283 -0.03625806 -0.04199391 -0.05945483
-0.09212302 0.07042148 -0.009359462 -0.0043986333 -0.016617648 0.29034215 -0.15567851 0.024286073
-0.015092403 0.0034561118 -0.053533874 -0.0049572024 0.0065468373 0.030123081 -0.12066878 -0.16707458
-0.012047896 -0.06671105 -0.037615646 -0.038371615 -0.058286045 -0.14662293 -0.16698754 -0.011803544
-0.06391793 -0.037813764 -0.04295408 -0.061976332 -0.01068803 0.017371114 -0.0024516021 -0.0191378
00000000: ae71 cbbd d592 9f3d 3893 fdba 82d7 6abd
00000010: f550 5f3c d1e0 ab3d 4ff8 da3c e38b 81bd
00000020: bf69 863e 1789 483e 484b d3bc c73e 613e
00000030: 8596 63bf 5f55 bcbd 811a 22bd 41c6 333d
00000040: 0aa3 05bb 1667 603c 1a01 173c 293e e3bc
00000050: 1c47 9abc 880d f7bd 826d 493d b721 80bc
00000060: bb01 c63c e5f3 c8bd 77c1 883e 85e4 94bb
00000070: 726d 0d3f c2f9 9abe 9d91 21bf 4770 983c
00000080: 3d0d 11be a77d 543d 6a3f 6c3e e62c 2d3d
00000090: e885 95bd 6342 88ba e499 91bc 644e 183c
000000a0: be39 293d f2c5 6b3d b255 b83e eeed 47be
000000b0: 68df 20bf 4050 3d3e 1d78 c1be 25cc 30bd
000000c0: a514 663d 23e6 01be 45b0 86bd f85e 07bd
000000d0: e98c 1a3e 3ff8 2abe ff5a 173f 7e50 a73d
000000e0: 820f 94bd 5df7 203d 74d5 3dbc 3546 e23c
000000f0: 9fec 90bd a4fc 113e 3043 92bc b0dd 3c3c
00000100: 162e 88bc 0636 d43a 4076 6e3a 6251 433b
00000110: d4cb 7d3c 8891 783a a7dd dbbb de13 653c
00000120: 88d6 163b 3e99 f63a f3bc ae3a ec64 24bb
00000130: 8ef3 233c bda5 1bbe aee1 31be 141a 48bc
00000140: 34bf 88bd 850a 20bd da18 3cbd 57ec 84bd
00000150: 6a90 11be bfa6 26be 6cba 3dbc 97de 7fbd
00000160: 7815 17bd fea9 2cbd d3a1 78bd f274 2fbc
00000170: b517 373c 5c05 6cba e86b 2c3b 205d 083b
00000180: aaf4 f6bc 3253 16bb 3de6 96bb bf61 7939
00000190: 0b75 b239 408f 763b 2284 04bb 9829 4dbc
000001a0: a56a 473b 4ef8 0cbe 6ed7 22be 22bc 42bc
000001b0: eeba 7fbd 1eb2 1abd e692 22bd 6dff 75bd
000001c0: e607 c33c 8f64 06bd 8f12 103b 3eb4 da3c
000001d0: 472b 95bc 269a d3ba 461f 543c 50e6 efbd
000001e0: c509 25be dfde 39bc 79f7 6ebd 6d9d 11bd
000001f0: e04e 1fbd 83d3 66bd a0b9 c23e dbae d7bd
00000200: 8800 d2be bbc7 d2bb 6650 7ebe 0433 a5bd
00000210: aa86 e6bd 1203 1abe 76ae 30be e152 47bc
00000220: a316 88bd e3e3 1ebd 9992 3cbd e38b 84bd
00000230: c48b e13e e93c 73be 3997 eebe 9a2a 3a3d
00000240: 3156 d0bd 1339 1dbe 905b 6dbd a8dc 953d
00000250: 92fa 0fbd 70c4 93bb d264 f53c 13fe 70bd
00000260: b4a9 84be 2446 303d 2e60 e73c fc40 03bd
00000270: a53a 653b 0c27 cd3c 59d3 a23c 734a aa3c
00000280: 509c 0bbd 528e 0abe 0865 23be f15c 3dbc
00000290: 4a41 7abd 71cf 14bd 0fb0 2cbd f9c7 73bd
000002a0: fe52 16be 3855 2fbe 4eaa 47bc 304b 86bd
000002b0: 4c5c 1ebd f9d2 35bd afb0 82bd 0ba1 fdbd
000002c0: 6982 31be 4f23 4dbc 2125 85bd dacc 22bd
000002d0: 7454 33bd 2205 89bd 0899 2fbc 09f3 353c
000002e0: 7481 ac3b fe47 b33c 628b e93b b388 d6bc
000002f0: d434 f13b d739 0bbe d904 21be 0cfe 39bc
00000300: 89ea 77bd 34c0 12bd 3949 2cbd 714a 71bd
00000310: 4bdd 99bd 4ba5 4dbe 0c23 5abc a77a 93bd
00000320: 9618 37bd 705c 35bd 19ed 8dbd 995c 0c3e
00000330: c883 483b d0fe 153c b79d 01bd eca8 783d
00000340: d96e 17bf db69 5bbd 7d76 a13e 5231 9bbd
00000350: 4a7f f5be 19ca 78bc 435e acbe c4a7 c33e
00000360: 7b67 673e c447 08be 9b52 22be 6865 3ebc
00000370: 5536 79bd 5583 14bd ce01 2cbd e886 73bd
00000380: feaa bcbd 2339 903d 6e58 19bc 6922 90bb
00000390: bc21 88bc baa7 943e 306a 1fbe 96f3 c63c
000003a0: 2046 77bc ef7f 623b 5646 5bbd 0770 a2bb
000003b0: da86 d63b aec4 f63c 3121 f7bd 9915 2bbe
000003c0: 8a64 45bc ce9f 88bd dd12 1abd 8e2b 1dbd
000003d0: 59bd 6ebd 5224 16be c8fe 2abe a763 41bc
000003e0: 67e7 82bd 9be2 1abd 9ef0 2fbd e5da 7dbd
000003f0: d91c 2fbc de4d 8e3c 0fab 20bb e0c6 9cbc

encoder_layer1.bias f4 [128]
-0.0029668526 0.15461555 -0.0035881763 -0.010551005 -0.34939155 0.00048263156 -0.347393 -0.0072462168
-0.009629226 0.0014643895 0.0023974432 -0.015005931 -0.014171388 -0.00094611023 0.0013234471 -0.01441377
0.0038079347 -0.013736296 -0.36006168 -0.014963237 -0.31223232 -0.0043386184 0.0054564755 -0.0141098015
-0.0149247525 -0.015269995 0.006427049 -0.013879125 -0.016147884 -0.0011205947 -0.36733788 -0.014185613
-0.0035022155 0.005580166 -0.014524288 -0.014433193 -0.0036568206 -0.014539512 -0.15458451 0.010064152
-0.2666822 -0.013791082 -0.33780503 0.25283194 -0.041286293 -0.015353885 -0.046106037 0.011870424
-0.014085917 -0.000288607 -0.35546282 -0.0076817377 -0.0014726353 -0.0004835523 0.01545935 0.0029089341
-0.015372706 0.0028431646 0.31540146 -0.004780956 0.017880943 -0.013554654 0.012565912 -0.02338729
-0.013805051 0.24632794 0.025156157 -0.1923436 0.0032682377 0.0013515097 -0.0146872895 -0.01428706
-0.01415004 -0.08551229 -0.014912533 -0.014309085 0.0029399777 0.0034072897 0.00031921852 0.0030747456
-0.013250271 -0.014442167 0.0009616456 -0.021050483 -0.0013877604 -0.014228142 -0.006883842 -0.002391642
-0.014880405 -0.31428894 -0.014541563 0.029637294 -0.1820717 -0.015086958 -0.13931026 -0.013712217
0.1622187 -0.22462668 -0.3540483 -0.013856462 0.24789403 0.01927939 0.0015053785 -0.014922073
-0.00061665825 -0.0016757464 -0.0067786467 0.00033467752 0.00070654496 0.0069080116 -0.08439973 0.1261881
-0.047487486 -0.0142228715 -0.013837817 -0.01388275 -0.0024288073 -0.0144471545 -0.003620474 -0.014758818
0.009408514 -0.014351387 0.005663353 -0.001925749 -0.022660464 -0.33584833 0.0022487931 -0.014267906
00000000: 876f 42bb 8a53 1e3e 9c27 6bbb 1fde 2cbc
00000010: 73e3 b2be b609 fd39 7fdd b1be ac71 edbb
00000020: e7c3 1dbc c2f0 bf3a 6c1e 1d3b 70db 75bc
00000030: 1c2f 68bc 6204 78ba 8477 ad3a bc27 6cbc
00000040: 8b8e 793b 340e 61bc 015a b8be 5d28 75bc
00000050: eadc 9fbe f82a 8ebb 3ccc b23b cc2c 67bc
00000060: f386 74bc 002f 7abc ff99 d23b 4565 63bc
00000070: 9148 84bc ebe0 92ba b613 bcbe c66a 68bc
00000080: 6d85 65bb d3d9 b63b 47f7 6dbc 3379 6cbc
00000090: 45a7 6fbb 2237 6ebc 674b 1ebe 1de4 243c
000000a0: 928a 88be fef3 61bc c8f4 acbe 3073 813e
000000b0: d11b 29bd dc8e 7bbc afd9 3cbd 2b7c 423c
000000c0: 9ec8 66bc 2d50 97b9 39ff b5be 16b7 fbbb
000000d0: 7105 c1ba 4b85 fdb9 3749 7d3c d1a3 3e3b
000000e0: cddd 7bbc 6354 3a3b 4d7c a13e 91a9 9cbb
000000f0: 0e7b 923c 5714 5ebc 41e1 4d3c b496 bfbc
00000100: 952e 62bc 643d 7c3e 4914 ce3c b8f5 44be
00000110: ee2f 563b 2425 b13a f5a2 70bc 4614 6abc
00000120: 92d5 67bc 1121 afbd b253 74bc a770 6abc
00000130: a4ac 403b d64c 5f3b c95c a739 ac81 493b
00000140: aa17 59bc d79e 6cbc f216 7c3a 1072 acbc
00000150: 83e5 b5ba 271d 69bc da91 e1bb 18bd 1cbb
00000160: f1cc 73bc 7bea a0be bc3f 6ebc e9c9 f23c
00000170: 0171 3abe 4a2f 77bc 59a7 0ebe 35a9 60bc
00000180: a91c 263e 8904 66be d245 b5be 3706 63bc
00000190: efd7 7d3e d0ef 9d3c 1f50 c53a b67b 74bc
000001a0: 3ca7 21ba b8a4 dbba 691f debb a877 af39
000001b0: 6e37 393a 9a5c e23b c4d9 acbd 7437 013e
000001c0: 3d82 42bd 0c07 69bc 03b8 62bc 7974 63bc
000001d0: a02c 1fbb c2b3 6cbc 7945 6dbb f8ce 71bc
000001e0: 2b26 1a3c 1422 6bbc a693 b93b 6a69 fcba
000001f0: 70a2 b9bc 50f4 abbe 7d60 133b efc3 69bc

encoder_layer2.weight f4 [64, 128]
-0.002190438 -0.0013750623 0.0037890961 -0.005968786 0.013864415 -0.0005443615 0.015264654 -0.012342292
-0.009258548 0.021054171 0.007299371 0.0030491084 0.002969102 -0.0029039476 0.006097314 0.0028971937
0.0008792571 0.0029218164 -0.010347078 0.003075711 0.009378348 0.0026874926 -0.00650167 0.0029783042
0.003065091 0.00301034 0.0033666212 0.0029498092 0.0029844479 -0.007615549 0.017781459 0.002965019
-0.008474857 -0.005323627 0.0030146774 0.003007058 -0.0009682479 0.003048374 0.009092155 0.0009019496
0.0060668755 0.002988108 0.027978139 -0.016580075 0.0011187303 0.0029669125 -0.001437821 -0.0013045975
0.0029317637 -0.0033618822 0.014099563 -0.004661747 5.1191368e-05 0.006374026 -0.010769069 0.011966267
-0.0023367866 -0.0014246299 -0.014823993 0.0035248287 0.0032140757 0.002943237 -0.0037546807 -0.011184813
0.0030057635 -0.015611799 -0.0029414613 -0.009648418 -0.0047716694 -0.0041707135 0.003039053 0.0030086301
0.0030302517 -0.021974 0.0030519688 0.0030217457 0.006335952 -0.009637602 0.00652066 0.001706988
0.0017839667 0.002954742 0.0044996883 -0.0013123031 0.001063675 0.0030251099 -0.010682334 0.0013534868
0.0030409414 -0.002991425 -0.003796866 -0.0044674394 0.01572741 0.003037989 0.011949043 0.0030078134
-0.006808927 0.0073391558 -0.028166562 0.0029752795 -0.011434565 0.004729152 -0.008570908 0.0028408766
0.009416377 -0.017049598 0.0047318577 0.005196832 0.025353925 0.014679996 0.004723119 -0.011521919
0.00079479907 0.004808336 0.0029693646 0.002938342 0.01987639 0.0030581404 0.007247834 0.0030395018
0.004570797 0.0030174318 -0.017799761 0.0034299924 -0.0035676998 -0.008604868 0.0017068561 0.003022617
-0.0049901977 -0.013073873 -0.0018303198 -0.011796112 -0.039391693 0.0065514 -0.020746442 -0.02268255
-0.018321717 0.025280189 0.001799228 0.022186164 0.022157038 0.009434623 -0.009695803 0.017776188
-0.00033315335 0.022115905 -0.035676185 0.022294195 -0.02870393 0.0068332325 0.0020636453 0.022162253
0.023280308 0.022799077 -0.013556565 0.022161286 0.0231324 -0.007018185 -0.020537024 0.022118216
-0.016731154 -0.0047195894 0.023229895 0.022235528 0.004332062 0.022186454 -0.006307189 -0.006694947
-0.009779152 0.022219848 -0.0075685983 -0.017928986 -0.005408274 0.0232683 -0.0069395695 -0.004757245
0.021038296 0.0056489413 -0.031407036 -0.01298334 0.00690784 -0.010271524 -0.00076083123 0.012165509
-0.011041614 0.004572373 -0.011282144 0.0027778882 -0.00036409916 0.023215447 -0.0060509862 -0.022083882
0.02233535 -0.011930695 -0.0056343684 -0.023996156 -0.00020791191 0.021364322 0.022938753 0.022372674
0.022251442 -0.032916125 0.022420738 0.022240462 -0.0007066762 0.041400798 0.010156505 0.005282996
0.015224946 0.02310629 0.008314742 -0.006957979 -0.0012144254 0.022193348 -0.021094052 0.0039967913
0.022184333 -0.030679466 0.057263274 -0.0076237493 0.002268266 0.022155836 0.004227905 0.023219427
-0.00091387436 -0.0035068633 -0.088383384 0.022837115 -0.010044674 -0.0017337446 0.020978127 0.021444667
0.0014183826 0.020023277 0.005260865 -0.021647606 0.02287294 0.014301024 0.004945783 -0.0067555658
-0.0042644856 0.015945047 0.022125334 0.022172088 0.03849039 0.02248783 0.0015198003 0.022161316
0.0018799728 0.022457395 0.045894478 0.0012988736 -0.0026942699 -0.02009396 0.0046874494 0.023137271
00000000: 748d 0fbb 6f3b b4ba 7c52 783b ce95 c3bb
00000010: 9227 633c 7bb3 0eba 9918 7a3c 5337 4abc
00000020: 2ab1 17bc cc79 ac3c 902f ef3b 8dd3 473b
00000030: 4495 423b 2850 3ebb facb c73b d8de 3d3b
00000040: f27d 663a f27b 3f3b ca86 29bc de91 493b
00000050: a4a7 193c a520 303b f60b d5bb a72f 433b
00000060: b2df 483b 2049 453b 88a2 5c3b 9651 413b
00000070: ba96 433b db8b f9bb 6caa 913c c450 423b
00000080: 20da 0abc d271 aebb e591 453b 1012 453b
00000090: 04d2 7dba 3bc7 473b 43f7 143c d070 6c3a
000000a0: a4cc c63b 22d4 433b 6932 e53c f0d2 87bc
000000b0: 5ca2 923a 8870 423b 4475 bcba 07ff aaba
000000c0: d522 403b 0653 5cbb da01 673c 91c1 98bb
000000d0: 50b6 5638 35dd d03b c070 30bc 290e 443c
000000e0: c624 19bb a6ba baba 55e0 72bc d000 673b
000000f0: 3ea3 523b 53e3 403b 1711 76bb 8240 37bc
00000100: 58fc 443b a2c8 7fbc 88c5 40bb 6614 1ebc
00000110: aa5b 9cbb 7baa 88bb d92a 473b 702c 453b
00000120: 3097 463b d102 b4bc 8a03 483b 7b08 463b
00000130: d19d cf3b 08e7 1dbc 43ab d53b 03bd df3a
00000140: fdd3 e93a 58a4 413b 1f72 933b 9601 acba
00000150: 036b 8b3a ec40 463b f504 2fbc 7b67 b13a
00000160: 884a 473b c90b 44bb d7d4 78bb 9963 92bb
00000170: c5d6 803c ff18 473b ebc5 433c bc1e 453b
00000180: 6b1d dfbb 4d7d f03b 90bd e6bc e8fc 423b
00000190: 0b58 3bbc 01f7 9a3b fe6c 0cbc 002e 3a3b
000001a0: 2647 1a3c 99ab 8bbc b30d 9b3b 304a aa3b
000001b0: 09b3 cf3c 5e84 703c 65c4 9a3b 6ec6 3cbc
000001c0: 105a 503a 3f8f 9d3b ac99 423b 3391 403b
000001d0: d0d3 a23c 156b 483b 3d7f ed3b 6132 473b
000001e0: a0c6 953b 1bc0 453b ced0 91bc b9c9 603b
000001f0: 12d0 69bb 6ffb 0cbc 96b8 df3a 1917 463b
00000200: d084 a3bb cc33 56bc 57e7 efba 7b44 41bc
00000210: 2f59 21bd 20ad d63b 71f4 a9bc c1d0 b9bc
00000220: 6d17 96bc 6618 cf3c 13d4 eb3a c2bf b53c
00000230: ad82 b53c ad93 1a3c 25db 1ebc 5e9f 913c
00000240: 16ab aeb9 6a2c b53c 3121 12bd 51a2 b63c
00000250: 8124 ebbc 4fe9 df3b 393e 073b 9d8d b53c
00000260: 58b6 be3c 21c5 ba3c 5b1c 5ebc 968b b53c
00000270: 2980 bd3c cef8 e5bb 433d a8bc 4331 b53c
00000280: c60f 89bc c9a6 9abb 9f4c be3c 4827 b63c
00000290: f8f3 8d3b 5ec0 b53c 89ac cebb 4961 dbbb
000002a0: bd38 20bc 6606 b63c 0102 f8bb cfdf 92bc
000002b0: e437 b1bb 299d be3c 5465 e3bb aae2 9bbb
000002c0: 8158 ac3c c11a b93b aaa4 00bd 13b8 54bc
000002d0: 295b e23b e549 28bc 8572 47ba d851 473c
000002e0: e3e7 34bc d8d3 953b bed8 38bc 3b0d 363b
000002f0: 90e4 beb9 522e be3c 5a47 c6bb 42e9 b4bc
00000300: a0f8 b63c f678 43bc 82a0 b8bb 9693 c4bc
00000310: ee02 5ab9 3b04 af3c 0dea bb3c e646 b73c
00000320: a848 b63c 0fd3 06bd b2ab b73c a131 b63c
00000330: 3d40 39ba e293 293d 7867 263c fc1c ad3b
00000340: 0d72 793c 6749 bd3c 8e3a 083c c2ff e3bb
00000350: 5b2d 9fba d3ce b53c 6fcd acbc 84f7 823b
00000360: ebbb b53c 8153 fbbc e58c 6a3d a5d0 f9bb
00000370: 30a7 143b 2880 b53c 3d8a 8a3b ab36 be3c
00000380: 1291 6fba 67d3 65bb 5902 b5bd e714 bb3c
00000390: 6b92 24bc d13e e3ba 52da ab3c baac af3c
000003a0: 06e9 b93a db07 a43c 5663 ac3b 5256 b1bc
000003b0: 0860 bb3c d84e 6a3c 3c10 a23b cb5d ddbb
000003c0: 19bd 8bbb 309f 823c 3040 b53c 3da2 b53c
000003d0: 19a8 1d3d 6638 b83c 0934 c73a a68b b53c
000003e0: 6b69 f63a 92f8 b73c d9fb 3b3d f73e aa3a
000003f0: 5992 30bb 179c a4bc 2d99 993b 608a bd3c

encoder_layer2.bias f4 [64]
-0.00326571 -0.022130815 -0.006796431 -0.04208169 -0.04017922 -0.048431396 -0.03967528 0.09119974
-0.0114805885 -0.009348594 -0.0027449802 -0.01062524 -0.03918325 0.010031739 0.0038294243 -0.025057841
-0.12915447 -0.026229244 -0.0045913854 -0.0047058435 -0.03220944 -0.02414602 -0.038036954 -0.0074808397
-0.02416388 -0.00015485182 -0.03282722 -0.024571115 0.00402575 -0.043276425 -0.02522417 -0.07824528
-0.11569106 -0.003729906 0.0011714562 -0.02712785 0.008251565 0.18437277 -0.12765233 -0.02440444
-0.040666156 -0.03753422 -0.11395927 -0.0419171 0.083675325 -0.0012483414 -0.05951263 0.006245383
0.013617807 -0.03914263 -0.041941278 -0.053078037 -0.116015665 -0.024989394 -0.018231295 -0.03611581
0.012063128 -0.04262604 0.001651759 -0.024406236 -0.038154572 -0.015966825 -0.014605473 -0.02081144
00000000: 8605 56bb af4b b5bc 98b4 debb da5d 2cbd
00000010: f792 24bd 0060 46bd 8c82 22bd eec6 ba3d
00000020: 1419 3cbc d82a 19bc 20e5 33bb 7d15 2ebc
00000030: 9e7e 20bd 2a5c 243c 14f7 7a3b 1a46 cdbc
00000040: 1241 04be b6de d6bc 5573 96bb 7a33 9abb
00000050: 0cee 03bd e0cd c5bc a3cc 1bbd d521 f5bb
00000060: 54f3 c5bc b85f 22b9 d675 06bd 5d49 c9bc
00000070: 70ea 833b 9f42 31bd eba2 cebc 103f a0bd
00000080: 6fef ecbd 7071 74bb 8c8b 993a 3a3b debc
00000090: 9231 073c 37cc 3c3e 4bb7 02be d2eb c7bc
000000a0: 8e91 26bd 7bbd 19bd 7a63 e9bd 44b1 2bbd
000000b0: f85d ab3d 639f a3ba 84c3 73bd 12a6 cc3b
000000c0: 391d 5f3c 0654 20bd 9eca 2bbd 5b68 59bd
000000d0: 9f99 edbd 8fb6 ccbc cc59 95bc 2cee 13bd
000000e0: 6da4 453c a498 2ebd d67f d83a 96ef c7bc
000000f0: f847 1cbd dccc 82bc cb4b 6fbc c17c aabc

encoder_layer3.weight f4 [32, 64]
-0.0072748526 -0.06279269 0.0017198082 0.07832645 -0.021215495 -0.001676062 0.04982765 -0.23901735
-0.11916443 -0.027740505 -0.10187829 -0.09688338 0.053677622 0.12484926 -0.024027621 0.005154318
0.2515344 -0.109048374 0.029070579 0.045346864 0.05414273 0.025349498 0.04778173 0.056314826
-0.06290719 0.054076187 0.03261524 0.020758344 0.08061632 0.044681188 -0.03527825 0.118240125
0.14926769 0.07480991 0.04681031 0.048867796 0.024503 -0.16569424 0.15925814 -0.12558462
0.08177671 0.032457326 0.10708945 0.03377948 -0.08810453 0.028238092 -0.009455569 0.004084858
0.16243595 0.07327763 0.04491745 0.11521793 -0.0059627504 0.020843197 0.026529487 0.021010593
0.10716248 0.04085904 0.11107374 0.024640018 0.041083995 -0.04766868 -0.05368667 -0.05485954
0.05362445 0.02853654 0.06059746 0.1710044 0.036114637 0.08913052 0.27112612 0.044212166
0.062120106 0.061228566 -0.005102575 0.062362835 0.09559651 -0.001190302 0.003554542 0.018155538
-0.031705573 0.0050771255 0.0033369993 0.006390627 -0.017458245 0.1763383 0.13479467 0.00900983
-0.013450724 0.006439495 0.16735524 0.1499002 0.0147164175 0.14982645 0.021735946 0.03994687
0.082364395 0.025786933 0.0060865576 0.15403567 -0.0077281697 -0.06722626 0.37166372 -0.0022475454
0.36764082 0.1613195 0.20402572 0.12028742 0.0932964 0.031329427 0.17866622 0.085213006
-0.01997355 0.19449466 0.15816905 -0.007282571 0.14825599 0.14836943 0.024474867 0.1547789
0.018443089 0.2369367 -0.008416549 0.004965029 0.17121625 0.061828457 -0.01406751 -0.02370337
0.014468014 0.021387093 0.0098885745 0.06453439 0.024228515 0.023835616 0.06428203 -0.117769174
0.01507621 0.016334124 0.024920026 0.028657548 0.06373847 0.0075979806 0.015717551 0.017055668
0.036725756 0.025494501 -0.001503245 0.00280897 0.046023402 0.05640151 0.06289592 0.0005756039
0.011138374 0.0019717733 0.060585916 0.05617204 0.004737554 0.06484145 0.018055357 0.044041015
0.01821585 0.026734564 0.002467183 0.057948034 0.008000473 -0.12816216 -0.093602486 0.025786653
0.06457157 0.061771218 -0.018322363 0.0646366 -0.03687616 0.0075146933 0.032884106 0.033512946
0.017818108 0.06438676 0.06447634 0.023670016 0.015565984 0.05199881 0.0102791805 0.0615563
0.008662972 0.064654335 0.030032357 0.015608666 0.061597735 0.027728554 0.0080496855 0.025117375
-0.0177154 -0.03657014 -0.032036934 -0.10924582 0.0039743204 -0.026281985 -0.14578255 -0.06997425
-0.0026137938 -0.022867234 -0.0011518709 -0.02819392 -0.121951334 0.0036024842 0.012686407 -0.0069821174
0.031162595 0.008827488 0.0095407935 -0.031064255 -0.050257012 -0.052674074 -0.09653364 -0.045061395
-0.008707221 0.016249973 -0.08661783 -0.08122481 0.007611815 -0.115101226 -0.04761118 0.028627407
-0.1523 -0.07710987 -0.0080431225 -0.06568006 0.011523512 0.10459355 -0.20098072 -0.021371664
-0.06520612 -0.11024268 -0.10629843 -0.114616536 -0.1215505 -0.017607642 -0.12006378 -0.005379676
0.021890154 -0.11961641 -0.121136196 0.03134298 -0.18513498 -0.06531523 0.009012053 -0.06005567
0.011637373 -0.110621504 -0.03696054 0.0008273071 -0.08168073 -0.0011219997 -0.0115905 -0.022976147
00000000: e361 eebb 7499 80bd 306b e13a 9e69 a03d
00000010: 1ecc adbc 4faf dbba 1418 4c3d f7c0 74be
00000020: 7b0c f4bd 0e40 e3bc 91a5 d0bd cb6a c6bd
00000030: 11dd 5b3d f8b0 ff3d 93d5 c4bc 8ee5 a83b
00000040: 1ec9 803e c154 dfbd 6c25 ee3c a2bd 393d
00000050: c4c4 5d3d c0a9 cf3c c6b6 433d 60aa 663d
00000060: 7cd5 80bd fe7e 5d3d 8f97 053d 670d aa3c
00000070: 2b1a a53d 9f03 373d ed7f 10bd e127 f23d
00000080: a1d9 183e f035 993d 2bbc 3f3d 9929 483d
00000090: 84ba c83c c0ab 29be 9114 233e 4199 00be
000000a0: 8c7a a73d f9f1 043d b751 db3d 5a5c 0a3d
000000b0: 2670 b4bd 9253 e73c 88eb 1abc 46da 853b
000000c0: 9c55 263e 9512 963d 5cfb 373d 61f7 eb3d
000000d0: 2d63 c3bb 5abf aa3c 5e54 d93c 681e ac3c
000000e0: 0178 db3d cf5b 273d a17a e33d ddd9 c93c
000000f0: b147 283d 3c40 43bd 8ee6 5bbd 66b4 60bd
00000100: 50a5 5b3d 76c5 e93c 0b35 783d c71b 2f3e
00000110: f1ec 133d 108a b63d 0bd1 8a3e d117 353d
00000120: a771 7e3d ceca 7a3d 8033 a7bb 2c70 7f3d
00000130: 1ac8 c33d e803 9cba 52f3 683b ecba 943c
00000140: b4dd 01bd 045e a63b 8fb1 5a3b 7768 d13b
00000150: 9804 8fbc 0792 343e 9d07 0a3e f79d 133c
00000160: 6d60 5cbc 6602 d33b 2c5f 2b3e 707f 193e
00000170: 211d 713c 1b6c 193e 950f b23c 549f 233d
00000180: aaae a83d 1e3f d33c bf71 c73b 87bb 1d3e
00000190: 963c fdbb ecad 89bd b54a be3e 8e4b 13bb
000001a0: 6b3b bc3e f030 253e 1eec 503e 4059 f63d
000001b0: 2f12 bf3d 4953 003d 47f4 363e 2884 ae3d
000001c0: 929f a3bc 9c29 473e 11f7 213e a2a2 eebb
000001d0: 6bd0 173e 28ee 173e 847f c83c 5c7e 1e3e
000001e0: f615 973c 899f 723e 91e5 09bc afb1 a23b
000001f0: 5053 2f3e d63f 7d3d 6a7b 66bc 922d c2bc
00000200: 400b 6d3c fc33 af3c b003 223c 9b2a 843d
00000210: e17a c63c e942 c33c 4ca6 833d f730 f1bd
00000220: 3502 773c 24cf 853c 1525 cc3c 3cc3 ea3c
00000230: 5189 823d 7bf8 f83b 18c2 803c 54b8 8b3c
00000240: bf6d 163d d8d9 d03c 8808 c5ba b216 383b
00000250: 0983 3c3d 4505 673d 93cf 803d 20e4 163a
00000260: ba7d 363c de38 013b f028 783d a714 663d
00000270: 7c3d 9b3b 98cb 843d d4e8 933c 5a64 343d
00000280: 6839 953c 7202 db3c 76b0 213b eb5a 6d3d
00000290: 6a14 033c f13c 03be a9b2 bfbd 883e d33c
000002a0: 193e 843d d103 7d3d c818 96bc 3260 843d
000002b0: 750b 17bd d13d f63b 7cb1 063d df44 093d
000002c0: 48f7 913c 35dd 833d 2c0c 843d 9fe7 c13c
000002d0: 7808 7f3c b4fc 543d 026a 283c 7522 7c3d
000002e0: 23ef 0d3c 7e69 843d 6b06 f63c 7ebb 7f3c
000002f0: e84d 7c3d fe26 e33c d4e2 033c f4c2 cd3c
00000300: e31f 91bc 92ca 15bd 2939 03bd 46bc dfbd
00000310: 043b 823b 514d d7bc 0548 15be a94e 8fbd
00000320: 2f4c 2bbb 1154 bbbc 60fa 96ba f0f6 e6bc
00000330: 9fc1 f9bd a817 6c3b a6da 4f3c 3fca e4bb
00000340: b348 ff3c 2ba1 103c fd50 1c3c 777a febc
00000350: 4cda 4dbd c5c0 57bd 6eb3 c5bd 4c92 38bd
00000360: bba8 0ebc aa1e 853c b064 b1bd 3159 a6bd
00000370: 886c f93b 31ba ebbd f103 43bd 0684 ea3c
00000380: 88f4 1bbe c8eb 9dbd 4dc7 03bc 4483 86bd
00000390: 1dcd 3c3c 2535 d63d e4cd 4dbe a113 afbc
000003a0: c98a 85bd eac6 e1bd feb2 d9bd 13bc eabd
000003b0: 78ef f8bd e73d 90bc 00e4 f5bd fe47 b0bb
000003c0: fb52 b33c 73f9 f4bd 4116 f8bd 7f61 003d
000003d0: 0694 3dbe fec3 85bd 4aa7 133c effc 75bd
000003e0: aeaa 3e3c 878d e2bd ef63 17bd a4df 583a
000003f0: 3a48 a7bd 1010 93ba 15e6 3dbc 7938 bcbc

encoder_layer3.bias f4 [32]
-0.054710533 -0.1468916 -0.07623676 0.16058707 0.14312774 0.10797379 0.023833282 0.18999156
-0.05742451 -0.036468584 -0.13230458 0.023565937 -0.12115802 0.11021509 -0.023347229 -0.08849071
0.13126878 -0.07252758 0.01245877 -0.010291211 -0.027696708 -0.17960937 -0.12584977 0.0140596125
0.008443454 0.050183028 -0.10783804 -0.14973287 -0.0887777 0.011413969 -0.1072381 0.072913475
00000000: 2718 60bd c06a 16be 0522 9cbd f070 243e
00000010: 1490 123e 5d21 dd3d 043e c33c 268d 423e
00000020: f735 6bbd 1560 15bd da7a 07be 5a0d c13c
00000030: b221 f8bd 73b8 e13d b042 bfbc 9e3a b5bd
00000040: 536b 063e 5789 94bd de1f 4c3c 789c 28bc
00000050: 35e4 e2bc 85eb 37be c3de 00be 4a5a 663c
00000060: 6a56 0a3c b88c 4d3d 31da dcbd 9353 19be
00000070: 15d1 b5bd a801 3b3c a69f dbbd a953 953d

encoder_layer_mu.weight f4 [2, 32]
-0.0045821173 -0.22509593 -0.014946309 0.06001713 0.07312607 0.12582582 0.11368602 0.2273248
0.009971562 0.11158724 -0.13247818 -0.06744574 -0.09589538 0.07918349 0.06723259 -0.05523312
0.030144384 -0.027721828 0.03720951 -0.06097913 -0.12212081 -0.12566587 -0.022371663 0.06553048
0.18715607 -0.06678305 -0.022525867 -0.07125797 -0.13475403 0.16521902 -0.028261334 -0.0034205485
0.14294751 0.07532227 0.02284377 0.004526138 -0.14517051 -0.15035884 0.05633178 -0.067620076
0.004990918 0.102634765 -0.024897689 -0.11755749 0.09141735 -0.14902218 0.08499806 -0.01854009
-0.09151516 0.01913846 -0.006316149 -0.07993739 -0.1119606 0.14207439 0.099854924 -0.039780945
0.015442687 -0.09874332 0.12195353 0.03424429 -0.062051814 0.04960588 0.11891115 -0.13871515
00000000: 9625 96bb 8c7f 66be 5de1 74bc 86d4 753d
00000010: 1fc3 953d 7cd8 003e 37d4 e83d d5c7 683e
00000020: c35f 233c da87 e43d 5ca8 07be fe20 8abd
00000030: cc64 c4bd f42a a23d 3db1 893d 203c 62bd
00000040: 5bf1 f63c e318 e3bc 0069 183d 41c5 79bd
00000050: 7a1a fabd 8eae 00be c744 b7bc d834 863d
00000060: d7a5 3f3e 8dc5 88bd 2b88 b8bc b3ef 91bd
00000070: f6fc 09be 2d2f 293e 5084 e7bc 482b 60bb
00000080: d560 123e 9042 9a3d dc22 bb3c ff4f 943b
00000090: 94a7 14be abf7 19be 27bc 663d 657c 8abd
000000a0: db8a a33b 2d32 d23d 3df6 cbbc fbc1 f0bd
000000b0: 0539 bb3d 4599 18be 7613 ae3d 63e1 97bc
000000c0: 4d6c bbbd 42c8 9c3c b3f7 cebb 37b6 a3bd
000000d0: 994b e5bd f37b 113e bd80 cc3d 58f1 22bd
000000e0: 5303 7d3c f039 cabd c6c2 f93d be43 0c3d
000000f0: 0b2a 7ebd 892f 4b3d b087 f33d 580b 0ebe

encoder_layer_mu.bias f4 [2]
0.25975007 -0.019338094
00000000: f6fd 843e ec6a 9ebc

encoder_layer_sigma_square.weight f4 [2, 32]
-0.018985102 0.15637395 0.5189663 -0.45592362 -0.10787278 0.08930256 -0.16821739 -0.19568162
0.48405883 0.13361515 -0.24462084 0.07295224 0.03842086 0.10635459 0.14056617 0.4625952
0.02431744 0.5114509 0.29694226 0.06559095 0.13638712 0.1489096 -0.14258148 0.36372152
0.1919715 -0.054661747 -0.14243667 0.35894313 0.19023304 0.30837998 -0.054852996 -0.11538802
0.04067093 0.15668568 0.55559397 -0.50655407 -0.09759096 0.09162491 -0.20973575 -0.25883204
0.5219298 0.08908432 -0.2763947 0.15776812 0.0440013 0.14379598 0.17640536 0.49505755
0.046052214 0.5404131 0.28192627 0.11511422 0.19437845 0.14743458 -0.108851485 0.35507268
0.17608583 0.043701164 -0.0657173 0.4084756 0.1942793 0.2963778 -0.016285246 -0.04491913
00000000: a586 9bbc 7e20 203e fada 043f d26e e9be
00000010: 67ec dcbd 43e4 b63d 2e41 2cbe c360 48be
00000020: 8fd6 f73e 69d2 083e e37d 7abe fc67 953d
00000030: 315f 1d3d 6fd0 d93d 94f0 0f3e 47d9 ec3e
00000040: 5e35 c73c 72ee 023f d108 983e 8c54 863d
00000050: 11a9 0b3e c27b 183e e100 12be b539 ba3e
00000060: 2d94 443e ffe4 5fbd ebda 11be 65c7 b73e
00000070: 73cc 423e fbe3 9d3e 89ad 60bd 8e50 ecbd
00000080: 9096 263d 3672 203e 683b 0e3f 87ad 01bf
00000090: c5dd c7bd d7a5 bb3d f8c4 56be a285 84be
000000a0: 319d 053f d771 b63d 9b83 8dbe f78d 213e
000000b0: b53a 343d 413f 133e 9ba3 343e 2f78 fd3e
000000c0: 3fa1 3c3d 8358 0a3f a458 903e 01c1 eb3d
000000d0: 250b 473e 17f9 163e 87ed debd 16cc b53e
000000e0: d84f 343e feff 323d cb96 86bd b723 d13e
000000f0: 27f1 463e d5be 973e a368 85bc 1ffd 37bd

encoder_layer_sigma_square.bias f4 [2]
-0.6176378 -0.6567724
00000000: 831d 1ebf 3c22 28bf

decoder_layer1.weight f4 [32, 2]
-0.23647799 -0.121606275 -0.000477407 0.0007154872 -0.0003539003 0.00012836582 -0.0009987385 -0.00095076335
-7.729913e-05 0.0016850915 -0.334815 -0.15184176 0.22529061 0.19162275 -0.00023574225 -4.058595e-05
0.040636882 0.04418545 0.086949065 0.05293483 0.00044639464 -0.00033531003 -0.019171055 -0.44833755
-0.0005949112 0.0011199323 -0.00020098094 5.093762e-05 -0.0006328952 -0.0003057444 0.00023510522 0.00045291733
-0.31929517 0.049638048 -0.06379117 0.23783404 -0.09544397 0.011004007 -0.00029934337 -8.247606e-05
-0.00067074626 0.0011888843 3.1512667e-05 -0.0017103807 -0.00036760597 0.00027289047 -0.4889347 0.3892206
-0.0022793068 0.0006298513 0.0015933542 -0.00012956791 -0.04963987 -0.019965308 -0.0003687842 0.00027389292
0.25766313 0.16853169 -0.0003935599 7.989418e-05 0.0003907736 -0.00029973546 0.00039254327 0.0013842075
00000000: 4927 72be b60c f9bd 7c4c fab9 888f 3b3a
00000010: b28b b9b9 f099 0639 1ae8 82ba a63c 79ba
00000020: a81b a2b8 4ade dc3a df6c abbe 687c 1bbe
00000030: 95b2 663e c138 443e 9431 77b9 d53a 2ab8
00000040: dc72 263d cdfb 343d 5a12 b23d 31d2 583d
00000050: 130a ea39 8dcc afb9 9e0c 9dbc 808c e5be
00000060: d1f3 1bba b1ca 923a 69be 52b9 daa5 5538
00000070: e1e8 25ba 524c a0b9 9486 7639 8975 ed39
00000080: a87a a3be 4451 4b3d f2a4 82bd c48a 733e
00000090: 2178 c3bd 274a 343c 30f1 9cb9 fff6 acb8
000000a0: 05d5 2fba 56d4 9b3a 782c 0438 da2e e0ba
000000b0: 3dbb c0b9 bd12 8f39 a655 fabe ec47 c73e
000000c0: 6c60 15bb 9b1c 253a 18d8 d03a 9fdc 07b9
000000d0: 2d53 4bbd 498e a3bc 6159 c1b9 4999 8f39
000000e0: 6cec 833e 9293 2c3e b756 ceb9 dc8c a738
000000f0: bfe0 cc39 d025 9db9 44ce cd39 4c6e b53a

decoder_layer1.bias f4 [32]
-0.04329196 -0.00012161105 -5.606945e-05 0.0017105122 -0.0006336598 0.053752154 -0.09577394 -0.0001039151
0.029745726 -0.04683019 0.00012142152 -0.23971897 0.0008179408 0.0004397172 0.0005278996 -0.0006802503
0.07533573 -0.14379014 0.099447824 0.00013080277 0.0009914895 0.0010595878 0.00017147335 -0.3973203
0.0022116334 -0.0007682001 0.017229486 0.0006017666 -0.16943291 -0.00017695612 -0.0006552277 0.000247157
00000000: e952 31bd 6f09 ffb8 1d2c 6bb8 4433 e03a
00000010: 301c 26ba 382b 5c3d 2125 c4bd ffec d9b8
00000020: 4fad f33c 03d1 3fbd afa3 fe38 e478 75be
00000030: 146b 563a d889 e639 be62 0a3a d352 32ba
00000040: 9f49 9a3d b93d 13be 4dab cb3d 1a28 0939
00000050: def4 813a dee1 8a3a 87cd 3339 916d cbbe
00000060: 0df1 103b 0961 49ba da24 8d3c dfbf 1d3a
00000070: d27f 2dbe 4c8d 39b9 96c3 2bba da94 8139

decoder_layer2.weight f4 [32, 32]
0.007857348 0.0015906193 -0.0057172305 0.006201329 0.021844916 0.07097145 0.08089051 -0.0007085619
-0.008265802 0.02407431 0.0019090289 -0.4039332 0.028730588 0.017933758 -0.012816954 -0.02186876
0.078554794 0.105243236 0.04010912 3.4353116e-06 0.019693198 0.005469173 0.005216809 0.04681403
-0.033017818 0.0040081865 0.18463348 0.040360045 -0.025061024 -0.0036889506 -0.0239812 0.0027097506
-0.00087664754 -0.0012547356 -0.00034285456 -0.0004964036 -0.00082176534 -0.015759844 0.0033300314 0.0006484308
0.00245139 0.0075399783 -0.0006222599 -0.0053763227 -0.00037732167 -0.00013390798 0.0035571305 -0.007847177
0.042098843 -0.024147699 0.0030418003 0.00038651092 -0.003874852 0.0026492362 -0.0022843212 -0.01788128
-0.002925651 -0.0021919212 0.025446108 0.00016927434 -0.003041551 0.0013099132 -0.0001744001 -0.002096515
0.0023635821 0.000478101 0.0004424301 -0.00041430193 0.00056240265 0.006490041 0.004849701 -0.0010795646
0.000789735 0.0038391107 -0.00028281548 -0.00020826884 -0.00032504217 0.00013327364 0.00043423564 0.00015698306
-0.007670141 -0.0045945053 -0.0033173778 5.6719568e-05 -0.0023187103 0.0033327246 0.00027233805 0.0065187328
-0.00061729306 -0.0008000965 -0.0037407803 0.0002095403 0.009909372 0.00041246804 -0.0008857923 0.0006037092
0.056708038 -0.0048043616 -0.0026302757 0.008662242 -0.003539905 0.03516484 -0.04126574 -0.0031637705
-0.040627178 -0.008220986 0.0022187736 0.38663703 0.0029245736 0.0018052019 -0.0008146691 -0.001978907
-0.18685584 -0.05878825 -0.061272576 -0.0044546695 0.003931779 -0.01129794 0.0022846945 0.093560174
0.015831418 -0.005052234 0.0598268 0.0026983614 -0.04157295 0.004995407 -0.0015807765 0.0028865198
-0.009127101 -0.00013190643 0.00018338222 0.00033238073 -0.0001245424 -0.0055800797 0.004649194 -0.0005976463
0.0062013944 0.0045832 0.0001254255 0.028634572 -0.0010537172 6.9145986e-05 -0.00023881784 0.0020423555
0.003880952 0.02110509 0.0049711843 -0.00013390419 -0.0010001018 -0.009833754 0.0003044889 0.0077069425
0.0017011964 -0.0006229869 -0.009321671 2.3152945e-05 0.0048522684 -0.0010094446 -5.8812133e-05 0.0054233866
0.017262988 -0.00011167166 -8.6900916e-05 -0.006923648 -0.0009443943 0.0031981277 -0.01163063 0.0020008523
-0.010806182 -0.016852496 0.0023729547 -0.0417454 -0.0016518176 -0.00012062124 0.0015669793 -0.0026842698
-0.0050200652 -0.005782487 -0.019015318 2.0962569e-05 -6.4223816e-05 0.0146652805 -0.0047680037 -0.022911295
-0.0039745294 0.0031755264 0.016458103 0.00014644943 -0.016739335 0.0019229277 0.00031826628 -0.00061199436
0.011150103 -3.928246e-05 -0.0006061392 -0.0007478896 -0.00027518868 -0.006989965 -0.016098144 0.0013300941
0.00017568964 -0.0048879585 -0.0002745588 -0.015195281 9.078973e-05 -7.746802e-05 -0.00021133866 -0.0012529199
0.011738287 -0.002287178 -0.01524548 -3.6433597e-05 0.0134810675 -0.0155884605 -0.0008226791 -0.014258784
0.0058454815 -0.00014643022 0.0036103425 0.00034470196 0.00053320365 0.0013654912 0.00068862975 -0.0093387095
-0.018672949 1.832451e-05 -0.00518892 0.0037334564 -0.00026439189 -0.0055410503 -0.025016285 0.004371179
-0.0105151385 -0.01978419 -0.0056696837 -0.034116838 0.008443572 -2.7989665e-05 0.0074041095 -0.004693052
0.018149948 -0.016666543 -0.016130801 0.0016499286 -0.016331367 0.05830806 0.0033446767 -0.021288516
-0.0076136203 -0.0030945255 0.016196458 -0.00095628033 -0.0103655225 0.0028126924 0.00024184806 -0.017261518
00000000: 1bbc 003c 547c d03a 9b57 bbbb 8534 cb3b
00000010: 1cf4 b23c 7b59 913d eca9 a53d c9be 39ba
00000020: 496d 07bc 7d37 c53c 6138 fa3a 55d0 cebe
00000030: 695c eb3c d1e9 923c 34fe 51bc 1d26 b3bc
00000040: 56e1 a03d c489 d73d 7649 243d 348a 6636
00000050: a153 a13c c036 b33b c4f1 aa3b 11c0 3f3d
00000060: b13d 07bd 1b57 833b 8f10 3d3e 9350 253d
00000070: c74c cdbc 52c2 71bb 3974 c4bc 1296 313b
00000080: d2ce 65ba f175 a4ba 29c1 b3b9 1521 02ba
00000090: bd6b 57ba ca1a 81bc a83c 5a3b 74fb 293a
000000a0: 80a7 203b ec11 f73b 281f 23ba dd2b b0bb
000000b0: 42d3 c5b9 a669 0cb9 bf1e 693b 7291 00bc
000000c0: d66f 2c3d 65d1 c5bc f158 473b 9ea4 ca39
000000d0: 3bf1 7dbb cf9e 2d3b 8db4 15bb c37b 92bc
000000e0: 47bc 3fbb 56a6 0fbb 5b74 d03c 3c7f 3139
000000f0: c254 47bb 65b1 ab3a 2cdf 36b9 af65 09bb
00000100: 54e6 1a3b a1a9 fa39 f6f5 e739 aa36 d9b9
00000110: 346e 133a 69aa d43b 3eea 9e3b 2d80 8dba
00000120: 3806 4f3a 9799 7b3b da46 94b9 be62 5ab9
00000130: 6c6a aab9 5fbf 0b39 1faa e339 d29b 2439
00000140: ce55 fbbb 818d 96bb 5d68 59bb 2ce6 6d38
00000150: 81f5 17bb d769 5a3b 98c8 8e39 189b d53b
00000160: d6d1 21ba 91bd 51ba e127 75bb 0cb8 5b39
00000170: eb5a 223c 8640 d839 8434 68ba 3d42 1e3a
00000180: b046 683d e86d 9dbb b460 2cbb 14ec 0d3c
00000190: c0fd 67bb 0209 103d 4406 29bd 4357 4fbb
000001a0: af68 26bd 51b1 06bc d868 113b 4af5 c53e
000001b0: 34aa 3f3b 869c ec3a 858f 55ba 8db0 01bb
000001c0: 2357 3fbe f3cb 70bd f4f8 7abd 7af8 91bb
000001d0: 27d6 803b ff1a 39bc d0ba 153b 7a9c bf3d
000001e0: e4b0 813c 368d a5bb f20c 753d fed6 303b
000001f0: 6648 2abd 83b0 a33b 0f32 cfba c42b 3d3b
00000200: d689 15bc 5d50 0ab9 4a4a 4039 6343 ae39
00000210: 9997 02b9 1ad9 b6bb 4458 983b 5dab 1cba
00000220: 1135 cb3b ab2e 963b a784 0339 0d93 ea3c
00000230: e21c 8aba 7802 9138 2d6b 7ab9 0ad9 053b
00000240: 9257 7e3b 95e4 ac3c 51e5 a23b a268 0cb9
00000250: d915 83ba c11d 21bc cfa3 9f39 858a fc3b
00000260: aefa de3a f14f 23ba ecb9 18bc 9238 c237
00000270: c7ff 9e3b 574f 84ba 0cad 76b8 aab6 b13b
00000280: 1c6b 8d3c 4431 eab8 933e b6b8 c5df e2bb
00000290: 3b91 77ba ae97 513b 668e 3ebc bb20 033b
000002a0: 6a0c 31bc 3f0e 8abc 9383 1b3b 39fd 2abd
000002b0: cd81 d8ba 09f6 fcb8 1a63 cd3a 93ea 2fbb
000002c0: 5c7f a4bb 047b bdbb 03c6 9bbc c6d8 af37
000002d0: e6af 86b8 a546 703c ea3c 9cbb 78b0 bbbc
000002e0: c53c 82bb 7e1c 503b 25d3 863c 3890 1939
000002f0: ee20 89bc bf0a fc3a fadc a639 3f6e 20ba
00000300: ecae 363c 38c3 24b8 50e5 1eba 050e 44ba
00000310: 3347 90b9 140c e5bb 41e0 83bc 8d56 ae3a
00000320: 5439 3839 2b2b a0bb a9f2 8fb9 a1f5 78bc
00000330: 5d66 be38 5476 a2b8 ca9a 5db9 0439 a4ba
00000340: f251 403c 7be4 15bb 2ec8 79bc 47d0 18b8
00000350: b2df 5c3c be66 7fbc 0fa9 57ba ad9d 69bc
00000360: 748b bf3b 108b 19b9 7f9b 6c3b 1db9 b439
00000370: b1c6 0b3a 48fa b23a 2985 343a 6301 19bc
00000380: 03f8 98bc 96b7 9937 d107 aabb 01ad 743b
00000390: 149e 8ab9 b391 b5bb f4ee ccbc 1b3c 8f3b
000003a0: b047 2cbc 7412 a2bc c1c8 b9bb 19be 0bbd
000003b0: e856 0a3c 59cb eab7 2c9e f23b 2cc8 99bb
000003c0: 33af 943c 4688 88bc be24 84bc 6b42 d83a
000003d0: 5cc9 85bc 6fd4 6e3d 5d32 5b3b 4165 aebc
000003e0: ad7b f9bb 86cd 4abb 6fae 843c e3ae 7aba
000003f0: 27d4 29bc 2655 383b 9898 7d39 0768 8dbc

decoder_layer2.bias f4 [32]
0.19342546 -0.005221299 0.0012812088 -0.22654733 -0.0003391236 -0.0037633362 -0.0009878502 -0.004921043
0.00158848 0.004221158 -0.0018016328 0.13396135 -0.017804112 0.0013510046 0.0015146475 -0.003467523
0.001893644 -0.015558573 -0.013607177 0.007878692 -0.0015368324 -0.003852891 -0.12997386 0.0014365353
0.008843797 -0.040831815 -0.015965762 0.0029501957 0.009210187 -0.0034667263 0.10203863 -0.13391379
00000000: 5311 463e 6e17 abbb 3cee a73a 06fc 67be
00000010: 66cc b1b9 4ea2 76bb c17a 81ba b340 a1bb
00000020: 8b34 d03a a451 8a3b c424 ecba 2a2d 093e
00000030: eed9 91bc 3114 b13a 2387 c63a 623f 63bb
00000040: 2634 f83a 63e9 7ebc a3f0 5ebc a115 013c
00000050: 8a6f c9ba c980 7cbb de17 05be 204a bc3a
00000060: 93e5 103c 433f 27bd a1ca 82bc 1258 413b
00000070: 53e6 163c 0432 63bb a1f9 d03d b220 09be

decoder_layer3.weight f4 [32, 32]
0.10516817 0.037366383 0.0004409451 -0.05794403 0.03681825 -0.06281034 -0.0009804588 -0.023079494
0.004797424 0.026050743 -0.014522866 -0.048597094 0.05553429 -0.001535421 -0.014994758 0.0063781147
-0.011338417 -0.022748511 0.05930654 -0.030666292 0.014878322 -0.014480383 0.023160836 -0.0010617569
-0.021596994 -0.021358011 -0.028540982 0.0135415485 -0.014465084 -0.019418327 -0.07286128 0.02900335
0.01960955 -0.010101941 -0.0033206774 -0.025012884 0.008662233 -0.012031448 -0.0096419 -0.008776277
0.00637052 0.0036049546 -0.0052510975 -0.0009139429 -0.009944899 0.0030142425 0.0010499002 -0.0026018124
-0.0017629123 -0.0042202976 0.008568034 0.001641769 0.00071644946 -0.0148922345 -0.012913618 -0.001400206
0.0012903366 -0.04024847 -0.0077846 0.0075424574 -0.0019987798 -0.0010664919 0.028791755 0.0067278026
0.10284346 0.003366067 -0.005397752 -0.06933932 -0.00741316 0.012630081 0.008986223 0.0076465383
-0.017117947 0.0008060512 0.021661898 -0.048029024 -0.00616009 -0.0049773664 -0.0019999524 0.00901678
0.008324981 0.020288462 0.09050056 -0.038324367 -0.016986225 0.011575988 0.016035615 -0.0037231569
0.0025770206 -0.014714288 0.002379756 -0.005326973 -0.0072682938 0.00087632705 0.10774592 0.048873413
-0.023517117 0.003158996 0.002741768 -0.0012245106 -0.0044891434 0.007047213 0.0025444548 0.006424025
0.0051940843 0.0005507363 0.010032609 0.00084999495 -0.009542285 -0.0006312302 -0.0012125691 -0.0022455982
-0.0005243916 0.006189724 -0.0017364529 -0.0073178275 0.0026969842 -0.00070269516 0.01660573 0.0043130633
-0.006298954 0.035260037 0.010886036 0.002088044 0.0023718704 0.0006982038 -0.011801523 -0.018515779
0.046045925 -0.0076180934 0.0050852844 -0.03291273 0.006734659 -0.018513674 -0.01096558 -0.012596504
0.012257164 0.0049008187 -0.006925268 -0.032520447 -0.03187777 0.003571392 0.0018866594 -0.0019082425
-0.0010689102 -0.0033819552 0.025986193 0.013352709 -0.005572939 -0.011111042 -0.026219025 0.004120035
0.012917598 -0.0036213906 0.0050623217 0.008563547 -0.00061332143 -0.0045983028 -0.0054059145 0.0006715343
0.011689742 -0.0032095602 -0.00492922 -0.001560727 0.004644409 -0.006030547 -0.0032504217 -0.004197972
-0.002727895 0.002830228 -0.007671528 -0.009286544 0.0055313506 0.0009122457 -0.0009471625 0.0005398741
0.0010267424 -0.004166036 0.0045517473 0.0054207505 0.00064558955 -0.0033295339 -0.0036092277 -0.004110942
-0.00044262642 -0.017738007 -0.005910177 -0.0005642396 -0.0011953184 -0.00025794248 0.011718868 0.009155001
-0.029567588 0.014401663 -0.0052155093 0.1628254 0.0009608436 0.035677463 0.007289444 0.009218281
-0.002317492 -0.01902326 0.003891583 0.101070665 0.07092034 0.0059721563 0.0015442529 0.016933033
0.019013174 -0.0076497574 -0.013910244 -0.031030977 -0.01619562 0.032419845 -0.128328 -0.008665656
0.0010208192 0.0047873883 0.0786724 -0.021168903 -0.012061043 0.0106359515 0.091820665 0.0684168
-0.050047506 0.002225902 -0.010576794 0.14909825 0.011109309 0.024083415 0.0167812 -0.0017674452
-0.0012742819 -0.025235781 -0.025196003 0.08568524 0.30811608 0.019187586 -0.0011967366 0.010955864
0.009442379 0.037625913 0.09945781 -0.03811532 -0.030554593 0.022628076 -0.05311986 -0.01460906
0.023413807 -0.052152015 -0.052364133 -0.008184354 -0.01801812 0.025829967 0.09590503 0.23259783
00000000: 6962 d73d 7e0d 193d a62e e739 b856 6dbd
00000010: bcce 163d b5a2 80bd bd82 80ba 3511 bdbc
00000020: b633 9d3b 5e68 d53c 51f1 6dbc bf0d 47bd
00000030: ec77 633d 2e40 c9ba 93ac 75bc 81ff d03b
00000040: c5c4 39bc 165b babc 6aeb 723d e037 fbbc
00000050: 35c4 733c 213f 6dbc cbbb bd3c a62a 8bba
00000060: 2eec b0bc fff6 aebc c7ce e9bc 5fdd 5d3c
00000070: f6fe 6cbc 2f13 9fbc 4b38 95bd 6f98 ed3c
00000080: 35a4 a03c 9d82 25bc b99f 59bb d2e7 ccbc
00000090: 0aec 0d3c 8d1f 45bc 0ff9 1dbc 60ca 0fbc
000000a0: ccbf d03b 1a41 6c3b 6611 acbb ab95 6fba
000000b0: eeef 22bc 998a 453b ce9c 893a 2b83 2abb
000000c0: 8511 e7ba 6c4a 8abb f060 0c3c a030 d73a
000000d0: 1cd0 3b3a 8ffe 73bc a493 53bc 1e87 b7ba
000000e0: 8320 a93a 94db 24bd f515 ffbb b826 f73b
000000f0: f6fd 02bb 88c9 8bba b0dc eb3c e674 dc3b
00000100: 989f d23d 3c99 5c3b a0df b0bb c601 8ebd
00000110: 18ea f2bb 66ee 4e3c f33a 133c d08f fa3b
00000120: f03a 8cbc 2e4d 533a 4b74 b13c 15ba 44bd
00000130: 95da c9bb 2d19 a3bb a211 03bb 1ebb 133c
00000140: 8065 083c fd33 a63c 5c58 b93d 03fa 1cbd
00000150: b226 8bbc 36a9 3d3c 1f5d 833c 3500 74bb
00000160: 3be3 283b 3214 71bc aef5 1b3b e38d aebb
00000170: de2a eebb 50b9 653a e5a9 dc3d 7d2f 483d
00000180: f8a6 c0bc 2907 4f3b 3caf 333b c27f a0ba
00000190: aa19 93bb 4fec e63b dec0 263b a180 d23b
000001a0: 2333 aa3b 4a5f 103a d05f 243c 32d2 5e3a
000001b0: 3f57 1cbc 2479 25ba 11ef 9eba e32a 13bb
000001c0: 5377 09ba 2bd3 ca3b b199 e3ba 63ca efbb
000001d0: e3bf 303b 1335 38ba bd08 883c 9954 8d3b
000001e0: 7567 cebb d46c 103d 585b 323c 91d7 083b
000001f0: 6271 1b3b aa07 373a 2d5b 41bc 67ae 97bc
00000200: a79a 3c3d 33a1 f9bb 75a2 a63b 80cf 06bd
00000210: 6aae dc3b fda9 97bc faa8 33bc 9161 4ebc
00000220: 46d2 483c 0c97 a03b 5ced e2bb 2934 05bd
00000230: 4492 02bd 040e 6a3b c949 f73a fe1d faba
00000240: ad1a 8cba cba3 5dbb ffe0 d43c 52c5 5a3c
00000250: 339d b6bb 170b 36bc 48c9 d6bc 5c01 873b
00000260: 55a4 533c da54 6dbb d5e1 a53b 1f4e 0c3c
00000270: 4ec7 20ba 5cad 96bb 1924 b1bb e709 303a
00000280: 5586 3f3c 7c57 52bb 4b85 a1bb 4f91 ccba
00000290: 2030 983b e59b c5bb 0705 55bb 248f 89bb
000002a0: 7cc6 32bb 597b 393b 7161 fbbb 9726 18bc
000002b0: 5540 b53b c623 6f3a 004b 78ba 5686 0d3a
000002c0: c293 863a 3e83 88bb d326 953b 8da0 b13b
000002d0: c83c 293a 4f34 5abb cb88 6cbb 15b5 86bb
000002e0: 5010 e8b9 4c4f 91bc 28aa c1bb 7be9 13ba
000002f0: 3bac 9cba 743c 87b9 7f00 403c dbfe 153c
00000300: ba37 f2bc f4f4 6b3c dde6 aabb b4bb 263e
00000310: 1fe1 7b3a 8822 123d 4adc ee3b 4608 173c
00000320: 10e1 17bb abd6 9bbc ee09 7f3b 23fe ce3d
00000330: af3e 913d 14b2 c33b 8768 ca3a 25b7 8a3c
00000340: 84c1 9b3c d1aa fabb cbe7 63bc ad34 febc
00000350: adac 84bc acca 043d 6a68 03be 65fa 0dbc
00000360: 02cd 853a 86df 9c3b ff1e a13d 686a adbc
00000370: ae9b 45bc 6a42 2e3c 790c bc3d 1b1e 8c3d
00000380: 9dfe 4cbd 70e0 113b 4a4a 2dbc 36ad 183e
00000390: d203 363c 954a c53c ba78 893c 9fa9 e7ba
000003a0: ce05 a7ba 45bb cebc d967 cebc be7b af3d
000003b0: 64c1 9d3e 492f 9d3c d1db 9cba 3980 333c
000003c0: 35b4 1a3c a11d 1a3d 89b0 cb3d cf1e 1cbd
000003d0: a04d fabc 845e b93c 3694 59bd d75a 6fbc
000003e0: 50ce bf3c 5a9d 55bd c67b 56bd ab17 06bc
000003f0: bd9a 93bc 5e99 d33c db69 c43d 202e 6e3e

decoder_layer3.bias f4 [32]
0.056452505 -0.014695927 0.082465686 0.005055601 -0.0119654015 -0.00264954 0.09859656 0.14980844
-0.0029289047 0.008247578 -0.013665421 -0.0030947702 0.0008136088 -0.0057313577 -0.0019189904 -0.0014849957
0.11903389 0.2350648 -0.00085052196 0.006934007 0.011482441 0.0058990484 0.31182718 -0.0059677646
0.0069392305 0.00060497253 0.0053440444 0.0055419733 0.23027398 0.027287364 0.00090365735 0.008656078
00000000: be3a 673d 2fc7 70bc c5e3 a83d 74a9 a53b
00000010: 880a 44bc e8a3 2dbb feec c93d 6267 193e
00000020: def2 3fbb d920 073c eee4 5fbc a1d1 4abb
00000030: 5d48 553a 1dce bbbb a286 fbba 30a4 c2ba
00000040: 0ac8 f33d d4b4 703e 90f5 5eba ab36 e33b
00000050: d920 3c3c ce4c c13b d0a7 9f3e 3d8d c3bb
00000060: 7c62 e33b 0597 1e3a 181d af3b 7199 b53b
00000070: f1cc 6b3e c089 df3c 6be3 6c3a 39d2 0d3c
