results/vae_models/Wine.pt (torch, 362183 bytes, 75 tensors)

dof f4 [13]
00000000: 6d96 5040 7d79 1140 6a8c 3e40 6c47 3540
00000010: 3cbe ff3f 091a 4740 59a1 4940 87fe 5440
00000020: 32ab 3840 b4c2 3140 a4b4 5740 6627 6440
00000030: 7d5d 443e
3.2591813 2.27304 2.9773202 2.8324842 1.997993 3.110964 3.1504729 3.328035
2.885449 2.7775087 3.3704004 3.5649047 0.19176288

encoder_layer1.weight f4 [128, 13]
00000000: ac1a cc37 b1b4 0d37 6fae e936 beb3 b837
00000010: e768 e3ba 0746 b236 1d54 9b36 cec9 d535
00000020: 6662 8436 6832 0d37 6a96 1d36 c88f 0737
00000030: fd76 fabc 67e6 6339 1290 5a38 bef2 3738
00000040: 500b b739 ba1f 37ba e976 0e38 2b70 fd37
00000050: 93fc 1f37 baf1 cf37 c1c5 7a38 6595 7637
00000060: fe97 5338 baac d6bc baa0 bfb8 e393 c337
00000070: fbd9 c9b6 d473 51b9 a21d 6fbb 74ab 16b8
00000080: 86ea 50b8 119b 2636 8f90 c6b7 262d fe37
00000090: a1b2 75b7 2043 10b8 1208 f8bc fd70 e4b8
000000a0: 5310 81b5 94d9 beb5 c15d d9b9 b939 26bc
000000b0: 9ab9 fbb5 e6ff edb5 e613 60b3 cfa8 6db5
000000c0: b817 acb6 48a5 e2b4 33f0 14b6 ce29 3cbd
000000d0: 5226 6b3b 6ef5 9e3a c1f9 503a 7a9c bc3b
000000e0: ba9b 983b 489d b539 b78a 4739 ffc7 5339
000000f0: f660 8839 1c59 b73a 8b44 2739 3726 243a
00000100: 76e6 6abc 94a5 17bc ed90 64ba 65ca afba
00000110: 8504 88bc 8d49 adbd 93f5 d2ba 45cd cfba
00000120: 740e 33b9 d9ad 83ba 7f74 f0ba 6edb 3cba
00000130: abce daba e2ff 51be 9e3a 9db4 4b4c e7b0
00000140: a5f7 bcb0 3917 b9b6 a4d6 dfbb 736e 5cb0
00000150: e0bf 6bb0 1849 87ae e47a 1ab0 f7ce 32b2
00000160: d3fd 77af ba45 88b0 b7be a7bd ea3d edb4
00000170: 3952 18b1 930f f0b0 476f 19b7 5f19 19bc
00000180: c006 81b0 8aad 8ab0 a4fb abae d44e 38b0
00000190: ce09 74b2 6b74 8baf 25f2 9cb0 1ab0 b1bd
000001a0: 47cf ccbc 9ba6 28ba 9695 5db9 7e10 67bd
000001b0: 85f5 45be 5fb4 36b8 b917 dcb5 b468 7ab6
000001c0: b71b 5fb7 f97b a8bb 5ca4 31b7 ecc7 6fb8
000001d0: 24eb 7fbe dc81 efbc a26f beba 655a 92ba
000001e0: fae6 92bd 28ec 35be 84fd 48ba df79 23ba
000001f0: 583a aab8 3033 d4b9 c003 17bb 79db 74b9
00000200: 08ab a1ba 516b 8bbe d43f 5eba e523 04b8
00000210: 0bb5 6fb9 d834 77ba 1e78 5fbc d56d dcb9
00000220: d6a0 1dba cd6e 1238 96da e8b9 e6f3 01b9
00000230: 890d 57b9 9b7d b4b9 fa98 24bd 6ec7 1938
00000240: 16c4 e336 6b2c b336 42bd 9138 fc51 04bc
00000250: 4a5d 8036 b8be 5736 1f8c aa35 7383 4536
00000260: 924c bb36 a313 db35 0cb4 c436 eb46 d2bc
00000270: 08f1 0a34 3867 1633 93e8 0c33 f331 57b4
00000280: 8d42 90ba 4c65 0733 e934 0333 0445 e731
00000290: 2469 c932 a006 1133 999d 5232 4901 3c33
000002a0: 23b5 3abd a68a 19b5 261d 0eb1 e71d 01b1
000002b0: 6dda 2db7 21f7 17bc 3bbc a4b0 801f aab0
000002c0: ebb4 9bae 1fcf 48b0 5808 9db2 e09c 94af
000002d0: 8bf0 c3b0 e795 d6bd e8a5 93b6 2f3d c237
000002e0: 3f1b 3936 e6c6 a0b7 4277 deba fb6c 91b7
000002f0: f5da bab7 9505 6736 901a f0b6 0a4a b337
00000300: bb16 ffb6 1264 00b7 9db8 d4bc 7c05 e338
00000310: e6b9 d237 c1ed b637 1eab 3339 b4f4 59ba
00000320: e9e6 9537 85dc 8837 7cd3 9b36 e376 5b37
00000330: c70f eb37 7db3 0137 db09 dc37 ca45 ebbc
00000340: 6640 3dba 210c 8ab8 53da c6b8 3250 b2ba
00000350: 2f0f 10bc 04f7 2fb9 f32a 37b9 b9d8 9ab6
00000360: 9ed0 d2b8 8bb0 f4b8 968f 74b8 a134 1fb9
00000370: 6388 fdbc f2d1 3ebb f101 f1b7 be17 d8b6
00000380: e8c9 4bbc e9b6 e1bd f199 26b6 03c0 b4b4
00000390: 12ab feb3 c008 7ab5 8c61 00ba b218 80b4
000003a0: bd0a d2b5 d4d2 78be 17a8 41b6 32c2 e1b1
000003b0: 0d9c a5b1 79d1 75b8 3fb5 c1bc 4da4 1db1
000003c0: 5b02 27b1 88f1 f5ae a9ba d6b0 391a 85b3
000003d0: 97fe 03b0 8def 4fb1 cd80 05be a4d9 4e3d
000003e0: 2f56 b03c c518 ca3b 0961 b23d 3170 5abc
000003f0: 0afd 5ebc 9d05 9cbc 0371 8d3b 99a0 c0bb
2.4331115e-05 8.446325e-06 6.964248e-06 2.2018208e-05 -0.0017349989 5.3129656e-06 4.629152e-06 1.592847e-06
3.9453616e-06 8.415991e-06 2.3482376e-06 8.080104e-06 -0.030574316 0.00021734239 5.2109426e-05 4.385667e-05
0.00034912908 -0.00069856236 3.3966182e-05 3.0212183e-05 9.5359455e-06 2.4788886e-05 5.9788817e-05 1.4697526e-05
5.0447874e-05 -0.02620541 -9.1375274e-05 2.3314677e-05 -6.015643e-06 -0.00019974943 -0.0036486168 -3.5922465e-05
-4.980948e-05 2.4826188e-06 -2.3670755e-05 3.0300183e-05 -1.4644728e-05 -3.439479e-05 -0.030277286 -0.00010892933
-9.616e-07 -1.4219427e-06 -0.00041459317 -0.010145598 -1.8754974e-06 -1.7732352e-06 -5.217216e-08 -8.853503e-07
-5.1287607e-06 -4.2216038e-07 -2.2193533e-06 -0.045938306 0.0035880995 0.0012127587 0.00079717865 0.005755958
0.004657236 0.00034640194 0.00019029794 0.00020197032 0.00026012183 0.0013988349 0.00015951895 0.0006261798
-0.014337173 -0.0092557855 -0.00087191054 -0.0013411759 -0.016603718 -0.08461294 -0.0016094915 -0.0015854022
-0.00017076154 -0.0010046317 -0.0018345265 -0.00072043284 -0.0016693672 -0.20507768 -2.9286178e-07 -1.6829146e-09
-1.3749185e-09 -5.516133e-06 -0.006831007 -8.019249e-10 -8.576517e-10 -6.152073e-11 -5.619951e-10 -1.0408022e-08
-2.2554696e-10 -9.91512e-10 -0.08190673 -4.4189738e-07 -2.216565e-09 -1.7466725e-09 -9.145419e-06 -0.009344428
-9.387904e-10 -1.0090144e-09 -7.82088e-11 -6.705083e-10 -1.4204899e-08 -2.5366673e-10 -1.1419315e-09 -0.08676167
-0.025001181 -0.00064335176 -0.00021131927 -0.056412213 -0.1933194 -4.3560165e-05 -1.6398182e-06 -3.7313848e-06
-1.3298289e-05 -0.005141732 -1.058829e-05 -5.7168232e-05 -0.24992043 -0.029236726 -0.0014529119 -0.0011165856
-0.071729615 -0.17765868 -0.00076671713 -0.0006236117 -8.117099e-05 -0.0004047393 -0.0023043007 -0.00023351413
-0.0012334296 -0.27230313 -0.0008478139 -3.1504682e-05 -0.0002286026 -0.00094301766 -0.013639478 -0.000420435
-0.0006013041 3.4912304e-05 -0.00044413347 -0.00012393258 -0.0002050904 -0.0003442586 -0.040184952 3.6663776e-05
6.7879546e-06 5.3397866e-06 6.949391e-05 -0.008076187 3.8255575e-06 3.214851e-06 1.2706768e-06 2.94318e-06
5.5819482e-06 1.6322487e-06 5.8622154e-06 -0.025668582 1.2939938e-07 3.5018473e-08 3.2807815e-08 -2.0041607e-07
-0.0011006162 3.1524266e-08 3.0548936e-08 6.730831e-09 2.3447292e-08 3.376647e-08 1.2259442e-08 4.377333e-08
-0.0455829 -5.71987e-07 -2.0680289e-09 -1.8788968e-09 -1.036246e-05 -0.009275229 -1.1986069e-09 -1.2378081e-09
-7.0807214e-11 -7.3053913e-10 -1.8281e-08 -2.703251e-10 -1.4256484e-09 -0.1047781 -4.4002554e-06 2.3155093e-05
2.7583008e-06 -1.9166106e-05 -0.0016972797 -1.7336095e-05 -2.2274888e-05 3.4424932e-06 -7.1556497e-06 2.137294e-05
-7.6022384e-06 -7.652694e-06 -0.025966937 0.00010825225 2.5120517e-05 2.1806803e-05 0.00017134516 -0.00083143567
1.786971e-05 1.631515e-05 4.64398e-06 1.3081098e-05 2.802153e-05 7.73079e-06 2.6230633e-05 -0.028719801
-0.0007219374 -6.582612e-05 -9.482042e-05 -0.0013604222 -0.008792683 -0.00016781321 -0.0001746824 -4.6147875e-06
-0.00010052438 -0.0001166771 -5.8307858e-05 -0.00015183027 -0.030948823 -0.0029116836 -2.8730343e-05 -6.4400656e-06
-0.012438275 -0.110212155 -2.4825533e-06 -3.366732e-07 -1.1858914e-07 -9.314499e-07 -0.0004897348 -2.3859826e-07
-1.5649345e-06 -0.24299175 -2.8857082e-06 -6.5704393e-09 -4.819873e-09 -5.860764e-05 -0.023645995 -2.29399e-09
-2.4303037e-09 -1.1184215e-10 -1.5623601e-09 -6.198065e-08 -4.8019316e-10 -3.0258633e-09 -0.13037415 0.050500527
0.02152547 0.0061675035 0.08709914 -0.013332413 -0.013610134 -0.019045645 0.0043164506 -0.0058785197

encoder_layer1.bias f4 [128]
00000000: e7e7 f835 fa18 b137 3e38 27b7 dbea f9b5
00000010: 001c c239 6950 68ba 9f37 e3b1 d743 03b2
00000020: fdf8 bcb8 91b7 1eba e074 dfb8 2d17 3d36
00000030: a55e 5432 9be3 08b2 15eb ceb6 cbb3 3137
00000040: 6f96 81b8 6932 8bb6 beaf 74b2 7295 773b
00000050: 7355 36b9 e874 04b2 1810 19b2 d4e9 06b2
00000060: a7fa 22b7 372d 8138 cb4e 1cb8 f01e 2cb2
00000070: ff66 8ab6 5fff eabd d386 8eb9 e8dd 0ab9
00000080: c078 bbb6 1f9e 8abc f0fa 91b9 50ba d4b9
00000090: 02a9 5b37 8382 cc38 c83b 1239 0cbd 2838
000000a0: 9ed8 d536 f6de 07b2 9e3f b939 0e4b d8b5
000000b0: cde8 f7b8 ceff dd37 993d b4b8 c445 09b2
000000c0: c2d9 04b2 b690 9bb1 a4d5 f238 1551 d3b1
000000d0: 44fd bfb5 190a 73b8 e09d d538 5d77 ebb1
000000e0: 9422 c939 202b 00bd bc77 55b2 59c2 efbb
000000f0: 4e35 8eb9 55c8 f2b6 79ca ffb1 d3e7 07b2
00000100: 8b3c 58b2 571a 2f38 9d37 d836 96cd 1fb1
00000110: b798 f1b8 7e50 03b2 3353 06b2 657e 4bb6
00000120: eaa6 97b1 42b7 6d39 25b5 3d34 0991 9f38
00000130: 0e6d 913a 7cbb 0434 a05a ecb1 ce82 1539
00000140: f13d bcb8 c396 ca35 4fc0 bcb8 42d4 edb1
00000150: 9c1c d7b1 b375 8bb6 2348 4ab2 e9a1 beb8
00000160: aeb8 6735 ca88 e8b1 0e1a f9bd 94f1 82b8
00000170: ec2f f0b1 c949 95b0 1898 a3bb 4bda f738
00000180: fd18 10b2 4fa0 0ab6 1b0e bcb7 ea89 4939
00000190: 93ef f1b1 c3bd 06b2 5824 09ba 3d49 08b2
000001a0: 49d8 b2b9 d969 6335 1434 05b2 a49f f1b1
000001b0: 75b7 d4b1 2804 bdb1 24a0 ddb1 136b 5a37
000001c0: 919f 8fb2 2e2b 0bb8 2a58 aab1 4324 813c
000001d0: a03c ccb6 3a25 1b3a 182e c5bd 6152 7a35
000001e0: 2304 42b8 a41c 05b2 7837 df39 14b6 bcbb
000001f0: cd73 f4b5 2fdc 39b6 37a8 3e37 0b42 2ab2
1.8544932e-06 2.1111675e-05 -9.967071e-06 -1.8620298e-06 0.00037023425 -0.00088620797 -6.612893e-09 -7.640629e-09
-9.010916e-05 -0.0006054575 -0.00010655238 2.8176685e-06 1.2361544e-08 -7.967993e-09 -6.1666456e-06 1.0591883e-05
-6.17922e-05 -4.1483913e-06 -1.4242628e-08 0.0037778285 -0.00017388705 -7.709993e-09 -8.909431e-09 -7.852993e-09
-9.714312e-06 6.159621e-05 -3.726668e-05 -1.0018752e-08 -4.124711e-06 -0.114744894 -0.00027184802 -0.00013243372
-5.5870914e-06 -0.016921101 -0.00027843518 -0.00040574605 1.3092767e-05 9.751788e-05 0.00013945915 4.0230385e-05
6.3731122e-06 -7.90873e-09 0.00035333348 -1.6115098e-06 -0.0001182124 2.6464371e-05 -8.594542e-05 -7.990312e-09
-7.732924e-09 -4.5275454e-09 0.00011579253 -6.150126e-09 -1.4304319e-06 -5.794512e-05 0.00010186038 -6.85297e-09
0.0003836347 -0.031291127 -1.2425456e-08 -0.007316869 -0.00027124066 -7.2354837e-06 -7.4444952e-09 -7.910745e-09
-1.2586621e-08 4.1747782e-05 6.443776e-06 -2.3254407e-09 -0.00011520221 -7.643505e-09 -7.818744e-09 -3.0322929e-06
-4.4136543e-09 0.0002267035 1.7667897e-07 7.608726e-05 0.0011095123 1.2361664e-07 -6.878807e-09 0.00014258476
-8.976076e-05 1.509405e-06 -9.000359e-05 -6.9217387e-09 -6.260576e-09 -4.156225e-06 -1.17743495e-08 -9.090064e-05
8.632295e-07 -6.76764e-09 -0.12163173 -6.2438805e-05 -6.9903674e-09 -1.0862148e-09 -0.004992496 0.00011818538
-8.387585e-09 -2.0656914e-06 -2.2417915e-05 0.00019220231 -7.0412596e-09 -7.842973e-09 -0.0005231551 -7.932894e-09
-0.0003411195 8.471812e-07 -7.75346e-09 -7.032172e-09 -6.1908687e-09 -5.5010965e-09 -6.4501524e-09 1.3018743e-05
-1.6719953e-08 -3.3180397e-05 -4.9576743e-09 0.015764361 -6.0867314e-06 0.0005918328 -0.09627932 9.3252135e-07
-4.6257057e-05 -7.748131e-09 0.00042575202 -0.00575901 -1.8213119e-06 -2.7695312e-06 1.1364048e-05 -9.910319e-09

encoder_layer2.weight f4 [64, 128]
00000000: 96f5 6638 aafc 6538 e19c 6638 bdd8 6638
00000010: 19b6 7b38 7ac8 6638 7b94 6638 61b2 6638
00000020: 42af 6438 3c9a 6638 356e 7938 ce8e 9938
00000030: 3f96 6638 7de0 6638 9771 6638 d4a2 6638
00000040: 18dd 6a38 438d 6638 01a0 6638 7fb1 f838
00000050: b3b6 8338 bd4a 6738 48c8 6638 849a 6638
00000060: fc12 6838 b3de 8338 b7a2 6638 ad99 6638
00000070: 6eba 6638 ba50 24be f489 8538 37bd 6638
00000080: b7fd 6638 32fa 6638 fa9d 6638 4d76 6738
00000090: 1842 7638 5c29 6838 a41e 6b38 c709 8d38
000000a0: 8b06 c138 5397 6638 c4d5 6c38 2d54 8438
000000b0: 714e 5c38 cdac 6638 e893 6638 a093 6638
000000c0: eea6 6638 efa8 6638 bd47 6838 dfb9 6a38
000000d0: 2ce5 7038 bf03 6938 071a 6a38 1c39 6738
000000e0: 5f2c 7b38 1f94 6638 43a6 6638 1397 6638
000000f0: 0356 6a38 c6e8 8a38 302a 6738 5ba0 6638
00000100: 2f94 6638 0e5f 6738 a995 6638 149e 6638
00000110: 2416 5c38 be93 6638 fd97 6638 cdcb 3f38
00000120: a093 6638 0654 7538 4741 8038 e9f8 9738
00000130: c8f3 7738 5a9b 6638 d894 6638 82ef 8838
00000140: 23ac 6338 e62d 9738 1c92 6438 2fcb 6638
00000150: 4ace 6638 91a3 6638 1d96 6638 2c0b 7538
00000160: cb9b 6638 1cce 6638 14ec 39be de26 8538
00000170: d4c8 6638 4286 6938 cbc7 7d38 5e11 7338
00000180: eab2 6638 fa69 6638 51a9 6638 acac 6638
00000190: d6b7 6638 5bb5 6638 0594 6638 49ba 6638
000001a0: fa40 6738 fd80 6638 bbab 6638 d0a5 6638
000001b0: 2f94 6638 eea3 6638 169f 6638 d0e5 6638
000001c0: d522 6738 347b 6938 3aa1 6638 8c26 ab38
000001d0: 7b57 6638 c93b 8c38 a67b 11be 919a 6a38
000001e0: 5f76 5537 23aa 6638 1655 7038 07df 8838
000001f0: 8777 6638 e636 6638 ef94 6638 bc93 6638
00000200: 3c7a bdb7 0aac 273a 99cd 8939 ca3f 4439
00000210: aab1 cc3a 6ea3 c8b7 a189 c8b7 0194 c8b7
00000220: 9293 c8b7 66de 3238 2379 4a38 22aa 54ba
00000230: 148e c8b7 1594 c8b7 22d7 8ab7 8e30 d939
00000240: 6baf bdba 6993 c8b7 3692 c8b7 d5c5 08bd
00000250: ec90 44bb 7a90 c8b7 7c8b c8b7 e692 c8b7
00000260: 6794 c8b7 999c 1c3c 3994 c8b7 0294 c8b7
00000270: 5693 c8b7 4747 84bd d9cc 79bb ec96 c8b7
00000280: ec96 c8b7 c842 9d3a a092 c8b7 b1c0 2c3a
00000290: e14f 8d3b df26 7939 6054 e639 1d04 2cbc
000002a0: 8951 0b3c bb90 c8b7 a80b 8d39 0e9c 91b9
000002b0: 9f55 7eb7 7822 b7b7 9c00 b5b7 6793 c8b7
000002c0: fa93 c8b7 7291 c8b7 b705 6b37 730b 84b9
000002d0: 82af 3d37 76f5 a73a 7ea3 a93a 988f c8b7
000002e0: e74d c13a 6472 c0b7 5592 c8b7 8992 3fb7
000002f0: b493 cdb9 ddfe 11bc 6e8d c8b7 de93 c8b7
00000300: 8193 c8b7 5a4f 963a e692 c8b7 a893 c8b7
00000310: f258 3f39 9c93 c8b7 e399 c8b7 873d 5438
00000320: ff93 c8b7 be43 903c 4bf9 cd3b 6153 25ba
00000330: d4e4 9d3a fd93 c8b7 5792 c8b7 1575 c1bb
00000340: 5c93 c8b7 0bf3 54bb 779e c8b7 0192 c8b7
00000350: 0193 c8b7 5c9a c8b7 1a90 c8b7 0aa3 afba
00000360: ca11 04b7 0493 c8b7 fe24 9abd 723f 1f3c
00000370: 1594 c8b7 27aa 963a 459a 583b 9574 0c3b
00000380: 3491 c8b7 245a 4a38 1e8d c8b7 3913 c8b7
00000390: b690 c8b7 ea92 c8b7 3df3 c7b7 4b94 c8b7
000003a0: 14f1 8439 94a5 3a35 ce91 c8b7 b191 c8b7
000003b0: 1594 c8b7 0392 c8b7 7c8f c8b7 9fae 50b9
000003c0: 9b92 c8b7 7d5d 0a38 6e92 c8b7 9d70 2ebb
000003d0: ddf8 c7b7 177f b7ba 608a 9bbd 1607 aa38
000003e0: e2d9 c7b7 e894 c8b7 0386 d339 8155 a2bb
000003f0: 338f c8b7 0b0d c1b7 b27d 5839 9293 c8b7
5.5064993e-05 5.4833166e-05 5.4982378e-05 5.5038126e-05 6.0012655e-05 5.502298e-05 5.4974556e-05 5.50024e-05
5.4522658e-05 5.4979915e-05 5.9468864e-05 7.322208e-05 5.49762e-05 5.5045344e-05 5.4942062e-05 5.498792e-05
5.5995857e-05 5.4967833e-05 5.498529e-05 0.00011858623 6.280597e-05 5.5144297e-05 5.50228e-05 5.4980177e-05
5.533079e-05 6.288048e-05 5.4987813e-05 5.4979395e-05 5.50099e-05 -0.1604642 6.36763e-05 5.5012493e-05
5.5072564e-05 5.5069286e-05 5.49834e-05 5.5184868e-05 5.8712525e-05 5.535163e-05 5.6056902e-05 6.725225e-05
9.204176e-05 5.4977205e-05 5.646587e-05 6.3099294e-05 5.252514e-05 5.4997206e-05 5.497402e-05 5.497376e-05
5.499174e-05 5.4993605e-05 5.5379922e-05 5.5963053e-05 5.7433892e-05 5.5555018e-05 5.5814187e-05 5.512788e-05
5.9884387e-05 5.497422e-05 5.4991116e-05 5.4976972e-05 5.5870052e-05 6.62371e-05 5.5113982e-05 5.4985616e-05
5.497428e-05 5.516322e-05 5.4975655e-05 5.4983495e-05 5.2472707e-05 5.497387e-05 5.4977823e-05 4.5727753e-05
5.497376e-05 5.8490805e-05 6.1156745e-05 7.246604e-05 5.9116428e-05 5.4980956e-05 5.4974895e-05 6.529597e-05
5.4281332e-05 7.20879e-05 5.449551e-05 5.5025503e-05 5.5028395e-05 5.4988606e-05 5.4976077e-05 5.8422956e-05
5.4981367e-05 5.5028228e-05 -0.18156463 6.349174e-05 5.502331e-05 5.5676566e-05 6.0505972e-05 5.795189e-05
5.50029e-05 5.493497e-05 5.499396e-05 5.4997086e-05 5.5007484e-05 5.5005174e-05 5.4974127e-05 5.5009765e-05
5.5135206e-05 5.4956403e-05 5.499621e-05 5.4990698e-05 5.497428e-05 5.4988945e-05 5.4984434e-05 5.5050303e-05
5.510713e-05 5.566627e-05 5.4986427e-05 8.161095e-05 5.4917746e-05 6.686856e-05 -0.14207324 5.59339e-05
1.272335e-05 5.4994725e-05 5.72997e-05 6.5265274e-05 5.494759e-05 5.48874e-05 5.497498e-05 5.497386e-05
-2.2587476e-05 0.000639618 0.00026283858 0.0001871578 0.0015616913 -2.391796e-05 -2.3905946e-05 -2.3910778e-05
-2.3910576e-05 4.264563e-05 4.827337e-05 -0.000811251 -2.3908018e-05 -2.3910814e-05 -1.6551061e-05 0.0004142564
-0.0014471834 -2.3910501e-05 -2.3909943e-05 -0.033391792 -0.0029993607 -2.3909135e-05 -2.390681e-05 -2.3910263e-05
-2.3910963e-05 0.00955882 -2.391088e-05 -2.391078e-05 -2.3910467e-05 -0.064589076 -0.0038116483 -2.3912136e-05
-2.3912136e-05 0.0011998052 -2.3910135e-05 0.00065899926 0.004312501 0.00023760971 0.00043931883 -0.010499028
0.008503326 -2.3909253e-05 0.000269023 -0.00027772825 -1.5159515e-05 -2.183135e-05 -2.1577165e-05 -2.3910497e-05
-2.3910765e-05 -2.3909586e-05 1.4008422e-05 -0.00025185532 1.13061415e-05 0.0012814242 0.0012942401 -2.3908724e-05
0.0014747948 -2.294145e-05 -2.3909999e-05 -1.1418605e-05 -0.00039210694 -0.008910862 -2.3907716e-05 -2.3910714e-05
-2.3910545e-05 0.001146774 -2.3910263e-05 -2.3910616e-05 0.00018248314 -2.3910594e-05 -2.3913517e-05 5.060204e-05
-2.3910774e-05 0.017610427 0.0062858216 -0.0006306675 0.0012046346 -2.391077e-05 -2.3910003e-05 -0.00590385
-2.3910477e-05 -0.0032493498 -2.3915649e-05 -2.3909846e-05 -2.3910312e-05 -2.3913737e-05 -2.390896e-05 -0.001340003
-7.871955e-06 -2.3910317e-05 -0.07526587 0.009719716 -2.3910814e-05 0.0011494801 0.0033050936 0.0021431793
-2.3909473e-05 4.8244503e-05 -2.390757e-05 -2.385081e-05 -2.3909244e-05 -2.391027e-05 -2.3835915e-05 -2.3910912e-05
0.0002535662 6.953135e-07 -2.3909754e-05 -2.39097e-05 -2.3910814e-05 -2.390985e-05 -2.3908673e-05 -0.00019901477
-2.3910126e-05 3.298883e-05 -2.3910045e-05 -0.0026617416 -2.3838535e-05 -0.0013999668 -0.07594752 8.1075515e-05
-2.3824108e-05 -2.3911198e-05 0.00040344903 -0.0049540405 -2.390854e-05 -2.3013466e-05 0.0002064619 -2.3910576e-05

encoder_layer2.bias f4 [64]
00000000: 402f 44b9 3f7e d537 723d 21ba c733 52b9
00000010: de9a 83b9 82d0 40ba c126 9839 1999 29b6
00000020: c76b 54be d2cd 2aba 4db3 51bb 4ce1 79ba
00000030: 992a 3dbb 664e 80be eb52 27bb aba0 e83a
00000040: e682 99ba 73c8 bb38 23bf 12ba e924 473a
00000050: 62ab 8138 317a 2d37 6003 1638 33a8 6234
00000060: 4aaf 35bb a285 c63b 878d 2d3a a20e 573b
00000070: 80c7 31bb 50eb 02ba 4bb0 3bbc ad1c 99b8
00000080: 00c0 94bb b33c a8bb 181d fb3a 2a53 813a
00000090: 0097 6d39 d147 06bc ed5a 3dbb b7af 33ba
000000a0: c721 7e3b 87a5 0fbb 041f a838 7c08 35b6
000000b0: 0489 9dba 8447 c8bc 5ae8 3337 1a7b 4d39
000000c0: 0478 b7bc 24a0 debb 0ebf 8bba 5177 16b6
000000d0: 8957 9eba 65ff ae38 dce5 d3b8 44ba 6bb7
000000e0: 8042 06b8 e7b7 313a 7a2f 2abb 43dd f2bb
000000f0: 0931 bdb8 3aa3 9eb7 5c11 31ba 210f 84b9
-0.00018709619 2.5450367e-05 -0.00061508187 -0.00020046449 -0.00025101652 -0.0007355289 0.00029020573 -2.5272077e-06
-0.20744239 -0.0006515655 -0.003199774 -0.0009532168 -0.0028864502 -0.25059813 -0.00255316 0.0017748078
-0.0011711984 8.9541914e-05 -0.00055979396 0.00075967476 6.183122e-05 1.0340053e-05 3.576593e-05 2.110908e-07
-0.0027722889 0.0060584107 0.00066205155 0.0032815118 -0.0027126968 -0.0004994171 -0.011455606 -7.30095e-05
-0.0045394897 -0.005134189 0.0019158451 0.0009866704 0.00022658333 -0.008195833 -0.0028893307 -0.00068544917
0.0038777457 -0.002191873 8.0166414e-05 -2.697604e-06 -0.0012018983 -0.024448164 1.072333e-05 0.00019596182
-0.022396095 -0.0067939926 -0.0010661797 -2.2421193e-06 -0.0012080531 8.3445375e-05 -0.00010104079 -1.405046e-05
-3.2010023e-05 0.0006779418 -0.002596824 -0.0074116304 -9.021356e-05 -1.8911076e-05 -0.0006754601 -0.00025188274

encoder_layer3.weight f4 [32, 64]
00000000: b20a e8bd f576 c4bd 03b4 e8bd 045f f2bd
00000010: a0d4 edbd 79ee 6fbd 931c edbd 6a7e f1bd
00000020: fe5d b5bd fa8c febd e524 9fbd 7359 efbd
00000030: 0163 ecbd 37ff 31be 05a9 f1bd e8c3 a9bd
00000040: bbb2 f0bd 682b edbd 677d f1bd 46bc 65bd
00000050: ba8a f0bd c474 ecbd 450b 02be c41b f2bd
00000060: 3c6a abbd 4cf4 ebbd 47c2 debd 7d5e bdbd
00000070: 8ab0 f1bd ae95 ecbd b888 84bd 9529 eebd
00000080: 985d f3bd 83a5 b2bd 745d 51bd 6587 eebd
00000090: 3d15 f2bd 0496 7ebd d83f f0bd 8058 efbd
000000a0: 3f0d babd c592 f0bd ac80 e8bd cdb1 f1bd
000000b0: b53b eebd f6b7 f3bd 73a9 d4bd f200 c5bd
000000c0: 369d f3bd 02cd d6bd 3e72 e6bd 08f4 f1bd
000000d0: 7d8a efbd 6897 f1bd 503d f1bd 9c1a 81bd
000000e0: 7e32 d7bd de17 e6bd b510 f1bd fc28 e6bd
000000f0: b68c 16bc d8a0 19bc 9727 e7bd 2f84 e3bd
00000100: c704 2a3d cc2b 2a3d 57bf 2a3d ec99 383d
00000110: d38a 293d 2599 293d a158 2c3d a063 2a3d
00000120: f03a 6abe 1538 4f3c 1e94 a83c 7b40 293d
00000130: 5533 2a3d 47c1 05bf 13f1 2a3d 2e66 373d
00000140: 32ac 293d 9c0b 283d 563a 2b3d b67a 2c3d
00000150: ab3a 2c3d 4861 2a3d 7a24 8d3a 5661 2a3d
00000160: 92d8 2a3d 7a3b 2e3d 1664 2a3d d6a4 f1bc
00000170: c1d2 2b3d 1782 293d 525b 2a3d ebcb 2b3d
00000180: 4074 2b3d 701b f13c 4c82 2f3d 1c96 2a3d
00000190: 020f 2d3d f481 28bd 0f01 2b3d 7bef 2b3d
000001a0: ecc8 293d 2031 2a3d e46a 2a3d 1862 2a3d
000001b0: 4bb6 2c3d a960 293d b44e 363d 6379 2a3d
000001c0: e891 273d 2cab 2c3d 0ede 2b3d d961 2a3d
000001d0: 8ecf 2a3d fae7 2a3d af9f 2e3d 7b1f 2c3d
000001e0: ef50 433d 3c5c 2c3d e08a 2c3d 5719 293d
000001f0: 3caf 583d efe8 2b3d 32af 2b3d b477 2a3d
00000200: b8c0 023d f963 ef3c ccf0 003d 400f 903c
00000210: 0131 023d 7e35 033d 633c 023d 9ba4 023d
00000220: e790 293d cafd f9bb e951 093d e31e 033d
00000230: 882c 023d a852 edbd b816 033d 333e c33c
00000240: bedc 013d 3437 023d 9a81 023d 67a6 ee3c
00000250: 3775 023d b2a3 023d 1303 51bd a4a5 023d
00000260: 5e87 f03c cd4a f23c b678 003d 7604 303d
00000270: 03d6 023d 5574 023d 840b 163d ca89 023d
00000280: 16e5 023d e029 063d 225f f83c 760d 013d
00000290: 98e9 013d 7fb1 88bd dbdb 003d 5b0d 033d
000002a0: 8a4e 9c3c 4d8d 023d a899 023d 42a5 023d
000002b0: 302d 033d 8a42 043d 3b9c f4bb f67c 8f3c
000002c0: 52b1 043d 4ebc 053d 5420 023d 61a5 023d
000002d0: 8579 033d a31a 023d 9c7f 023d 0664 0b3d
000002e0: 56de 193c d6f6 003d b803 033d e6aa 053d
000002f0: d3c9 ac3b 9e6d aa3c a8b7 023d 640d 023d
00000300: 55b5 b93c f2b8 b93c cef6 ba3c ccc4 b93c
00000310: 780e b93c d5c1 b93c 4786 b93c ecb8 b93c
00000320: 82db 163d b3f8 b83c 13c7 b93c 5684 ba3c
00000330: 43d5 b73c 92cb 12be 486d b93c ec6e b53c
00000340: d9ec ba3c 6e21 b93c 572f b93c 0c55 b63c
00000350: 21ca b93c 9ab8 b93c 4d00 b73c 11b9 b93c
00000360: 7c5d b63c a5d2 af3c 8046 b83c ddf7 b53c
00000370: 3a2e b93c cd2b b93c 4c76 ea3c 57b0 b93c
00000380: 8682 b93c 8796 b93c 6a53 b53c cabb b73c
00000390: a4e4 b83c d7c1 9a3c c7a2 bc3c dad5 b93c
000003a0: a266 ac3c b0db b83c 15b0 b93c ffb8 b93c
000003b0: 87f3 b93c 537e ba3c b681 b93c fc19 b93c
000003c0: 9402 bb3c 6a5a be3c dd9f b83c a5b9 b93c
000003d0: b2a9 ba3c 4436 b93c 6697 b93c 38c6 b73c
000003e0: b926 b93c 8741 ba3c f57d b93c e03a be3c
000003f0: 1d21 b73c 0951 b93c da88 b93c f9c8 b83c
-0.11330165 -0.09593002 -0.113624595 -0.11834529 -0.116128206 -0.058577035 -0.11577716 -0.1179169
-0.08855818 -0.12429233 -0.07770709 -0.11686983 -0.11542321 -0.17382513 -0.11799816 -0.08289319
-0.1175284 -0.11580545 -0.11791497 -0.056087755 -0.1174521 -0.11545709 -0.12699611 -0.11821702
-0.08369872 -0.11521205 -0.10876899 -0.09246538 -0.1180125 -0.11551987 -0.064713895 -0.11629025
-0.11883086 -0.08722975 -0.051114514 -0.11646918 -0.11820457 -0.062154785 -0.11730927 -0.11686802
-0.09084558 -0.11746744 -0.11352667 -0.11801491 -0.11632482 -0.11900322 -0.103838824 -0.09619321
-0.1189522 -0.10488321 -0.11252259 -0.118141234 -0.116963364 -0.117964566 -0.117792726 -0.063039035
-0.105076775 -0.11235021 -0.11770765 -0.11238286 -0.009188822 -0.009376727 -0.11286848 -0.111091964
0.041508462 0.041545674 0.041686382 0.045068666 0.04139216 0.041405816 0.04207671 0.041598916
-0.22874045 0.012647648 0.02057844 0.04132126 0.04155286 -0.5224804 0.041733813 0.04477518
0.041423984 0.041026697 0.04180368 0.042109214 0.042048138 0.04159668 0.0010768317 0.041596733
0.041710444 0.04253719 0.041599356 -0.029497545 0.041949037 0.04138383 0.041590996 0.04194252
0.04185891 0.029432029 0.04284887 0.04164706 0.04225064 -0.041139558 0.041749056 0.041976433
0.04145138 0.041550756 0.041605845 0.041597456 0.042166036 0.041351948 0.04450865 0.04161967
0.04091063 0.04215543 0.041959815 0.04159722 0.041701846 0.041725136 0.042632755 0.04202221
0.047684606 0.04208015 0.04212463 0.04128393 0.05290149 0.04197019 0.041915126 0.041618064
0.031922072 0.029222475 0.03147964 0.017585397 0.031785015 0.032033436 0.03179587 0.03189526
0.041397955 -0.007629131 0.03352538 0.032011878 0.03178075 -0.11588031 0.03200409 0.02383337
0.031704657 0.031790927 0.03186188 0.029132081 0.031850066 0.031894393 -0.051028322 0.03189625
0.029361423 0.029576683 0.03136512 0.042973004 0.03194238 0.031849224 0.036632076 0.031869687
0.031956755 0.03275478 0.0303188 0.031506978 0.031716913 -0.0667448 0.03145967 0.03199516
0.01908042 0.031873036 0.03188482 0.031895883 0.032025516 0.03229002 -0.007464913 0.01751564
0.03239567 0.032650284 0.03176911 0.031896 0.032098312 0.031763684 0.03185998 0.034030937
0.009391388 0.0314854 0.03198597 0.032633685 0.0052730828 0.020804223 0.03191343 0.03175105
0.022669474 0.022671197 0.022822764 0.022676848 0.022589907 0.022675434 0.022647036 0.022671185
0.036830433 0.022579527 0.022677934 0.02276818 0.022440558 -0.14335468 0.022635117 0.022147618
0.022818016 0.022598948 0.022605581 0.02225735 0.02267939 0.022671033 0.02233901 0.022671254
0.022261374 0.021462748 0.022494555 0.022212917 0.02260505 0.022603894 0.028620861 0.022667093
0.022645246 0.022654785 0.022134501 0.022428412 0.022569962 0.018891258 0.023026837 0.02268498
0.021045033 0.022565693 0.02266697 0.02267122 0.02269913 0.022765314 0.022644859 0.022595398
0.022828378 0.023236472 0.022537166 0.02267153 0.022785995 0.022608884 0.0226552 0.022433385
0.022601472 0.022736324 0.022643069 0.023221433 0.022354657 0.022621648 0.022648264 0.022556769

encoder_layer3.bias f4 [32]
00000000: f2f4 113e a268 35bd d0a2 14bd 4b21 e9bc
00000010: c3f1 7cbb 8fc6 04bd cb1c e2bc 6812 f0bc
00000020: 3bc9 29bd 675d 45bd 4e31 d7bb ccec 74bc
00000030: 4e21 13bd 12a6 11bd 43ba ecbc ee24 21be
00000040: eb6b a23c ebf0 0ebd ac12 173e b3cf 21bc
00000050: 5431 9abc de23 f8bc 2150 37bd c0ad fd3d
00000060: b49d ef3b ca2c 81bc 52f4 2e3e 6f02 62bc
00000070: e182 d93d 9ad6 15bd 4bec 543e 5643 893d
0.14253595 -0.04428924 -0.036288083 -0.028458258 -0.003859625 -0.032415923 -0.02760162 -0.029305652
-0.041451674 -0.04818478 -0.006567157 -0.014949035 -0.035920434 -0.035558768 -0.02889741 -0.15736744
0.01982685 -0.034897726 0.14753217 -0.0098761795 -0.01882235 -0.03029054 -0.04475415 0.12386656
0.007312501 -0.015768427 0.17085388 -0.0137945255 0.10620666 -0.036581613 0.20793264 0.067022964

encoder_layer_mu.weight f4 [2, 32]
00000000: 0d45 6c3e bae2 a1bd cdde ac3d 67ae e23d
00000010: 6107 8abb 5993 c73d 8874 003e 0ab7 2a3d
00000020: 684e d13d c008 323e 1eab 513d 6378 933d
00000030: 6d26 7b3d e781 d53d d975 a83d bd15 81bd
00000040: 6f4c e0bd 0bca 053e 09cd 423e 557b 573d
00000050: dd3f 51bb 8b7e 193e 164a 643e 6174 223e
00000060: af9b 18bd 288c f43d 1d05 673e 7ecf c53c
00000070: 6a1c 223e 351e 043e 3489 063e afd1 0c3d
00000080: 1715 ba3c c04f 2bbd 1017 11bd 57e0 44bd
00000090: 0a24 e8bc f7d1 07bc 1722 dfbc f690 88bd
000000a0: 2de5 5ebd 6bc8 10bd 6b3c 28bd d783 c6bd
000000b0: 9cdf 2a3c 0403 9bbd 18b5 353c cd56 91be
000000c0: 11c9 babd 4b61 97bd 1ab2 463d 2555 7cbd
000000d0: 5515 2ebd 7889 443c 209d eabd 3d23 5bbb
000000e0: 8beb 6fbd f1af adbc 2776 913d 880e 28bd
000000f0: ff21 243d 8c8e b0bc a57d eabe da6b dfbd
0.23073216 -0.07904573 0.084409334 0.11068421 -0.0042123054 0.09744901 0.12544453 0.041678466
0.10220033 0.1738615 0.05118858 0.07200696 0.061315943 0.104251675 0.08225603 -0.063029744
-0.109520786 0.13065355 0.19023527 0.052607853 -0.0031928935 0.14989679 0.22293887 0.15864708
-0.037257846 0.11940795 0.22560544 0.024146792 0.15831152 0.12902148 0.13138276 0.034379657
0.022715135 -0.041824102 -0.035422385 -0.04806551 -0.028337497 -0.008289806 -0.027237935 -0.06668274
-0.054417778 -0.035347383 -0.041073244 -0.09693115 0.010429289 -0.075689346 0.011090539 -0.28386536
-0.091203816 -0.07391604 0.048509695 -0.061604638 -0.042500813 0.011995666 -0.114557505 -0.0033437752
-0.05857424 -0.02120206 0.07102614 -0.041029483 0.040071484 -0.021552347 -0.45798984 -0.10909243

encoder_layer_mu.bias f4 [2]
00000000: d888 4bbe 9714 8c3e
-0.1987642 0.2735946

encoder_layer_sigma_square.weight f4 [2, 32]
00000000: 215f 9c3d cbca 363e 1065 593e 1212 823e
00000010: dcd5 163e 7af6 5a3e 63bb 3b3e 6f75 6d3e
00000020: ffee 7b3e e0e8 7a3e 33fb 703e 4689 403e
00000030: 8551 333e 8d38 743e 8f96 213e f50c 643e
00000040: 1d3b de3d cbb1 863e 4e4a 533d c9ec 823e
00000050: a717 2f3e 4d3a 763e d430 853e 44d6 f53a
00000060: 6d13 0f3e eae3 6d3e 4ddc f73c c9ab 773e
00000070: d0e4 0dbd c1aa 743e 00a9 4a3b 64ea 0eba
00000080: 1f09 63bd 7cd9 173e a21b 113e 8404 4e3e
00000090: 687c 0d3e 518f 223e eaa2 393e e127 233e
000000a0: 0a08 323e b976 373e 507d 433e f641 5e3e
000000b0: 8f17 1e3e 3962 523e 0a16 303e 5cd8 db3c
000000c0: e485 503e 4161 563e 46e8 173d 8119 403e
000000d0: e488 403e 08f5 563e 954f 5b3e 5ad8 d63c
000000e0: 5d7c 463e 16b3 4b3e a0e4 0a3d a697 4d3e
000000f0: d935 b23d 7195 443e 77d8 20be 7650 bfbd
0.07635332 0.17850797 0.21229959 0.25404412 0.14730018 0.21383086 0.18333201 0.23189329
0.24602889 0.24502897 0.23533325 0.18802366 0.17511566 0.23849697 0.1578009 0.22270568
0.10851119 0.2630752 0.051584534 0.25571278 0.17098866 0.24045677 0.26013815 0.0018755873
0.13972254 0.23231474 0.030256415 0.24186625 -0.03464204 0.23893262 0.0030923486 -0.0005451797
-0.05542862 0.14829057 0.14170697 0.2011891 0.13816988 0.15874983 0.18128553 0.15933181
0.17385879 0.17916383 0.19090772 0.2170485 0.15438674 0.20545281 0.17195907 0.026836567
0.20363575 0.20935537 0.037086748 0.18759729 0.1880222 0.2099191 0.21417077 0.026226211
0.19383378 0.19892535 0.03390944 0.2007738 0.08701677 0.19197632 -0.15707575 -0.093415186

encoder_layer_sigma_square.bias f4 [2]
00000000: a3c7 9cbe 616b 72be
-0.3062106 -0.23673774

decoder_layer1.weight f4 [32, 2]
00000000: baaf bb38 0c12 11b6 87db 1438 3ddf 4bb6
00000010: 603f e03b 299c 26be 2c6a 28b9 2796 b33a
00000020: 87e9 e1b7 1897 8eb6 e0d3 813d 5282 263f
00000030: a143 0ebe d73f 73bf e68f 16b8 2287 2836
00000040: 0ad3 f1bb 65cc 7a3d 06bf b637 66b3 b4b6
00000050: a5fa bf36 fef3 c5b5 9f16 8038 bf07 aab9
00000060: e1b9 33b7 6bf2 8636 b9af 3abe 3da0 aabe
00000070: 23ed 9cb6 9b32 8c35 27a0 6cb7 25d9 9036
00000080: cbf7 54bf e8b5 68be 7740 4d38 80b7 6d37
00000090: 329e e0b5 3e41 10b6 0c14 733e 11c1 ddbe
000000a0: c768 e237 72ea 96b8 e235 c836 46ed f2b8
000000b0: 5834 aeba 12d5 1f3c 0de4 0e39 9331 8739
000000c0: e1b0 b6b6 58fc 3937 81ab c4b8 cd15 083a
000000d0: 31f0 d1b5 40a7 e334 60f9 7ab6 dc29 6637
000000e0: 73b1 a2b8 5626 b839 a406 29b6 b4d6 17b4
000000f0: fe3c 8cb8 158e a939 7946 2f3f 5021 b03d
8.9495865e-05 -2.1617188e-06 3.54904e-05 -3.03793e-06 0.0068434924 -0.16270508 -0.0001606128 0.0013701365
-2.6930835e-05 -4.2495194e-06 0.0633924 0.65042603 -0.13892986 -0.95019287 -3.5896803e-05 2.5112608e-06
-0.007379894 0.061230082 2.1785043e-05 -5.3853028e-06 5.7214224e-06 -1.4748655e-06 6.107729e-05 -0.00032430698
-1.071251e-05 4.0217324e-06 -0.18231095 -0.33325377 -4.6767686e-06 1.0445541e-06 -1.41039845e-05 4.3168134e-06
-0.831906 -0.22725642 4.8935846e-05 1.4169025e-05 -1.6735341e-06 -2.1495648e-06 0.23738116 -0.4331136
2.699009e-05 -7.196226e-05 5.9667373e-06 -0.00011583655 -0.0013290746 0.00975539 0.00013627131 0.00025786142
-5.444614e-06 1.1085613e-05 -9.3779534e-05 0.0005191237 -1.5641618e-06 4.2403735e-07 -3.7398058e-06 1.3718814e-05
-7.7578145e-05 0.00035123777 -2.5186828e-06 -1.414108e-07 -6.687081e-05 0.0003234005 0.6846691 0.08600104

decoder_layer1.bias f4 [32]
00000000: f4c5 f8b8 cf48 7f37 0005 55bc c67f 4bba
00000010: 1781 4437 0d60 a4be 35de 15bf e812 04b7
00000020: 47bf 74bd a9c2 e9b6 584c 8236 3b23 4439
00000030: ab75 c3b6 250d abbe 1a1e 63b6 0a46 9db6
00000040: 24bf fdbe 3dce ffb7 46c9 0eb6 25a6 2fbe
00000050: 5ebd 3137 3440 dc37 d2f4 24bc e0f0 b5b9
00000060: 29f8 3cb7 30c9 84b9 9faa fcb5 124d 2d37
00000070: f863 adb9 c8c1 96b6 17a6 28b9 274a 56be
-0.00011862433 1.52161365e-05 -0.01300168 -0.0007762875 1.1712566e-05 -0.3210453 -0.58542186 -7.872215e-06
-0.05975273 -6.9666025e-06 3.8831895e-06 0.00018705141 -5.825151e-06 -0.33408466 -3.3843157e-06 -4.6871182e-06
-0.4955989 -3.0494406e-05 -2.1276805e-06 -0.17153223 1.0594113e-05 2.625594e-05 -0.010068135 -0.00034702476
-1.12634525e-05 -0.00025326898 -1.882512e-06 1.0329548e-05 -0.00033071614 -4.4929075e-06 -0.00016083602 -0.20926724

decoder_layer2.weight f4 [32, 32]
00000000: f269 b636 d89b b0b5 3521 04bb a8d3 803a
00000010: da6b fbb4 eedc 423b 1624 373c 656d 06b6
00000020: 4bd1 4d39 17f2 eeb7 b3db c236 840c 0838
00000030: 708e cab4 362e 4cbc 41f5 50b6 b196 7035
00000040: d8b7 3e3b 0257 f0b7 4e11 70b5 cef3 a639
00000050: 12dd 1dbb db5d 9f37 0ada 783a 8c9e 20ba
00000060: a9ef f7b8 016d 8f3a c297 6636 f04f 1c36
00000070: b907 a7ba c178 8d36 96aa 0db9 0961 813b
00000080: 6437 0838 d1c2 8bb8 4dc6 5cbc dab6 383a
00000090: ee18 8db6 704d 10be 2271 34be 9d9c b635
000000a0: 3af1 1fbc 55f2 8538 ee87 bb37 cd0f 9cba
000000b0: d4c9 3fb7 71e5 0cbc 7c6b a6b7 b229 5c36
000000c0: 920c 47bd f39d 7039 c822 5735 a5f4 79bd
000000d0: 3310 5238 a9d5 ab37 afde a5bb f606 013b
000000e0: 5a50 2bb9 6ee7 b03a cb43 17b7 6944 03b9
000000f0: b388 88ba 9dfd 02b8 399a e1b9 c522 bebd
00000100: 40e8 0cb9 3775 87b7 0d25 243e f9d0 78bb
00000110: 6140 9637 49c0 7abe 437b 27be b97e f136
00000120: 0149 9ebd 9fd1 11b7 4c57 ecb6 5959 b93a
00000130: 027a 0837 c408 60bd cc99 b9b7 d61c f536
00000140: 65bb 50bf 5ef6 7037 f476 a1b6 e539 9dbc
00000150: 5735 f3b9 d958 e939 813f 70bc 88e5 16b9
00000160: 6750 8639 785f ffba 7bed 9135 ec62 9bb8
00000170: d938 e7ba c221 86b5 41f2 adba 1c5d 593d
00000180: 6103 0aba e152 cab6 809a 15bc 9e84 293a
00000190: b73f d236 405f 8c3d 7565 773d 6f54 6d37
000001a0: bb60 b53a 7071 c3b6 f7f2 2636 27c4 11ba
000001b0: b183 fd36 f90e 113c 4063 25b7 90c0 9936
000001c0: 8e04 0e3d 3a18 91b7 920a 8f34 b4b6 29bc
000001d0: 2629 183a ecd3 afb8 2586 553b 50ab 90b9
000001e0: 9853 70b9 851b 9eb9 aa2d beb5 247f 0cb8
000001f0: bcde daba 52ba d1b6 054c cfb6 1b11 843d
00000200: 0931 093a 6b27 cdb9 541a e0bb c172 44ba
00000210: a3aa 0e3a d7aa 8fbb 6b66 acba aa30 dcb9
00000220: a345 aa3a 82cf cbba 5ca9 00b9 e0c1 003a
00000230: 4e15 6fb9 8f82 19bc c5c9 0a39 301f a938
00000240: c80a 35bc ae6c 8bb9 6e01 32b8 053f 063c
00000250: 7805 babb 0924 8939 8d82 1c3b f8ad 3bbc
00000260: 1728 f73b 61b8 5b3b f58e c935 c0ce 8db7
00000270: bd5e c8bb 7105 9639 7770 a1ba 2726 bfbc
00000280: 1ee6 efb6 eeba 28b6 fe63 44ba ce4a 90b9
00000290: a939 8436 e67e b7bd b824 03be 3342 4236
000002a0: c284 5c3b dc15 d637 77f4 87b6 4f08 1739
000002b0: 3b23 3236 9263 e2ba 9028 92b6 d633 1236
000002c0: 2171 6abd 4a7e 9c35 4479 cdb5 0fd7 02bd
000002d0: 50b0 87b9 7e82 d336 12ce 48ba 2cef c838
000002e0: 797f 1d38 e8eb 4d38 b98d 6db4 d926 9537
000002f0: fb3a 223a 3a22 6b36 87f1 9f38 e4a3 cdbd
00000300: cba5 2ab8 5dbe b5b4 c848 a9ba 0a13 2638
00000310: 343e b0b5 5936 82bc d1a5 efba 2f74 5735
00000320: f3ae ecb9 e532 49b8 2eda 3235 0af2 d6b8
00000330: 10f9 81b6 57d8 4cbc a017 8634 90bd 99b5
00000340: ab96 f63b ee24 4636 6f1d da35 032c 843a
00000350: 96f4 b0b9 fdfa dc35 f258 2739 edeb aab9
00000360: c193 1d38 bc32 e9b8 ca55 49b5 0a54 d9b6
00000370: 403c e3b8 410f ceb5 e83e 9a37 641a 213c
00000380: e545 c038 8ad2 2737 a77f 173c a864 0eba
00000390: fe15 d835 bcd6 25bd 0b69 16bd ef83 b7b5
000003a0: 9dc1 07bb 04d2 ebb8 4e9b beb6 4d5f 1e39
000003b0: 51f3 b9b6 89ac 82bb 6a32 b436 63c0 0335
000003c0: d5ad 6abb 8265 c7b7 023e 6ab5 73dc 8a3c
000003d0: 365e 28ba f30e c937 8326 d9ba 3526 593a
000003e0: cc0c 89b8 c50a cab9 d597 d134 6d0e 4fb7
000003f0: b1e6 233b fbf2 2037 abf4 5db9 d8e9 a9bc
5.4363563e-06 -1.3158378e-06 -0.0020161394 0.0009828703 -4.6830866e-07 0.0029733735 0.011178037 -2.0031232e-06
0.00019628291 -2.8484543e-05 5.807227e-06 3.2436583e-05 -3.772907e-07 -0.012462189 -3.1137172e-06 8.962625e-07
0.0029101279 -2.8650746e-05 -8.943215e-07 0.00031843636 -0.0024088067 1.8997982e-05 0.00094929396 -0.0006127141
-0.00011822518 0.001094252 3.4361005e-06 2.3292341e-06 -0.001274339 4.216185e-06 -0.00013510356 0.003948335
3.2476513e-05 -6.664324e-05 -0.013475013 0.000704629 -4.2050297e-06 -0.1409204 -0.17621282 1.3605637e-06
-0.009762103 6.387072e-05 2.2355434e-05 -0.0011906564 -1.1431479e-05 -0.008599625 -1.9838793e-05 3.2806824e-06
-0.048595972 0.00022947024 8.0144355e-07 -0.061024327 5.008299e-05 2.0484282e-05 -0.0050619463 0.0019687987
-0.00016337764 0.0013496706 -9.016086e-06 -0.00012518618 -0.0010416716 -3.123061e-05 -0.0004303025 -0.092839755
-0.0001343796 -1.6147837e-05 0.16029759 -0.0037966354 1.7911372e-05 -0.24487413 -0.16355614 7.197112e-06
-0.07728768 -8.69148e-06 -7.043511e-06 0.0014141008 8.134639e-06 -0.05469586 -2.2125336e-05 7.304926e-06
-0.8153594 1.4362477e-05 -4.812022e-06 -0.019192645 -0.00046388313 0.0004450742 -0.014663578 -0.00014390622
0.00025618376 -0.0019483408 1.0872458e-06 -7.4094016e-05 -0.0017640843 -9.993603e-07 -0.001327105 0.05306731
-0.0005264786 -6.0297175e-06 -0.009131074 0.00064666 6.265905e-06 0.06854105 0.06039949 1.41459595e-05
0.0013838032 -5.8246587e-06 2.4877352e-06 -0.000556054 7.5553185e-06 0.008853667 -9.857875e-06 4.5821726e-06
0.034672312 -1.7296628e-05 2.6643517e-07 -0.010358501 0.00058044714 -8.384124e-05 0.0032581177 -0.00027593458
-0.00022919325 -0.00030156612 -1.4169393e-06 -3.349701e-05 -0.001669846 -6.250376e-06 -6.1779306e-06 0.06448575
0.0005233442 -0.00039130016 -0.006839076 -0.00074939063 0.0005442297 -0.0043843794 -0.0013153082 -0.00041997927
0.0012990724 -0.0015549513 -0.00012270123 0.0004911702 -0.00022800753 -0.0093695065 0.0001323587 8.064357e-05
-0.011049934 -0.0002659312 -4.243984e-05 0.008193736 -0.0056769215 0.00026157525 0.0023881525 -0.011455052
0.007542621 0.0033526646 1.5017273e-06 -1.6904785e-05 -0.0061148093 0.00028614284 -0.0012316842 -0.023333622
-7.149544e-06 -2.5142758e-06 -0.00074917066 -0.00027521554 3.940619e-06 -0.08959751 -0.12806976 2.8946786e-06
0.0033648466 2.5520967e-05 -4.051773e-06 0.00014403577 2.6544574e-06 -0.0017272106 -4.355861e-06 2.1785868e-06
-0.057236794 1.1659661e-06 -1.5308983e-06 -0.031943377 -0.0002588057 6.3034813e-06 -0.00076601014 9.5812924e-05
3.7550435e-05 4.9095514e-05 -2.2123903e-07 1.7780274e-05 0.00061885983 3.5037651e-06 7.626699e-05 -0.10041025
-4.0685565e-05 -3.3852385e-07 -0.0012915367 3.9595216e-05 -1.3131125e-06 -0.015895056 -0.001828367 8.026281e-07
-0.00045143775 -4.7969534e-05 6.662766e-07 -0.000102493985 -3.8734943e-06 -0.012502751 2.4976634e-07 -1.1454558e-06
0.0075252852 2.9525795e-06 1.6250832e-06 0.0010083917 -0.00033751567 1.6464325e-06 0.00015959496 -0.00032600705
3.7569323e-05 -0.00011119756 -7.5003175e-07 -6.4768874e-06 -0.00010835426 -1.5352636e-06 1.8387524e-05 0.009832952
9.168292e-05 1.0002996e-05 0.009246743 -0.0005431869 1.6099655e-06 -0.04048799 -0.03672127 -1.367296e-06
-0.0020714768 -0.00011244792 -5.680521e-06 0.00015103557 -5.5417554e-06 -0.003987853 5.370287e-06 4.908126e-07
-0.0035809178 -2.3769917e-05 -8.7262026e-07 0.016950822 -0.000642273 2.3968028e-05 -0.0016567264 0.00082835864
-6.535053e-05 -0.00038536466 3.9039756e-07 -1.234152e-05 0.002500933 9.5933165e-06 -0.00021167348 -0.020741388

decoder_layer2.bias f4 [32]
00000000: dbd3 6fbb 5592 1c3c 1782 863d c2a8 e8bc
00000010: 042b 353c 9be6 d23c d4e8 32bc fa09 1f3b
00000020: de53 40bd f6f2 163c 4a47 96ba 3a56 d1ba
00000030: 73e9 4e3c a89c f63b 266a 033e 855c 65bb
00000040: 672b 7c3b a2f8 bd3c 6668 a4bb b188 92bb
00000050: 338f a9bc 94b2 853c ffb2 3bbc b824 633b
00000060: b027 39be 37f2 c33b ed36 06bd 2b5d 82ba
00000070: c3c8 90bb a481 2ebc 3d95 3c3b 9133 5fbd
-0.0036594782 0.009556373 0.065677814 -0.028400782 0.011057619 0.025744727 -0.010919768 0.002426742
-0.046954982 0.0092132 -0.0011465338 -0.0015971132 0.012628901 0.007525999 0.12833461 -0.0034997773
0.0038478018 0.023189846 -0.005017328 -0.0044718613 -0.020698166 0.016320504 -0.01145625 0.0034659337
-0.18081546 0.005979802 -0.032767225 -0.0009945979 -0.004418464 -0.010651026 0.0028775476 -0.054492537

decoder_layer3.weight f4 [32, 32]
00000000: 0008 2a3b e419 88bc 0ef0 23be 99b7 553b
00000010: fe03 42b9 b570 063c 57f7 f0bb a3c1 bdbb
00000020: 3c67 21bd 62bc 213f 0e2e 28bc 32c8 e6bb
00000030: 1ccf a13c 147e b13b df87 303e 438f 2a3c
00000040: 7e4a 9fbb e3a8 fc3c c424 1fbc 02bf 59ba
00000050: 8ac2 96bc a28a 703d 523f d9bc c866 b73b
00000060: c62a ee3d 9fca 823b 4430 15bd fc57 3cbc
00000070: 34b0 3abc edb2 84bb cf95 9fbd d8d4 8cbd
00000080: 2277 afb8 a8f3 e63a c93e 093c 95ee aaba
00000090: 7b85 cc39 75b0 d23a e676 a6b9 cefe 9839
000000a0: 6680 02bb e672 7a3b 93dd db38 73f1 51ba
000000b0: 221f 9239 005b f739 7536 edbb ac8a 0db8
000000c0: 5773 bf39 c5b0 cd3a b852 4db9 0b8f 123a
000000d0: aa85 18ba 1712 50b9 6067 7639 d6e2 013a
000000e0: a22b 74bb 288c 7b39 91d8 9abb a223 c03a
000000f0: 4a1e c0b9 af4d c5b9 a58f a4ba 0d63 c4bb
00000100: b483 d2ba 794d c43d 2047 d73e 0066 1ebd
00000110: 8194 203c 738f a23d e19b 49bb 012c cb3b
00000120: 9db6 75bd 6b08 c1bd 9377 333b 17f3 663a
00000130: 4246 c23b be95 773a 678c 9c3f 2a1e d4ba
00000140: 3056 783b 2686 c23d cc68 1f39 42b6 93ba
00000150: 35f1 41bc 4018 feb6 cc48 373a b468 3b3a
00000160: 8a17 2cbf 86e7 643b c57b 93bd 241a 433d
00000170: 9367 67bb 641b c8bb 81ac 3d3e f3b5 20be
00000180: de02 d138 a479 0f39 4177 f4ba 40cb 4539
00000190: 27bf 31b8 b7c3 01b8 38b0 3d38 287b 2338
000001a0: ec70 3439 a8a6 d3ba 6c57 3e38 69e6 0439
000001b0: 2901 12b8 5137 2bb9 96c4 b93a 344a 93b7
000001c0: 359b 2ab8 20d1 0f39 22d1 eb38 42af f5b8
000001d0: 5f24 23b8 c72c 67b9 ae45 0038 9c05 86b9
000001e0: 8f9d 073b b383 92b8 96f8 f7b9 567e 9ab7
000001f0: 9b27 09b9 c404 8938 c6c2 913a 930e 153a
00000200: 7503 61bb 6839 283c c689 b1bc 03d3 34bb
00000210: 9258 5ebb c420 8c3b bd37 c1ba ad46 713b
00000220: 3baf 95bb dc17 f3bc 9a9e e63a 01ac a1ba
00000230: da9a 5c3b b576 b3ba c905 c9bb 49ba ecb9
00000240: d5a3 2d3b 5a65 94bc 977e 5a3a b50d f639
00000250: 7a30 0cba 9091 5abb a3ca 483b c1aa a93b
00000260: 5f53 bc3b f142 8fb9 8415 b4ba 02e0 b03b
00000270: 94ea 23bc 0e7e ecba 5764 2c3b 02ce 24bc
00000280: a098 053a 0018 253a e684 14bc fca1 c0b8
00000290: daa6 fbb9 73f4 98b9 3830 413a 6201 1a3a
000002a0: 1a71 433b 9045 2cbc ba87 b83a 27ad 343b
000002b0: ea84 4fba 43b4 a5ba 1b5c aa3a eb14 8aba
000002c0: 1cac e738 011d 61bb 54b8 3e3b d582 2bbb
000002d0: d0d2 813a e311 0fbb 3bda c83a 82c2 80ba
000002e0: 576e e63a 198d abba 7cd5 733b fc84 7239
000002f0: 7399 4c39 0626 6c39 a673 a33b 3015 593b
00000300: b2fd bc39 6fe9 e3bb 7e05 3fbc 30bf 033b
00000310: 22be 8438 08ee 8fbb 9c69 ca39 8fec 6bba
00000320: 0115 c23a 8fda d6bb ea16 7bba 91ce 933a
00000330: bb9a 59b9 e468 6438 d679 3b3c 38f1 9a39
00000340: 3d74 56ba 1a4a 643a fef8 763a 9b08 d7ba
00000350: 6c04 71ba b88e 7b3b d9dc 1abb 2414 26ba
00000360: 911d f03b 1c86 8fb8 79eb e13a 3ccb b2bb
00000370: 6f67 883a e2db aab7 12c3 1cbc be4d c53b
00000380: f85e 9139 ded4 a6b9 be97 1b39 3111 463a
00000390: 31db e7b9 3dce e1b9 865b 3cb9 83ff 06ba
000003a0: c755 be39 ad95 b53a bc5c 3bba 0aac 4aba
000003b0: 484a a037 bc36 013a edad 203a dcc9 eb39
000003c0: df05 a5b9 b53b e037 c7a7 5fba c758 4d3a
000003d0: 636c 99b9 1508 a939 d780 26ba d5b0 6339
000003e0: 2a96 0eba 590a c039 cb92 9739 e02a 17ba
000003f0: 3e64 fe39 c440 7438 6f20 77ba ef46 fa37
0.002594471 -0.016613908 -0.16009542 0.0032610653 -0.00018502769 0.008205582 -0.007353704 -0.0057909056
-0.039405093 0.63178074 -0.010264887 -0.007042908 0.019752078 0.005416641 0.1723933 0.010410133
-0.004861175 0.03084225 -0.009713355 -0.00083063554 -0.01840331 0.05872596 -0.026519451 0.0055969693
0.11629252 0.0039914395 -0.036422983 -0.0114955865 -0.011394549 -0.00404965 -0.077922456 -0.06876534
-8.3668405e-05 0.0017620223 0.008376786 -0.0013041074 0.00039009363 0.0016074317 -0.00031750574 0.00029181544
-0.0019912957 0.0038215457 0.00010484005 -0.0008008696 0.00027870486 0.00047179312 -0.007239158 -3.3746168e-05
0.00036516294 0.001569294 -0.00019581139 0.0005590773 -0.00058182573 -0.00019843165 0.00023498898 0.00049547607
-0.0037257452 0.00023989438 -0.0047255238 0.0014659057 -0.0003664366 -0.00037632647 -0.0012555016 -0.005993253
-0.0016060979 0.09585089 0.42046452 -0.038671494 0.009801031 0.07937517 -0.0030763077 0.006200314
-0.059988607 -0.09425434 0.0027384504 0.0008810027 0.0059287855 0.00094446156 1.2230347 -0.0016183306
0.0037893169 0.09498243 0.00015202462 -0.0011269527 -0.011837293 -7.572613e-06 0.00069917436 0.0007149086
-0.6722342 0.0034928038 -0.072013415 0.04763235 -0.0035309538 -0.006106781 0.18522836 -0.15694408
9.966431e-05 0.00013682857 -0.0018651263 0.000188631 -4.2378113e-05 -3.093827e-05 4.5225228e-05 3.8976927e-05
0.00017208204 -0.001614769 4.5380948e-05 0.00012674335 -3.4810193e-05 -0.00016328438 0.0014172967 -1.7558319e-05
-4.0675706e-05 0.00013715448 0.00011244627 -0.00011715155 -3.88961e-05 -0.00022046558 3.0582472e-05 -0.0002556265
0.0020693277 -6.9863534e-05 -0.00047296722 -1.841706e-05 -0.00013080092 6.533557e-05 0.0011120669 0.00056860707
-0.0034334336 0.010267593 -0.02167214 -0.0027591593 -0.0033927304 0.004276367 -0.0014741343 0.0036815808
-0.0045680082 -0.029674463 0.0017594874 -0.0012334586 0.0033661635 -0.0013691994 -0.006134723 -0.0004515222
0.0026495357 -0.018114734 0.00083349034 0.0004693099 -0.00053478 -0.0033350922 0.003063836 0.005177826
0.0057472433 -0.0002732496 -0.0013739322 0.0053977976 -0.010004658 -0.0018042938 0.0026304924 -0.010058882
0.000509629 0.0006297827 -0.009064889 -9.1854454e-05 -0.00047998765 -0.00029173828 0.0007369551 0.000587484
0.0029822052 -0.010514632 0.0014078536 0.0027569027 -0.0007916229 -0.0012642223 0.001299742 -0.0010534798
0.00011046996 -0.0034349563 0.0029101567 -0.0026170511 0.0009904746 -0.002183073 0.0015323827 -0.0009823593
0.0017580491 -0.0013088315 0.0037206104 0.00023128459 0.0001951212 0.00022520879 0.0049881516 0.00331242
0.00036047172 -0.0069553177 -0.011659024 0.002010297 6.3296655e-05 -0.004392389 0.00038607127 -0.00089997886
0.0014807285 -0.006556816 -0.00095783046 0.0011276772 -0.00020752374 5.4457123e-05 0.011442622 0.0002955289
-0.0008180773 0.0008708552 0.0009421258 -0.0016405763 -0.00091940793 0.0038384628 -0.002363017 -0.00063353986
0.0073277433 -6.843751e-05 0.0017236314 -0.0054563563 0.0010406802 -2.036797e-05 -0.009567993 0.0060212305
0.00027727312 -0.00031820586 0.0001483848 0.00075556623 -0.00044223064 -0.00043069004 -0.00017963172 -0.00051497685
0.00036303533 0.0013853811 -0.00071473024 -0.00077313243 1.9108076e-05 0.00049291155 0.00061294326 0.0004497309
-0.00031475627 2.6730684e-05 -0.00085317757 0.0007833358 -0.00029263188 0.00032240213 -0.0006351596 0.00021714282
-0.00054392463 0.00036628803 0.00028910334 -0.0005766582 0.00048521342 5.823445e-05 -0.0009427135 2.9835353e-05

decoder_layer3.bias f4 [32]
00000000: 4011 cd3d 2c55 7bba b22f b63c f2fd a539
00000010: 76d3 333c a439 343b 7cf0 96b9 ece1 cdb8
00000020: 23d2 68b9 f34c c2b9 3f77 2d3a 91e7 9fba
00000030: cc7e 96ba 48f5 643b 169a 1a3e ac51 333a
00000040: 44d3 ebb9 754f e23a 22c8 2dbc 5fd4 05ba
00000050: fd54 07ba 5a22 98ba bc31 213b 611a e2bb
00000060: a019 373e f24b 463b 807a e637 d9e0 f7bd
00000070: d476 2dbd 6c25 713a e644 d339 1396 4e3a
0.10013056 -0.0009587582 0.02223954 0.00031660456 0.010975709 0.0027500177 -0.00028789404 -9.817243e-05
-0.00022203526 -0.00037059895 0.00066171953 -0.001219975 -0.001148188 0.0034936238 0.15097842 0.0006840478
-0.00044980098 0.0017266112 -0.010606797 -0.0005105193 -0.00051625055 -0.0011606917 0.0024596294 -0.0069001173
0.17880869 0.003025767 2.747518e-05 -0.12103433 -0.04234965 0.00091989967 0.0004029639 0.0007880639
