vae/model.pt (torch, 362973 bytes, 75 tensors)

dof f4 [13]
0	0x402fe9c4	2.748643
1	0x3f118e5b	0.5685784
2	0x40587bb8	3.3825512
3	0x3f6e3d55	0.93062335
4	0x407ce695	3.9515736
5	0x405d4610	3.4574013
6	0x4095f799	4.6864743
7	0x409bb396	4.865672
8	0x40517fc5	3.2734234
9	0x4077f113	3.874089
10	0x407718f9	3.8608992
11	0x3f6cb25a	0.9245964
12	0x408973c6	4.2953825

encoder_layer1.weight f4 [128, 13]
0	0x3d7b798e	0.06139522
1	0x3d2d3221	0.042284135
2	0x3d4645ef	0.048406538
3	0x3d01d729	0.031699333
4	0xbd9220ab	-0.07135137
5	0xbdf83a3d	-0.12120483
6	0x3e0b07ec	0.1357724
7	0xbe217c75	-0.15770133
8	0xbc731f75	-0.014839043
9	0x3d8ba59a	0.06818695
10	0xbcdc7376	-0.026910525
11	0xbc929d92	-0.017897401
12	0x3dc0416b	0.093874775
13	0x3dc15c0d	0.094413854
14	0xbdd1f9a4	-0.10252693
15	0xbde6d598	-0.112712085
16	0x3d22d5dd	0.039754737
17	0x3dc862cf	0.09784471
18	0xbdafee8e	-0.085904226
19	0xbb9f2f62	-0.0048579434
20	0xbc9972a3	-0.01873142
21	0xbdcb066c	-0.09913334
22	0xbd245a8d	-0.04012542
23	0xbda77aee	-0.08177744
24	0x3d62df33	0.05538864
25	0x3d55f972	0.052239843
26	0xbe1ff68a	-0.15621391
27	0x3cefd8d3	0.029278195
28	0x3e42bc63	0.19017176
29	0xbdc1d983	-0.09465315
30	0x3cd97691	0.026545795
31	0x3d09c6c2	0.033636816
32	0x3e1ffba0	0.15623331
33	0x3d58761e	0.05284702
34	0xbdc83cfd	-0.097772576
35	0xbd857f71	-0.06518448
36	0xbe5958fc	-0.21225351
37	0x3c625452	0.013814049
38	0xbd94c801	-0.0726471
39	0x3d55432f	0.052066024
40	0xbcc3c61e	-0.02389818
41	0xbe4b37ce	-0.19845507
42	0xbcd4f553	-0.025995886
43	0xbe18580f	-0.14877342
44	0xbd427748	-0.047477037
45	0x3dfbd0b1	0.12295664
46	0xbbe1b289	-0.006887738
47	0xbbae2fa2	-0.005315737
48	0xbda30e24	-0.079616815
49	0xbdc92240	-0.09820986
50	0x3cdb023f	0.02673447
51	0xb98ba86a	-0.00026637624
52	0x3e040cd1	0.12895514
53	0x3cf5122e	0.029915895
54	0xbd3a2f00	-0.04545498
55	0x3c481257	0.012211404
56	0xbd92cbab	-0.07167753
57	0xbe1695b4	-0.14705545
58	0x3c55e2c9	0.013054558
59	0xbdb3b2f8	-0.0877437
60	0xbbe88927	-0.007096428
61	0x3cfb39d4	0.030667223
62	0x3c17e274	0.009270299
63	0x3cbe32c2	0.023217563
64	0x3c931de3	0.017958587
65	0x3e99b672	0.30022007
66	0xbd88ceaf	-0.06680047
67	0xbdff8dee	-0.12478243
68	0xbd121890	-0.035667956
69	0xbe1efb28	-0.15525496
70	0xbe2846af	-0.16433214
71	0x3be2f58b	0.0069262437
72	0xbe17feb6	-0.14843258
73	0x3e20ee63	0.15715937
74	0xbe1abe5c	-0.15111679
75	0xbe02bf2a	-0.12768236
76	0x3e1c9ce0	0.15294218
77	0x3e24dbb3	0.16099434
78	0x3ccc9110	0.024971515
79	0x3d94f83d	0.0727391
80	0xbe3bb65c	-0.18331283
81	0x3d7df7fa	0.062004067
82	0x3d18f8f1	0.037346784
83	0xbd801303	-0.06253626
84	0xbd2de7de	-0.042457454
85	0x3b6189d9	0.003441444
86	0x3e1a8f97	0.15093838
87	0xbd95b652	-0.073101655
88	0x3cba7608	0.02276136
89	0xbd45deb5	-0.048308093
90	0x3d885ebe	0.06658696
91	0x3ccb363f	0.02480614
92	0xbd8afde5	-0.06786708
93	0xbc5034ab	-0.0127078695
94	0x39bbb6bd	0.0003580357
95	0x3c9225b2	0.01784024
96	0xbd9d5883	-0.07682898
97	0xbd87e7b7	-0.06635993
98	0x3d84176c	0.0644978
99	0x3d608746	0.054816507
100	0xbc89a65b	-0.016802957
101	0xbd64991a	-0.05581007
102	0xbc1ba5d7	-0.0094999885
103	0x3cf9261a	0.030413676
104	0x3cebe085	0.028793583
105	0x3c017122	0.007900508
106	0xbbaa0ebc	-0.0051897448
107	0xbcaa43f3	-0.020784354
108	0x3cd9311d	0.026512677
109	0x3dc9e949	0.09858949
110	0xbcb7bcea	-0.022428948
111	0xbd5a0d7a	-0.05323551
112	0xbcdcda2f	-0.026959507
113	0xbd1e1418	-0.03859338
114	0x3d4c6843	0.04990412
115	0xbded87fb	-0.11598202
116	0x3db243bb	0.08704325
117	0xbe5ffc50	-0.21873593
118	0xbc88a6af	-0.016681043
119	0x3da1021c	0.078617305
120	0xbda8ba81	-0.08238698
121	0x3c9b3672	0.01894686
122	0x3dfa30b7	0.12216323
123	0xbd89212c	-0.0669578
124	0x3d9e607b	0.07733246
125	0xbe2fa09b	-0.1715111
126	0x3de2766a	0.11057742
127	0xbdf3f655	-0.119122185
128	0x3d8541fd	0.06506727
129	0xbd01685d	-0.03159367
130	0x3e3c087a	0.18362609
131	0xbc3eaf46	-0.011638468
132	0xbd3b362b	-0.045705955
133	0xbd612ff7	-0.054977383
134	0xbe1bb2ef	-0.15204976
135	0xbe0a590e	-0.13510534
136	0xbd27f987	-0.041009452
137	0xbd8bdcab	-0.068291984
138	0x3db61d76	0.08892338
139	0xbe0e7299	-0.13910903
140	0xbaaee1bb	-0.0013342419
141	0x3d67adea	0.05656234
142	0x3c72dde8	0.014823414
143	0xbd573195	-0.05253752
144	0xbd12890a	-0.035775222
145	0xbd390bc4	-0.045177236
146	0x3d2ae640	0.04172349
147	0x3c6c3d4b	0.01441891
148	0xbd08e3f6	-0.033420525
149	0xbe0b63e0	-0.13612318
150	0x3e1edcb2	0.15513876
151	0xbe41a209	-0.18909468
152	0xbdf272c2	-0.118382946
153	0xbd46fcc5	-0.048580904
154	0x3e003d72	0.1252344
155	0x3d8aa369	0.06769449
156	0x3d27c774	0.040961698
157	0xbc886d4e	-0.016653683
158	0xbdd243eb	-0.102668606
159	0x3ca36fe6	0.019950818
160	0xbda2e3bc	-0.07953593
161	0xbc4e8f2e	-0.012607379
162	0xb8ac59e8	-8.2183455e-05
163	0xbb32f342	-0.0027305637
164	0x3e04f0dd	0.12982507
165	0x3d2cc499	0.042179678
166	0x3d04e773	0.03244729
167	0xbd98417e	-0.07434367
168	0xbe1d5e6e	-0.15368053
169	0xbc0c3ba1	-0.0085591385
170	0xbdd240de	-0.10266279
171	0xbe387610	-0.18013787
172	0xbc6307bc	-0.0138568245
173	0xbbe69312	-0.007036575
174	0x3d872f9d	0.066008784
175	0x3c563174	0.013073314
176	0x3dac5950	0.084154725
177	0xbdc4f0a9	-0.09616215
178	0xbe140397	-0.14454494
179	0xbe8f0022	-0.2792979
180	0x3e079025	0.1323858
181	0xbc2b8e67	-0.010470963
182	0xbd36f4cb	-0.044667047
183	0xbd01be25	-0.031675477
184	0xbce6e299	-0.028184222
185	0x3d4c1688	0.049826175
186	0x3dafd68d	0.08585844
187	0x3dc1d3d9	0.09464235
188	0xbcf4cd79	-0.029883133
189	0xbd045a60	-0.03231275
190	0xbe023890	-0.1271689
191	0xbe3d69ba	-0.18497363
192	0xbe2ba782	-0.16763118
193	0x3df3977b	0.11894127
194	0x3d86b9d6	0.06578414
195	0x3e2a1f53	0.16613512
196	0xbbf1494a	-0.007363473
197	0xbdbd64ac	-0.09247717
198	0xbc781dd2	-0.0151438285
199	0xbd577bfd	-0.05260848
200	0xbd782162	-0.06057871
201	0x3dc171d7	0.09445541
202	0x3cb1ffb9	0.021728383
203	0xbd58e4b8	-0.0529525
204	0x3d802bcd	0.06258354
205	0xbd66de90	-0.056364596
206	0xbd98ac64	-0.07454756
207	0x3da506f9	0.080579706
208	0xba7a6e9c	-0.0009553225
209	0x3d59f46b	0.05321161
210	0x3da3e132	0.08001937
211	0x3c3d8a26	0.011568582
212	0xbccb4f82	-0.024818186
213	0xbc2fd500	-0.0107319355
214	0x3d2329c5	0.039834756
215	0x3d871a31	0.065967925
216	0xbccfda34	-0.025372602
217	0xbcfc8707	-0.030826105
218	0x3d816e66	0.06319885
219	0xbe1f66bf	-0.15566538
220	0xbc0b4222	-0.008499654
221	0x3b2ec0e0	0.0026665255
222	0x3ce87705	0.028377065
223	0xbdbfbe2e	-0.09362446
224	0xbd3fd980	-0.046838284
225	0x3e1b06d4	0.15139323
226	0x3d90b823	0.07066371
227	0x3d13482c	0.0359575
228	0xbdbc1002	-0.09182741
229	0xbe701d7c	-0.23448747
230	0x3d09395b	0.033501964
231	0xbdcf6d43	-0.10128262
232	0x3d174899	0.03693447
233	0x3dd49f58	0.10381955
234	0xbc83d2df	-0.016091762
235	0xbe20cdcb	-0.15703504
236	0xbe2aaa2d	-0.1666648
237	0xbd1d71ec	-0.038438722
238	0xbe6dbb93	-0.23216085
239	0x3e32bf21	0.17455722
240	0xbdd91edc	-0.10601589
241	0xbc67f6e2	-0.014157983
242	0x3d8f00df	0.06982588
243	0xbe37dd09	-0.17955412
244	0x3cd3c1a3	0.02584917
245	0x3c5441e7	0.0129551655
246	0xbcd5f1a8	-0.026116207
247	0x3d040d14	0.032239035
248	0xbbe600c0	-0.0070191324
249	0x3c40747a	0.01174652
250	0x3aefaa75	0.0018285053
251	0xbd1bd4c6	-0.038044713
252	0x3b2aa452	0.0026037884
253	0xbc55cb78	-0.013048999
254	0x3d2a217c	0.04153584
255	0xbd6c2010	-0.057647765

encoder_layer1.bias f4 [128]
0	0x3ce9d164	0.028542228
1	0x3db4064b	0.08790263
2	0x3d345048	0.044021875
3	0x3e0999f2	0.13437632
4	0x3db97622	0.09055735
5	0x3dfb97a7	0.12284785
6	0x3dbc3a67	0.09190827
7	0x3dd0cb9d	0.10195086
8	0x3d5858f1	0.052819196
9	0x3d59597b	0.05306385
10	0x3e1eb034	0.15496904
11	0x3d9cd195	0.07657162
12	0x3dd487cb	0.10377463
13	0x3dfae8b0	0.12251413
14	0x3cae0ba0	0.021245778
15	0x3dbc6e72	0.09200753
16	0x3d981f71	0.07427872
17	0x3d0af8e3	0.033928763
18	0x3df1bc37	0.11803477
19	0x3da713de	0.08158086
20	0x3dec0e57	0.115261726
21	0x3da369b1	0.079791434
22	0x3d34d48c	0.044148013
23	0x3da182d5	0.07886282
24	0x3dd65681	0.10465718
25	0x3d8f18cf	0.06987154
26	0x3dc0bed1	0.09411395
27	0x3d1df57b	0.038564187
28	0x3da36d07	0.0797978
29	0x3d288369	0.041140947
30	0x3d9c774a	0.0763994
31	0x3dda1e1b	0.106502734
32	0x3def9274	0.116978556
33	0x3d8d5912	0.069017544
34	0x3d6172df	0.05504119
35	0x3dae48e3	0.08509996
36	0x3df9fe3d	0.12206695
37	0x3da03a99	0.078236766
38	0x3e155a91	0.1458533
39	0x3e1576eb	0.14596145
40	0x3ce5573b	0.027995696
41	0x3cda8d17	0.026678605
42	0x3de48e70	0.1115998
43	0x3db8194f	0.08989202
44	0x3dd7a535	0.105295576
45	0x3da160e2	0.07879807
46	0x3dd524fd	0.104074456
47	0x3dbaaaad	0.09114585
48	0x3da6c37a	0.08142753
49	0x3deae5dc	0.114696234
50	0x3db5afd6	0.08871429
51	0x3db9d5bc	0.0907397
52	0x3d440bf8	0.047862977
53	0x3db001b6	0.08594076
54	0x3d694d77	0.05695864
55	0x3df388d5	0.11891333
56	0x3db01158	0.08597058
57	0x3dfa9605	0.12235645
58	0x3e0079ab	0.12546413
59	0x3da3de0b	0.08001336
60	0x3d00bff2	0.031433053
61	0x3e252fe5	0.16131552
62	0x3d484e08	0.04890254
63	0x3da91449	0.08255822
64	0x3e272028	0.1632086
65	0x3cf88a07	0.030339254
66	0x3d4b525a	0.049639083
67	0x3d6959f7	0.056970563
68	0x3dd030cf	0.101655595
69	0x3d3d5c43	0.046230566
70	0x3dbd2320	0.09235215
71	0x3db30429	0.08741028
72	0xbc1c4212	-0.009537237
73	0x3d673b6e	0.05645316
74	0x3dc06c09	0.09395606
75	0x3dc5ea5f	0.09663843
76	0x3dfe54ab	0.12418493
77	0x3deb90e2	0.115022436
78	0x3cc8a227	0.024491383
79	0x3c823049	0.015892165
80	0x3daab4db	0.08335277
81	0x3d7d2b2e	0.061808757
82	0xbd0f0372	-0.034915395
83	0x3d781a76	0.06057211
84	0x3dd8e31a	0.10590191
85	0x3d95a5aa	0.073069885
86	0x3d2aefed	0.041732717
87	0x3dc8ac71	0.097985156
88	0x3e221715	0.15829118
89	0x3d8a1aba	0.06743379
90	0x3d929cf8	0.07158846
91	0x3dcadb92	0.09905161
92	0x3d8d57e9	0.06901533
93	0x3d3f3034	0.04667683
94	0x3e2d16d9	0.16903247
95	0xbccdbc4f	-0.025114207
96	0x3da03766	0.078230664
97	0x3d8927ba	0.0669703
98	0x3d9b9597	0.075968914
99	0x3dfcc151	0.1234156
100	0x3df3cf6b	0.11904796
101	0x3db8a0de	0.09015058
102	0x3e00e770	0.12588286
103	0x3daa4d9c	0.08315584
104	0x3ded61a7	0.11590891
105	0x3d97e9b8	0.07417625
106	0x3e15da7c	0.14634126
107	0x3d630ac1	0.055430178
108	0x3d9f7705	0.07786373
109	0x3e18ede1	0.14934494
110	0x3e0777dd	0.13229318
111	0x3cfccbba	0.030858863
112	0x3d83c595	0.0643417
113	0x3dbf59ae	0.09343277
114	0x3d8e44da	0.06946726
115	0x3dd5e5f5	0.104442514
116	0x3d95e259	0.07318563
117	0x3d140348	0.03613594
118	0x3de72234	0.112858206
119	0x3dd34d7c	0.10317513
120	0x3db7f1af	0.08981644
121	0x3d5caaf4	0.05387397
122	0x3d9b0620	0.075695276
123	0x3dacaa0e	0.08430873
124	0x3d12e3e5	0.03586187
125	0x3de24a70	0.11049354
126	0x3da332d3	0.07968678
127	0x3dc40e91	0.09573091

encoder_layer2.weight f4 [64, 128]
0	0xbd02d871	-0.031944696
1	0xbc423ed2	-0.011855798
2	0x3c8b04a1	0.01696998
3	0x3b05416c	0.0020333184
4	0x3c662fe6	0.014049506
5	0x3d0c6aee	0.034281664
6	0xbc7cda31	-0.01543288
7	0x3daf62b5	0.08563749
8	0x3c86219b	0.016373446
9	0xbce13e5d	-0.027495557
10	0xbd015f9d	-0.031585325
11	0xbca1d5fc	-0.019755356
12	0xbd248683	-0.040167343
13	0xbd4069df	-0.046975967
14	0x3dcdfb55	0.100577034
15	0x3ce664c3	0.028124219
16	0xbc24f5b5	-0.010068347
17	0xbdad45e0	-0.08460593
18	0x3b985634	0.004648948
19	0x3c2b5450	0.010457113
20	0x3d6db9d3	0.058038544
21	0x3d24e936	0.04026147
22	0xbdd41fbd	-0.10357616
23	0xbd642580	-0.055699825
24	0x3a7026c4	0.000916105
25	0x3cb5e8c9	0.022205727
26	0x3d661a99	0.05617771
27	0xbbc15dda	-0.0059010806
28	0xbd34418a	-0.044007815
29	0xbcdb2be3	-0.026754325
30	0x3da605dd	0.08106587
31	0xbaf1c2de	-0.0018444916
32	0xbbb17741	-0.0054158275
33	0xbd2046bf	-0.03912997
34	0x3d494904	0.0491419
35	0x3ba12678	0.004917916
36	0x3dff2b2c	0.12459406
37	0xbd0f606e	-0.035004072
38	0x3d33ca60	0.04389417
39	0x3ca11771	0.019664498
40	0xbd615976	-0.055016957
41	0x3db95169	0.09048731
42	0xba04fe04	-0.00050732517
43	0x3cd8c7ff	0.026462553
44	0xbd48ecb8	-0.049053878
45	0xbd84962c	-0.064739555
46	0x3d4bd3b4	0.049762443
47	0x3cf8deed	0.030379737
48	0x3ca65f54	0.020309128
49	0xbb3b3955	-0.0028568108
50	0x3bc14bce	0.005898929
51	0xbbfea621	-0.007771269
52	0x3c6689b6	0.014070919
53	0xbd23cb50	-0.039988816
54	0xbcd0fe67	-0.025511933
55	0xbcd463d9	-0.025926517
56	0xbd2fa2a2	-0.042879708
57	0xbdc0e215	-0.09418122
58	0x3d0af144	0.033921495
59	0x3d52fe49	0.051512036
60	0xbd2fc8f3	-0.04291625
61	0xbc932ca2	-0.017965619
62	0xbdbce58b	-0.09223469
63	0xb9c31a07	-0.0003721269
64	0x3d03c219	0.032167528
65	0xbc237118	-0.009975694
66	0x3ba552b8	0.0050452612
67	0x3cdbdcf2	0.026838753
68	0xbda9307e	-0.08261202
69	0xbc9519f5	-0.018200854
70	0x3c38da84	0.011282567
71	0x3c98bf22	0.018645827
72	0xbd126b4b	-0.035746854
73	0xbaed93f1	-0.0018125755
74	0x3cdac3f9	0.026704775
75	0xbc83738e	-0.016046312
76	0xbc9ea0b3	-0.019363737
77	0xbcade338	-0.02122651
78	0x3dbaea4b	0.09126719
79	0xbd0eaddc	-0.034833774
80	0xbc9f52fa	-0.019448746
81	0xbdcd132a	-0.10013421
82	0x3e052253	0.13001375
83	0x3aa91833	0.0012900889
84	0xbc9d515b	-0.019203832
85	0xb8a8631b	-8.029324e-05
86	0x3bfc8217	0.0077059376
87	0x3c6eefea	0.014583567
88	0xbce2d556	-0.027689617
89	0xbc47378b	-0.012159239
90	0x3ccbfaf7	0.024899943
91	0xbc04e55c	-0.008111324
92	0xbbb82d20	-0.0056206137
93	0x3d4b7d21	0.04967988
94	0x3d8d7822	0.06907679
95	0x3d2dda57	0.042444553
96	0xbc1820d9	-0.009285175
97	0xbccb5801	-0.024822237
98	0x3a74ab9a	0.0009333432
99	0x3c4eb4b0	0.012616321
100	0x3cc9705d	0.024589712
101	0xbd247484	-0.04015018
102	0x3bc4ab76	0.006001885
103	0xbc03aa16	-0.008036157
104	0xbb473e91	-0.0030402283
105	0x3d1b0476	0.03784605
106	0x3d032a32	0.032022662
107	0x3d091bbc	0.033473715
108	0x3d7625d3	0.060094666
109	0xbbdcc55a	-0.0067373933
110	0xbc99bada	-0.018765856
111	0x3cbb8d6e	0.022894587
112	0x3d034686	0.03204968
113	0x3c58bc09	0.013228425
114	0x3cc59954	0.024120964
115	0x3c4ac14a	0.012375185
116	0x3d357bb2	0.04430742
117	0xba7854f9	-0.0009473111
118	0xba7c8a15	-0.0009633613
119	0xbcd2981e	-0.0257073
120	0x3d5ab8ca	0.053398885
121	0xbc9548a2	-0.01822311
122	0xbd9bb671	-0.07603157
123	0xbcb23019	-0.02175145
124	0xbd2304e5	-0.03979959
125	0xbce35b9a	-0.02775364
126	0x3aa2aaef	0.0012410561
127	0x3cb3a53b	0.021929374
128	0x3c9f9f04	0.019485004
129	0x3b5f5c35	0.003408206
130	0x3cf219c0	0.029553294
131	0x3cc1906b	0.023628434
132	0xbcab1d4a	-0.02088799
133	0x3bbd2abc	0.0057729166
134	0xbc0cc25b	-0.00859126
135	0xbd50c5a7	-0.050969746
136	0xbcfb8f12	-0.03070787
137	0xbd49ed74	-0.04929872
138	0x3dee5914	0.11638084
139	0x3c93888f	0.018009452
140	0xbc8852c6	-0.016641032
141	0x3c94ad93	0.018149173
142	0x3cece566	0.02891798
143	0xbc9a4f63	-0.018836683
144	0xbbe549bd	-0.0069973157
145	0x3db2bfc8	0.087279856
146	0xbaca19a8	-0.0015419023
147	0xbc9bff27	-0.019042565
148	0xbac96b7a	-0.0015367114
149	0xbdda5e92	-0.10662569
150	0x3dbeaaa1	0.09309889
151	0x3c252323	0.010079178
152	0x3d3cc8ab	0.04608981
153	0x3d1c98fd	0.03823184
154	0xbcba2ab6	-0.022725444
155	0x3cc33662	0.023829643
156	0xbc9167ab	-0.017749628
157	0xbc63d6ac	-0.013906162
158	0x3d3c92c2	0.046038397
159	0xbbf69120	-0.0075246245
160	0x3cdde12e	0.027084913
161	0x3d716f10	0.058943808
162	0x3c0c1636	0.008550217
163	0x3ca23583	0.019800907
164	0x3c95de64	0.01829452
165	0xbace633b	-0.0015746126
166	0x3bbb60b5	0.0057183155
167	0xbd84aa5b	-0.06477805
168	0x3c1fc1a5	0.009750758
169	0xbb53ad9c	-0.0032299524
170	0x3d1e794f	0.038689908
171	0x3c8323d3	0.016008293
172	0x3bf2a5a2	0.007404999
173	0x3cd60d84	0.026129492
174	0xbd08f754	-0.033438995
175	0xbdab428e	-0.08362304
176	0x3cbf8378	0.023378119
177	0xbd195d08	-0.037442237
178	0xbd28370f	-0.041068133
179	0xbcd1938a	-0.025583047
180	0xbdb5ef6b	-0.08883556
181	0xbcc84e2f	-0.024451343
182	0x3c6ad690	0.014333382
183	0x3da147d3	0.078750275
184	0xbcac94ad	-0.021066988
185	0xbd0f8ae7	-0.035044577
186	0xbcb9b702	-0.022670273
187	0x3d675366	0.05647602
188	0x3d031240	0.031999826
189	0xbcd50ed4	-0.026008047
190	0x3ce3222d	0.027726257
191	0xbcbb7a60	-0.022885501
192	0xbd533eb1	-0.05157346
193	0x3d71d265	0.05903854
194	0x3c0145b5	0.007890155
195	0xbdc3cc81	-0.095604904
196	0x3c7c7321	0.015408308
197	0x3b13342b	0.0022461514
198	0x3cc2b315	0.023767034
199	0x3cc15baf	0.023603288
200	0xbb84e44c	-0.0040555354
201	0xbcc3db37	-0.02390824
202	0x3a8557d7	0.0010173273
203	0x3d34e8a4	0.044167176
204	0x3c02497a	0.0079520885
205	0x3d7b4a5c	0.06135021
206	0xbe0aa6ec	-0.13540238
207	0xbc525d0d	-0.012839568
208	0xbc0d87b4	-0.008638311
209	0xbdac44da	-0.0841157
210	0xbd1d4d7b	-0.03840397
211	0x3cd5cd3d	0.026098842
212	0x3d498282	0.049196728
213	0xbd139462	-0.03603018
214	0xbd2d376b	-0.04228918
215	0x3d8ecef5	0.06973068
216	0xbc5ce77f	-0.013482927
217	0x3da4282e	0.08015476
218	0xbc4450fc	-0.011982199
219	0x3b6a86f9	0.0035786016
220	0x3c5890a8	0.0132180825
221	0xbb7afaae	-0.003829639
222	0xbd46e350	-0.048556626
223	0xbcc0f896	-0.023556035
224	0x3c8639db	0.01638501
225	0x3dc4a301	0.09601403
226	0xbc464dd4	-0.012103517
227	0xbcf926f6	-0.030414086
228	0xbc587235	-0.013210823
229	0xbc027dee	-0.007964594
230	0x3d8acd48	0.067774355
231	0xbbd1515f	-0.006387874
232	0xbc3bbf55	-0.011459191
233	0xbba1cd3a	-0.004937795
234	0x3d10bc7d	0.035336006
235	0x3d29cb17	0.041453447
236	0x3d12f0a9	0.035874043
237	0xbcd73d14	-0.026274242
238	0xbd406292	-0.046969004
239	0xbca959f6	-0.02067278
240	0x3ce175a5	0.027521918
241	0xbb28c1c7	-0.0025750266
242	0xbd074c31	-0.033031646
243	0xbccab180	-0.024742842
244	0xbd49bfea	-0.04925529
245	0x3d738216	0.05945023
246	0xbbf702db	-0.007538182
247	0x3d109285	0.035295982
248	0xbe540568	-0.20705187
249	0xbdc65dd8	-0.09685868
250	0x3d20fbfd	0.039302815
251	0x3aa86385	0.0012847042
252	0xbcb3032f	-0.021852104
253	0x3c0fa268	0.008766748
254	0xbcfd25f4	-0.030901887
255	0xbc1608e6	-0.009157395

encoder_layer2.bias f4 [64]
0	0x3d59531a	0.053057767
1	0x3bb33cde	0.0054699024
2	0x3c9bcb54	0.019017853
3	0x3e069086	0.13141069
4	0x3ca0c521	0.019625248
5	0x3d1874e7	0.03722086
6	0x3d2b8445	0.04187419
7	0xbba066c8	-0.004895065
8	0xbe2b351a	-0.16719475
9	0x3d90b5dc	0.07065937
10	0x3cf415ec	0.02979561
11	0x3bc640db	0.006050212
12	0x3c9e0db3	0.019293642
13	0x3d528e6f	0.051405367
14	0x3ca887e5	0.020572612
15	0xbcca7a1b	-0.024716428
16	0x3d31452e	0.043278866
17	0x3d5db43b	0.05412696
18	0x3d9f93d4	0.07791868
19	0x3cbf1b25	0.023328373
20	0x3d14cb50	0.036326706
21	0x3c955fb7	0.018234117
22	0x3d33da5f	0.043909427
23	0x3d49e213	0.049287867
24	0x3d5bb9ce	0.053643994
25	0x3b4f472e	0.003162812
26	0xbe8c9827	-0.27459833
27	0x3c05ccd9	0.008166515
28	0x3cdf70b5	0.027275423
29	0x3d26b53c	0.040700182
30	0x3cf08773	0.029361462
31	0x3d328b20	0.04358971
32	0x3c8b9c72	0.017042372
33	0x3d845e2f	0.064632766
34	0x3d78ad87	0.060712364
35	0x3d274b94	0.04084356
36	0xbb9c47a5	-0.004769283
37	0x3bfdc875	0.0077448436
38	0x3cb916c6	0.022593867
39	0xbc9a37de	-0.018825468
40	0x3c894084	0.016754396
41	0xbb72e1db	-0.003706089
42	0xbb7cd730	-0.003858041
43	0x3cb888ff	0.022526262
44	0x3cde5cd0	0.027143866
45	0x3d64fc78	0.055904835
46	0x3d20b8d0	0.03923875
47	0x3b61fdd9	0.003448358
48	0x3d6ee6a7	0.058325436
49	0x3ca56758	0.02019088
50	0x3bdea1d0	0.006794192
51	0x3d2f230e	0.04275804
52	0x3da4c239	0.080448575
53	0x3d6c8670	0.057745397
54	0x3cac9327	0.021066261
55	0x3d93e964	0.0722225
56	0x3d8fef9e	0.07028125
57	0x3d4e0879	0.05030105
58	0x3d023cdb	0.031796318
59	0x3d1f14a1	0.038838033
60	0x3db87738	0.09007114
61	0x3d20f4a5	0.03929581
62	0x3d5cb60d	0.053884555
63	0x3b9bfa3c	0.004760055

encoder_layer3.weight f4 [32, 64]
0	0xbdd80329	-0.10547478
1	0x3e135272	0.14386919
2	0x3d472789	0.048621688
3	0xbec884e2	-0.39163882
4	0xbe4a51f5	-0.19757827
5	0x3cbd70be	0.023125049
6	0xbdf99f42	-0.12188579
7	0x3d99643e	0.07489823
8	0x3e0045a1	0.12526561
9	0xbd69ff38	-0.05712816
10	0x3c61023f	0.013733446
11	0x3dbdce57	0.09267872
12	0x3e1a6a76	0.15079674
13	0xbd59c93c	-0.053170428
14	0x3cb0cbd2	0.021581564
15	0xbdfe26ef	-0.1240977
16	0x3e52921f	0.20563553
17	0xbc8393d7	-0.016061706
18	0xbe2481f6	-0.16065201
19	0x3d28ec57	0.041241016
20	0x3e2b442c	0.16725224
21	0xbe02bcd0	-0.12767339
22	0xbd489e7f	-0.04897928
23	0xbdc8369a	-0.097760394
24	0xbd8f3ad4	-0.069936424
25	0xbca44692	-0.020053182
26	0x3ea2d9dc	0.3180684
27	0x3daa8292	0.083256856
28	0xbe1930b5	-0.14959987
29	0x3ddeac19	0.10872669
30	0xbcd6ed3c	-0.026236169
31	0x3d3a9786	0.04555466
32	0xbdba2493	-0.09089007
33	0xbd3ebe89	-0.046568427
34	0xbe1b9415	-0.15193208
35	0x3e0f97bd	0.14022727
36	0x3b88d458	0.004175704
37	0xbd2c5bb3	-0.04207964
38	0x3d2230af	0.03959721
39	0x3e16714f	0.14691661
40	0x3dcc8482	0.09986211
41	0xbb95c7cb	-0.0045709363
42	0xbd80fbe4	-0.06298044
43	0xbd2d4f2a	-0.042311825
44	0xbd8dc88c	-0.06923017
45	0x3d6579e3	0.056024443
46	0x3db8ef61	0.09030033
47	0xbdd26e2f	-0.10274922
48	0x3d01e5f3	0.031713437
49	0xbcab66f7	-0.02092312
50	0xbcf034ee	-0.029322114
51	0xbe008727	-0.12551557
52	0xbe0aa3bd	-0.13539024
53	0xbda5bcf5	-0.08092681
54	0x3d965bf4	0.073417574
55	0xbdb13ad5	-0.086537994
56	0xbe18f35c	-0.14936584
57	0xbe0ab8d9	-0.13547076
58	0xbce36311	-0.0277572
59	0x3d504bc4	0.050853506
60	0xbd19f112	-0.03758342
61	0xbe5f3004	-0.2179566
62	0xbde58148	-0.11206299
63	0x3d2724cf	0.040806588
64	0xbdd4f712	-0.103986874
65	0xbc4b6951	-0.012415246
66	0x3d5b708e	0.053574137
67	0xbd0c6e4b	-0.03428487
68	0x3e0c7716	0.13717303
69	0x3bdb6407	0.006695274
70	0x3a93fc19	0.0011290341
71	0x3db849cd	0.089984514
72	0x3d2d350b	0.042286914
73	0xbdad57c4	-0.084640056
74	0xbdc02a33	-0.09383049
75	0xbdb5a5cc	-0.08869514
76	0xbdc7320b	-0.09726342
77	0xbb7b12be	-0.0038310732
78	0xbe1d2c7b	-0.15348999
79	0xbd6ffaad	-0.058588672
80	0x3d6eccd1	0.058300797
81	0x3df1bb05	0.11803249
82	0xbca7633b	-0.020433059
83	0x3d83e9c9	0.06441075
84	0x3df37afb	0.11888691
85	0x3d533028	0.051559597
86	0x3deb9a26	0.11504011
87	0x3cc8a803	0.024494177
88	0x3dc4be21	0.09606577
89	0xbd38327b	-0.044970017
90	0x3d0d85dc	0.034551486
91	0x3e12ef45	0.14349087
92	0x3dcb0c3f	0.09914445
93	0x3d6ac7ea	0.05731956
94	0xbd333197	-0.043748464
95	0xbbfb3b95	-0.007667015
96	0x3d3ade33	0.045622062
97	0x3b47a6ee	0.0030464488
98	0x3cae253b	0.021257987
99	0xbd11d7d6	-0.035606228
100	0x3d2fea85	0.042948265
101	0xbdbd998f	-0.092578046
102	0xbd967494	-0.07346454
103	0x3dd7f61f	0.10544991
104	0xbd903a9b	-0.07042428
105	0x3dab89fa	0.08375926
106	0x3c5c60fa	0.013450855
107	0x3dccb677	0.0999574
108	0xbd709f15	-0.058745462
109	0x3d84d8b3	0.064866446
110	0x3da16386	0.07880311
111	0x3dbd6c16	0.092491314
112	0x3cbd47e7	0.023105575
113	0xbdfffd7d	-0.12499521
114	0xbca45650	-0.020060688
115	0xbcbc3437	-0.022974117
116	0xbe3e848c	-0.1860525
117	0xba90c087	-0.0011043706
118	0x3e1e3cb8	0.1545285
119	0x3e77c615	0.24196656
120	0xbdd43977	-0.10362523
121	0x3d80442a	0.06263001
122	0xbdb7340a	-0.089454725
123	0xbdc8f296	-0.098118946
124	0x3cb930df	0.022606311
125	0xbd341e74	-0.043974355
126	0xbc6ca9cf	-0.014444782
127	0x3d0e154f	0.03468829
128	0xbd39e7c8	-0.04538706
129	0xbde49238	-0.111607015
130	0xbd93eea4	-0.072232515
131	0xbccdc558	-0.025118515
132	0xbd62145f	-0.05519521
133	0xbdfde09e	-0.12396358
134	0xbcf24526	-0.029573988
135	0xbc02a76f	-0.00797449
136	0x3e02fad3	0.12790994
137	0x3deb533a	0.114904836
138	0xbe2f5308	-0.17121518
139	0x3d2ef33e	0.042712443
140	0xbd13233f	-0.035922285
141	0x3b123eea	0.0022315332
142	0x3d87e73b	0.066359006
143	0xbc17cca3	-0.009265098
144	0x3c37380c	0.011182796
145	0xbd907f58	-0.07055539
146	0x3d4e1a48	0.050318033
147	0x3bbce0c0	0.005764097
148	0xbd2f08ee	-0.042733125
149	0xbc47853b	-0.012177761
150	0x3dbdebe3	0.092735074
151	0x3baf49d2	0.0053493762
152	0x3d120d45	0.035657186
153	0x3ccc854f	0.02496591
154	0xbc61a55b	-0.013772334
155	0xbd6df0da	-0.058091022
156	0x3db6eb3e	0.08931588
157	0x3d12fe5f	0.03588712
158	0xbcad6576	-0.021166544
159	0x3dc37e59	0.09545583
160	0xbc39db13	-0.011343735
161	0x3ba64e7b	0.0050752736
162	0xbd8e8ae9	-0.06960089
163	0xbc0daf96	-0.00864782
164	0xbcd56380	-0.026048422
165	0xbd9a68e2	-0.07539536
166	0x3dc443e2	0.0958326
167	0x3d96c62c	0.07362017
168	0xbe2757e7	-0.16342126
169	0x3da2c234	0.079471976
170	0xbe060792	-0.13088825
171	0xbd295070	-0.041336477
172	0x3bea8096	0.007156442
173	0xbd9f6c24	-0.07784298
174	0x3ca85cbe	0.020552035
175	0xbd09aa93	-0.033609938
176	0x3e06bf75	0.13158973
177	0xbdbf2373	-0.09332933
178	0xbc3f1eeb	-0.011665086
179	0xbde05203	-0.109531425
180	0xbda2daeb	-0.079519115
181	0xbe7a8c50	-0.24467587
182	0x3e00c55c	0.12575287
183	0xbcc3cfa1	-0.023902716
184	0xbe39d9bd	-0.18149467
185	0xbe04db44	-0.12974268
186	0x3cca1c69	0.02467175
187	0xbd52ba21	-0.051447038
188	0x3c102b15	0.008799334
189	0x3d51f23d	0.051256407
190	0xbd5b7629	-0.053579483
191	0xbcabba3f	-0.020962832
192	0xbdc5cc3d	-0.09658096
193	0xbcd27eb9	-0.025695192
194	0x3cad6b1f	0.021169243
195	0xbcd7a97f	-0.02632594
196	0x3e5b0dcd	0.21391983
197	0xbc17980d	-0.00925256
198	0x3db9dea7	0.09075671
199	0x3bb8c180	0.0056383014
200	0x3e057e4a	0.13036457
201	0xbe05684a	-0.13028064
202	0x3c1f4bac	0.009722631
203	0x3e28ee5d	0.16497178
204	0xbdb13ada	-0.08653803
205	0xbdffb09d	-0.12484858
206	0xbd679176	-0.056535207
207	0xbc70f368	-0.01470647
208	0xbc366691	-0.011132852
209	0x3db6d97e	0.08928202
210	0x3c9816e6	0.018565606
211	0xbd7cd66b	-0.061727922
212	0x3d08d555	0.033406574
213	0xbd019910	-0.031640112
214	0xbcea2f9e	-0.028587159
215	0xbd3e0c30	-0.04639834
216	0xbcc3a5fc	-0.023882858
217	0x3d908449	0.070564814
218	0xbcf297d6	-0.029613417
219	0x3cfbdc41	0.030744674
220	0xbd8da16c	-0.069155544
221	0x3df8c8d3	0.12147679
222	0x3dddb5eb	0.10825714
223	0xbd717edc	-0.058958873
224	0x3d1a5ed0	0.037688076
225	0x3e3999c0	0.18125057
226	0xbd9c13a7	-0.07620936
227	0x3d180486	0.03711369
228	0xbd8c823f	-0.0686078
229	0xbc6db05c	-0.014507379
230	0x3d617000	0.055038452
231	0x3e5e9383	0.21735959
232	0x3d403a3c	0.046930537
233	0xbd27382c	-0.040825054
234	0xbd99a030	-0.075012565
235	0xbe43aff7	-0.19110094
236	0x3d0c9c27	0.034328606
237	0xbba19dcd	-0.0049321414
238	0xbc56794c	-0.013090443
239	0x3d8a11e0	0.06741691
240	0x3dc02c9d	0.09383509
241	0x3d4072fc	0.046984658
242	0x3de06aab	0.10957845
243	0xbb3f394d	-0.002917844
244	0x3e066afb	0.13126747
245	0xbdb44386	-0.088019416
246	0x3e494545	0.1965533
247	0xbc5011fc	-0.0126996
248	0xbd92c7c9	-0.07167012
249	0xbc9054ba	-0.017618526
250	0xbe3dfaaa	-0.18552652
251	0xbd4e09f4	-0.05030246
252	0x3dc85bff	0.09783172
253	0xbd9267bb	-0.07148691
254	0xbd984359	-0.074347205
255	0x3e56b7ec	0.20968598

encoder_layer3.bias f4 [32]
0	0xbe230e37	-0.15923391
1	0x3d288921	0.0411464
2	0x3d674934	0.056466296
3	0x3d1cb313	0.038256716
4	0x3d14e44b	0.03635053
5	0xbc612ea7	-0.013744033
6	0xbd69bb64	-0.057063475
7	0xbeca5a6d	-0.39522114
8	0x3d6b797a	0.057488896
9	0x3e90382f	0.28167865
10	0x3ad02fc8	0.001588338
11	0x3dec7a21	0.11546732
12	0x3d7397cc	0.059470937
13	0x3db269c7	0.08711582
14	0x3d981a91	0.07426942
15	0xbc633e67	-0.013869858
16	0xbd36cc69	-0.044628534
17	0xbd000c66	-0.031261824
18	0x3d97e925	0.07417516
19	0x3e4bb40f	0.19892906
20	0x3c7d7aca	0.01547117
21	0xbd39aea8	-0.04533258
22	0x3dc23911	0.09483541
23	0xbac37315	-0.0014911616
24	0xbdb4113f	-0.08792352
25	0x3e84c1de	0.2592916
26	0x3ddb2b72	0.10701646
27	0x3bd4e593	0.006497094
28	0xbcae9f43	-0.021316176
29	0x3cccace1	0.024984779
30	0x3cee7dfa	0.029112805
31	0x3d2883e2	0.0411414

encoder_layer_mu.weight f4 [2, 32]
0	0x3cc9ffc4	0.024658091
1	0x3a5e349f	0.0008476469
2	0xbb2cf25c	-0.0026389575
3	0x3a75ad05	0.000937179
4	0xbe12e7a8	-0.14346182
5	0x3da33998	0.079699695
6	0x3e498d10	0.19682717
7	0x3a355468	0.00069171796
8	0x3ae78f7a	0.0017666661
9	0x3bf41330	0.0074485764
10	0x3a2fa5ec	0.00067004445
11	0xbc93cc30	-0.0180417
12	0x3af0cde9	0.0018371913
13	0x3ac87130	0.0015292522
14	0x3b3735ed	0.0027955726
15	0x3d7ea3a8	0.062167794
16	0x3db54048	0.08850151
17	0x3ddbaa5a	0.10725851
18	0xbb411e8b	-0.0029467668
19	0xbd48ce68	-0.04902497
20	0xba1b6783	-0.0005928205
21	0xbb93e58a	-0.004513447
22	0xbbc5560c	-0.0060222205
23	0xbd0c674d	-0.034278203
24	0x3dad23c3	0.08454087
25	0x3c0da5e0	0.008645505
26	0x3a3b0928	0.0007134848
27	0x3c072db2	0.008250641
28	0xbe94eca2	-0.29086787
29	0x393771c8	0.00017494627
30	0xb9b1ef7e	-0.00033938506
31	0xbd8b889f	-0.06813168
32	0x3e8ac596	0.2710387
33	0xbbd44c6e	-0.0064788377
34	0xbb112d2e	-0.0022152173
35	0xbb80ef1a	-0.003934753
36	0xbd8fcb53	-0.07021203
37	0xbca902ab	-0.020631155
38	0x3d8e99c9	0.06962926
39	0xbc2898f5	-0.010290374
40	0xbb3377db	-0.0027384672
41	0x3bb887bc	0.005631415
42	0x3a96fe40	0.0011519864
43	0xbcc85c1d	-0.024457986
44	0x3b1cd446	0.0023930236
45	0xbb274bc7	-0.0025527345
46	0xbbb87947	-0.0056296918
47	0x3dcac32a	0.09900506
48	0x3da3b54e	0.079935655
49	0x3d23cf7f	0.039992806
50	0xbc20cd37	-0.009814552
51	0xbd2403fe	-0.04004287
52	0xbaf7bfd6	-0.0018901776
53	0x3b4edd33	0.003156495
54	0xbb2c2723	-0.0026268444
55	0x3d3fb10b	0.0467997
56	0xbe4da1e2	-0.20081285
57	0x3bf0c868	0.007348109
58	0xbae4f955	-0.0017469326
59	0x3b9c9cfe	0.004779457
60	0x3da28ab6	0.07936613
61	0x3a33fa1d	0.0006865578
62	0xbbac430a	-0.005257015
63	0xbe473d98	-0.1945709

encoder_layer_mu.bias f4 [2]
0	0x3d22b3bc	0.03972219
1	0x3d3b1572	0.04567475

encoder_layer_sigma_square.weight f4 [2, 32]
0	0x3f9a9a64	1.2078366
1	0xbd871f49	-0.06597764
2	0x3d2e28ea	0.042519487
3	0x3d581996	0.052758776
4	0x3f1fb9a6	0.6239265
5	0x3f3be6c1	0.7339898
6	0x3f777b2f	0.9667234
7	0x3feec57a	1.8654015
8	0xbdf7074b	-0.12061938
9	0xc006c8d2	-2.106007
10	0x3e020949	0.12698855
11	0x3e4b5c08	0.19859326
12	0xbe4ae30a	-0.19813171
13	0xbe1e43c9	-0.15455545
14	0xbe65303f	-0.22381686
15	0x3f2fca48	0.6866803
16	0x3f61b00e	0.88159263
17	0x3f3f9399	0.7483459
18	0xbe464721	-0.19363071
19	0xbfab25a3	-1.3370861
20	0xbd85d8a1	-0.06535459
21	0x3e40fedc	0.18847221
22	0xbe1201be	-0.14258477
23	0x3f076738	0.52891874
24	0x3fa84048	1.3144617
25	0xc003c9d5	-2.0591938
26	0xbed3e78e	-0.413876
27	0xbeb381ec	-0.3506006
28	0x3f5da330	0.8657713
29	0x3e7a56df	0.24447201
30	0xbd33483b	-0.043770056
31	0x3f6288b8	0.88489866
32	0x3fa67fb2	1.300772
33	0xbda26a55	-0.079304375
34	0xbd544053	-0.051819157
35	0x3b94cffb	0.0045413948
36	0x3f41cebc	0.75706077
37	0x3f4e8148	0.8066602
38	0x3f70f729	0.94127136
39	0x3fec95d4	1.8483224
40	0xbe19fb68	-0.1503731
41	0xc006d9c7	-2.107042
42	0x3e1c5831	0.15268017
43	0x3e4d31d5	0.2003854
44	0xbe414892	-0.1887534
45	0xbe2bb5cf	-0.16768573
46	0xbe705c0c	-0.23472613
47	0x3f1c8912	0.6114665
48	0x3f7341e2	0.95022404
49	0x3f4f6ce5	0.81025535
50	0xbe3d9c80	-0.18516731
51	0xbf9ebc23	-1.2401165
52	0xbcfaccee	-0.030615296
53	0x3e0126e6	0.12612495
54	0xbe1cd2c1	-0.15314771
55	0x3f0ef961	0.5584927
56	0x3f8b42b2	1.0879729
57	0xc00514e2	-2.0793996
58	0xbef81ce0	-0.4845953
59	0xbe949394	-0.29018843
60	0x3f5b8608	0.8575139
61	0x3e879255	0.2647883
62	0xbd730e91	-0.059340063
63	0x3f7c6c41	0.9860268

encoder_layer_sigma_square.bias f4 [2]
0	0xbfd6c72d	-1.6779534
1	0xbfe62c77	-1.798232

decoder_layer1.weight f4 [32, 2]
0	0xba1a0ff2	-0.000587701
1	0x39a15d51	0.0003077784
2	0x3e4f244b	0.20228688
3	0x3e6a02c4	0.22852618
4	0x3e9cb2cc	0.3060516
5	0xbc8cb730	-0.017177194
6	0x399a50b5	0.000294333
7	0x3ac9ef0e	0.0015406327
8	0xbb8e0f91	-0.0043353518
9	0x3ba9143c	0.005159883
10	0x3ee7617b	0.4519156
11	0xbe250333	-0.16114502
12	0xbcd8ac6d	-0.026449407
13	0xbd0a07c1	-0.0336988
14	0x3e87c431	0.2651687
15	0x3d7d9fd0	0.061919987
16	0xbc0be1ed	-0.008537752
17	0xbb0b2a32	-0.0021234867
18	0xbc547012	-0.012966173
19	0xbbf9086c	-0.007599881
20	0x3d8ba9e3	0.06819513
21	0xc0458c95	-3.0867054
22	0xbaef7be1	-0.0018271172
23	0xbbca8aa8	-0.00618108
24	0x3bd82e61	0.0065973257
25	0xbb0643b4	-0.0020487132
26	0xbb996655	-0.0046813884
27	0x3b02645a	0.001989624
28	0xbc2b4ed0	-0.010455802
29	0x3b7a2a46	0.003817217
30	0x3d41f363	0.047351252
31	0x3dc6aa52	0.09700455
32	0xbbc61a51	-0.0060456176
33	0xbc232ce4	-0.009959433
34	0xc037b7f2	-2.8706021
35	0xbf4a82f9	-0.791061
36	0x3933185a	0.00017079842
37	0xbb3f6cd9	-0.0029209165
38	0xbf0e60ca	-0.5561644
39	0x4052b335	3.292188
40	0x404ab8cb	3.1675289
41	0xbb0ae30e	-0.0021192464
42	0xbd0fcaa5	-0.035105366
43	0xbea606d8	-0.32427096
44	0xbb531331	-0.0032207484
45	0x3a94cafa	0.0011351996
46	0xba8fa76c	-0.001095993
47	0xbda020c5	-0.0781875
48	0xbe83f2aa	-0.25771075
49	0x3f20e44f	0.6284837
50	0x3be6e9b0	0.0070469007
51	0x3d86bf84	0.065794975
52	0xbd9d42ae	-0.07678734
53	0x3c1a8e0d	0.009433282
54	0xbce4bb47	-0.027921332
55	0xbd79d855	-0.060997326
56	0x3b3c4892	0.0028729779
57	0xbbd9bc26	-0.0066447435
58	0xbbe02577	-0.0068404037
59	0xbb84406a	-0.004035999
60	0xbc288f6c	-0.010288101
61	0x3c926284	0.017869242
62	0x3d127cda	0.0357636
63	0xbcb1acae	-0.021688785

decoder_layer1.bias f4 [32]
0	0xba49a63a	-0.0007692311
1	0x387af794	5.983522e-05
2	0xbb94aae1	-0.004536972
3	0xba0b7e8d	-0.0005321287
4	0x3987285f	0.00025779285
5	0x3b48245a	0.0030539245
6	0x3ad80bfa	0.0016483061
7	0xbb8d6952	-0.0043155337
8	0x3a26bc63	0.0006360469
9	0x3a96d3e4	0.001150724
10	0xbd8eb3f0	-0.06967914
11	0x397c48ce	0.00024059715
12	0xb8666a6a	-5.493538e-05
13	0x39e477fd	0.00043576947
14	0x3a90c354	0.001104454
15	0xbb2592b4	-0.0025264444
16	0x383a280c	4.4383152e-05
17	0xbd92a4a0	-0.07160306
18	0xb9cfe679	-0.00039653832
19	0xbdb5f738	-0.08885044
20	0xbdad5a29	-0.08464462
21	0xbbc60488	-0.0060430206
22	0x3959f580	0.00020786189
23	0x3b114872	0.0022168425
24	0xbc0b8a65	-0.008516883
25	0xbb00114b	-0.0019541557
26	0x3aab3388	0.0013061622
27	0x3b27c466	0.002559924
28	0x3abc83db	0.0014382558
29	0x3a9b7665	0.0011860846
30	0x3a40db14	0.0007356864
31	0xbaa17538	-0.0012318259

decoder_layer2.weight f4 [32, 32]
0	0x3b639721	0.003472753
1	0xb89a950c	-7.3710544e-05
2	0xbc04c3cc	-0.008103322
3	0x3bbfe602	0.0058562765
4	0x3b3a5853	0.0028433993
5	0x3cae29d2	0.021260176
6	0xbaca2682	-0.0015422853
7	0x3d0c0ab5	0.0341899
8	0x3bcdc9af	0.006280146
9	0x3b3a1b7b	0.0028397727
10	0xbc2d146d	-0.010563952
11	0x386bea5a	5.6246623e-05
12	0x3ba86e96	0.005140136
13	0x399f01fe	0.00030328328
14	0x3c059c20	0.008154899
15	0x3cc5a194	0.024124898
16	0x3b98b702	0.004660488
17	0x3c08ba0b	0.008345137
18	0x3c865300	0.016397
19	0xbca6f07c	-0.020378344
20	0xbc73a8c2	-0.014871778
21	0xbccc5cc0	-0.02494657
22	0xb9fe2639	-0.00048475133
23	0xbc8f2223	-0.017472332
24	0x3cdd0093	0.026977813
25	0xbb2e03de	-0.0026552598
26	0xbb8ab1ed	-0.004232636
27	0x3b6626a3	0.0035118244
28	0xbc3901b2	-0.011291908
29	0xbc656ad2	-0.014002519
30	0x3ca5135c	0.020150833
31	0x3c6c6911	0.014429347
32	0xba685166	-0.0008862227
33	0xbaa85f27	-0.001284574
34	0x3b786202	0.0037900214
35	0x3b3a1106	0.0028391494
36	0x3c287755	0.010282357
37	0x3e0dee86	0.1386052
38	0x3cd75d30	0.026289552
39	0x3d8baae1	0.06819702
40	0x3b10a25f	0.0022069437
41	0xbbebe7bb	-0.0071992553
42	0xbbfbf334	-0.007688904
43	0xbbacf095	-0.005277703
44	0x3c16c137	0.009201339
45	0x3b21f01a	0.0024709762
46	0x3bb9809e	0.0056610843
47	0xbca41cfe	-0.020033356
48	0x3b1ce1c1	0.002393827
49	0x3c000f59	0.007816159
50	0xbcc1720e	-0.023613956
51	0xbc9e74cd	-0.019342804
52	0xbd37acdb	-0.044842582
53	0x3cffe31a	0.03123622
54	0x39ffd0f7	0.0004879308
55	0xbcd4ec4b	-0.02599158
56	0x3cc049a3	0.023472613
57	0x3bd187a7	0.006394345
58	0x3cd0297d	0.025410408
59	0xbc949df2	-0.01814172
60	0xbab71bba	-0.0013970055
61	0xbc9d6eac	-0.019217812
62	0x3c65be22	0.014022382
63	0x3c64dc99	0.01396861
64	0xbb94611f	-0.0045281793
65	0xbdb27d21	-0.08715273
66	0xbcbd7fc5	-0.023132214
67	0xbb8f5f91	-0.004375406
68	0xbb2a4b1d	-0.0025984712
69	0xbd2e9d54	-0.04263051
70	0xbc113dac	-0.008864801
71	0xbcdb5cbd	-0.02677762
72	0x3b9f7c6f	0.0048671286
73	0xbb210784	-0.002457113
74	0xbc9da791	-0.019244941
75	0x3c3d5839	0.011556678
76	0xbbac4002	-0.0052566538
77	0x3b2aeec2	0.0026082252
78	0xbc13aaa8	-0.009012856
79	0x3a7d402f	0.0009660748
80	0xbb1d918e	-0.0024043056
81	0x3c86763d	0.016413802
82	0x3bd6ee28	0.006559152
83	0x3beda0c3	0.0072518303
84	0x3cc0770a	0.023494262
85	0xbb7c1155	-0.003846248
86	0xba4a3bdd	-0.0007714609
87	0xbaf9b947	-0.0019052409
88	0xbd2a3952	-0.04155857
89	0xbc918719	-0.017764615
90	0xbcefc55c	-0.029268913
91	0xbbf8dc95	-0.007594655
92	0x3c4d0373	0.012513029
93	0xbc907bfa	-0.017637242
94	0xbc3a8021	-0.011383087
95	0xbb92088e	-0.004456586
96	0xbcc63f24	-0.02420003
97	0x3aef9786	0.001827941
98	0xbbf41388	-0.0074486174
99	0x3c382261	0.011238665
100	0x3b0e6f89	0.002173396
101	0xbc2bb14b	-0.010479282
102	0x3c6197a0	0.01376906
103	0xbbb41e6a	-0.0054967897
104	0xba50de5e	-0.00079677056
105	0xba1ac828	-0.00059044594
106	0xba499208	-0.0007689302
107	0xbb5fb737	-0.0034136304
108	0x3bc4ad0d	0.0060020746
109	0xba27fadb	-0.0006407925
110	0x3c68bee7	0.014205671
111	0x3b02c2de	0.0019952576
112	0x3c6b19c0	0.014349401
113	0xbb229926	-0.0024810522
114	0xbc8cfd1c	-0.017210536
115	0xbb025ed1	-0.001989294
116	0xbb9e90d4	-0.004839042
117	0xbcfbc58c	-0.030733846
118	0x3abac1f9	0.0014248482
119	0xbd30bba7	-0.04314771
120	0xbd636c1b	-0.05552302
121	0x3cb231b4	0.021752216
122	0x3c55d4b0	0.013051197
123	0xbc8d80ce	-0.017273333
124	0x3bced95c	0.0063125324
125	0xbc2bdcea	-0.010489682
126	0x3c35dcd0	0.011100009
127	0xbc376607	-0.011193759
128	0xb962ceee	-0.00021630127
129	0xbd3eae5a	-0.046552993
130	0xbcf0666e	-0.029345717
131	0xbbcbf8c9	-0.006224726
132	0x3b821199	0.003969383
133	0xbab558da	-0.0013835684
134	0x3d11f826	0.035637043
135	0xbce5182c	-0.027965628
136	0xbbc13d11	-0.0058971723
137	0xba114a67	-0.0005542398
138	0xbd36ac38	-0.044597834
139	0x3caa0b1c	0.02075725
140	0x3b822903	0.003972174
141	0x3a7bbeae	0.00096033036
142	0xb8d0e62b	-9.961085e-05
143	0xbca07714	-0.01958803
144	0x3bea9864	0.0071592797
145	0x3acfbd98	0.001584935
146	0xbc1de179	-0.009636276
147	0x3d1fe5eb	0.039037626
148	0x3bf0a3a3	0.0073437258
149	0x3daf01d6	0.08545272
150	0x3a96d80e	0.0011508481
151	0x3d06cda0	0.032910943
152	0xbda6028c	-0.081059545
153	0xbc33fa6f	-0.010985001
154	0x3cc1ceec	0.023658238
155	0x3acdfca0	0.0015715547
156	0x3b9603dd	0.0045780973
157	0x3c08c738	0.008348279
158	0xbc76cb01	-0.015063048
159	0xbcca3e64	-0.024687953
160	0x3c1f2069	0.009712317
161	0xbdd5641d	-0.10419486
162	0xbd2056e3	-0.03914536
163	0xbc6b0744	-0.014344994
164	0x3b7af396	0.0038292161
165	0xbdb860c3	-0.09002831
166	0xbbfdbddc	-0.0077435803
167	0xbd17725a	-0.03697429
168	0xbc83d452	-0.016092453
169	0xbca70ec2	-0.02039278
170	0xbb8d7524	-0.0043169428
171	0xbc1a6e7e	-0.009425757
172	0x3bc7668d	0.006085223
173	0xb9fa4174	-0.00047732482
174	0x39c9049e	0.00038341148
175	0x3ae061fb	0.0017119044
176	0x3b39e173	0.0028363138
177	0xbad239d5	-0.0016038964
178	0x3bb14046	0.0054092733
179	0x3b0352c4	0.0020038346
180	0xb9c37bd0	-0.00037285546
181	0xbd07b35e	-0.033130042
182	0x3ab09303	0.0013471547
183	0xbd35a009	-0.044342075
184	0xbdda63c2	-0.106635585
185	0xbc1864a3	-0.009301337
186	0xbc83e996	-0.016102593
187	0xbc72a4a6	-0.014809763
188	0x3b2ea977	0.0026651302
189	0xbca259c4	-0.019818194
190	0xbb9aa654	-0.004719535
191	0xbbce26b6	-0.006291236
192	0x3b801dba	0.0039097937
193	0x3c77ca33	0.015123892
194	0x3c6d1028	0.014469184
195	0x3c128e0c	0.008944999
196	0xba9bcc82	-0.001188651
197	0xbcd86636	-0.026415925
198	0xbcf5f128	-0.030022219
199	0x3d208760	0.039191604
200	0xbc8f7a16	-0.01751427
201	0xbc65388f	-0.013990535
202	0x3aed8de0	0.0018123947
203	0xbc964d1f	-0.018347321
204	0x3bfbeda8	0.007688243
205	0xbb15e36d	-0.0022871152
206	0xbc06a561	-0.00821814
207	0x3a98880d	0.0011637226
208	0xbbdc4fac	-0.006723365
209	0xbcca38a4	-0.024685211
210	0x3b84a2f2	0.004047745
211	0xbcea73cc	-0.02861967
212	0x3c4a26b2	0.012338327
213	0xbd417ea1	-0.047239903
214	0x388441c9	6.306504e-05
215	0xbd1754c5	-0.036946077
216	0x3cb2103d	0.021736259
217	0x3c3a1edb	0.011359896
218	0xbcc54774	-0.024081923
219	0xbbec48d9	-0.0072108326
220	0x3c02f7af	0.007993623
221	0xbb5269aa	-0.0032106438
222	0x3b465792	0.0030264598
223	0x3d4dc0db	0.05023275
224	0xbb92f880	-0.00448519
225	0xbca5aa2d	-0.020222748
226	0xbe06ae7c	-0.13152498
227	0xbc1394e8	-0.00900767
228	0xbbe5d8e6	-0.0070143817
229	0x3d2fde9c	0.042936906
230	0x3b021212	0.0019847197
231	0xbe0c503a	-0.13702479
232	0x39527574	0.00020070915
233	0xbb4c7f2b	-0.0031203728
234	0xbeee8e7c	-0.46593082
235	0x3bb7ffff	0.005615234
236	0xbc863dea	-0.016386945
237	0x3bca9f1c	0.006183518
238	0xbb92a1f2	-0.004474872
239	0xbd3e7248	-0.046495706
240	0xbca25eae	-0.019820537
241	0xbf0dec48	-0.5543866
242	0xbcac54cb	-0.021036526
243	0xbf0ecf30	-0.55784893
244	0xbf04125d	-0.5159052
245	0xbdf1c130	-0.11804426
246	0x39b2c9d8	0.0003410119
247	0x3d76c3fd	0.060245503
248	0xbdb512d5	-0.088414825
249	0xbd410e5f	-0.047132846
250	0xbccff580	-0.025385618
251	0x3c675ee6	0.014121747
252	0xbc3936a5	-0.011304532
253	0x3c6a058c	0.014283549
254	0xbc52fdf0	-0.012877926
255	0xbcf6dea8	-0.030135468

decoder_layer2.bias f4 [32]
0	0x3a34634e	0.00068812526
1	0x3aad4528	0.0013219463
2	0x3b4df16f	0.0031424423
3	0xbaf04f98	-0.0018334268
4	0xbc46f3fe	-0.012143133
5	0xbb17b890	-0.002315078
6	0x3bf56ba4	0.0074896384
7	0xbdc82ce7	-0.097741894
8	0xbba35ec8	-0.004985664
9	0x3bd87cfe	0.006606697
10	0xbd6064c8	-0.054783612
11	0x3c03828a	0.008026728
12	0xbc40b086	-0.0117608365
13	0x3ba32764	0.004979061
14	0x3c0f5cbc	0.008750137
15	0x3a7f16c4	0.00097308704
16	0x3b582420	0.0032980517
17	0xbb90ba58	-0.004416745
18	0xb80cb3a0	-3.354589e-05
19	0xbab85b74	-0.0014065341
20	0xbbbb9293	-0.00572426
21	0xbe728a94	-0.23685676
22	0xba42bc82	-0.00074286025
23	0xbcf36f73	-0.029716229
24	0xbb3386b8	-0.002739353
25	0xba47b966	-0.0007618874
26	0x3a6f75df	0.00091346906
27	0xbe33ce5a	-0.17559186
28	0xbb644fc9	-0.0034837595
29	0x3b1d31be	0.0023985947
30	0x3ae19f58	0.0017213626
31	0x3bd12ba2	0.0063833753

decoder_layer3.weight f4 [32, 32]
0	0x3c3060d0	0.010765269
1	0x3c058d60	0.008151382
2	0x3d254027	0.040344384
3	0xbc33e1f5	-0.010979165
4	0xbd353eb6	-0.04424926
5	0xbc790173	-0.015198099
6	0x3d5a38a8	0.053276688
7	0x3d92bec2	0.071652904
8	0xbd1fcafb	-0.039011937
9	0x3d19ed15	0.037579615
10	0xbd10c97d	-0.035348404
11	0xbd2f5e34	-0.04281445
12	0xbc80e67f	-0.01573491
13	0x3d0d04e2	0.034428485
14	0x3d2e391a	0.042534925
15	0x3cb722b4	0.022355415
16	0xbc65664e	-0.014001442
17	0xbd8ca5c6	-0.06867556
18	0x3c4190eb	0.011814336
19	0x3c5addd5	0.013358553
20	0xbd00680f	-0.031349238
21	0x3e0a8ba2	0.13529828
22	0xbc3da4de	-0.011574952
23	0xbde83d0c	-0.11339769
24	0xbb90b2cd	-0.004415846
25	0x3bf5b137	0.0074979323
26	0xbb6dee28	-0.0036305282
27	0xbb0448fc	-0.0020185104
28	0xbca398b7	-0.019970281
29	0xbc25a679	-0.010110491
30	0x3c80a8d2	0.0157055
31	0x3cae8fe7	0.021308852
32	0x3b4159f8	0.0029503088
33	0xbb0c9805	-0.0021452915
34	0x3c876381	0.01652694
35	0x3c4bf498	0.012448452
36	0x3bcc0895	0.006226609
37	0x3bf866bf	0.0075806077
38	0xbd539560	-0.051656127
39	0x3e0c05f9	0.13674153
40	0x3c420486	0.011841899
41	0x3bffa913	0.0078021376
42	0xbdfc0189	-0.1230498
43	0x3d3ebf9f	0.046569463
44	0xbc237d9c	-0.009978678
45	0x3ca0cfe3	0.019630378
46	0x3aab5eaa	0.0013074477
47	0xbbefdab3	-0.007319772
48	0x3d841a10	0.064502835
49	0x3be2a0e0	0.0069161505
50	0x3af4961c	0.0018660459
51	0xbcac6b6a	-0.021047313
52	0x3cb864d9	0.022509025
53	0x3db26c35	0.08712045
54	0x3c863869	0.01638432
55	0xbdb5d6d8	-0.08878869
56	0x3b0a2771	0.0021080638
57	0xbc102d04	-0.008799795
58	0x3c472659	0.012155139
59	0x3d82a2f8	0.0637874
60	0xbbd3cf82	-0.006463946
61	0xbcd0e386	-0.025499117
62	0xbb02c5da	-0.0019954355
63	0xbc602af6	-0.013682118
64	0xbc97f486	-0.018549215
65	0x3c8b0eab	0.016974768
66	0x3d0adc5f	0.03390157
67	0x3c89fff9	0.01684569
68	0xbc1211d6	-0.008915385
69	0x3d2891c6	0.041154645
70	0x3c096042	0.008384766
71	0x3cb6f27b	0.02233242
72	0xbc33461c	-0.010942008
73	0x3d33364d	0.043752957
74	0xbc8491f4	-0.016182877
75	0xbcb33f56	-0.021880787
76	0x3d831306	0.06400113
77	0xbbd3bfa5	-0.006462055
78	0x3bfa87d9	0.007645589
79	0x3be533c4	0.0069946963
80	0xbba41ed8	-0.0050085597
81	0xbd680c05	-0.056652088
82	0x3d0d9da1	0.034574155
83	0x3d181714	0.037131384
84	0xbcf074b7	-0.029352529
85	0x3d6aada5	0.057294507
86	0xbc98fafc	-0.018674366
87	0xbe055183	-0.13019376
88	0x3c3b2188	0.011421569
89	0x3c86a4cf	0.016436009
90	0xbca199bf	-0.019726632
91	0x3e09cf8b	0.13458078
92	0xbc79594a	-0.015219042
93	0x3b6efc9e	0.003646649
94	0xbb141c10	-0.0022599734
95	0x3cc1f7d1	0.023677738
96	0x3cd1d752	0.025615368
97	0x3c56c85c	0.013109293
98	0xbc987446	-0.018610131
99	0x3cf5891f	0.029972611
100	0xbc4d0a51	-0.012514667
101	0x3cc536bd	0.024073953
102	0x3c381e44	0.011237685
103	0xbe9754b4	-0.2955681
104	0x3c367736	0.011136821
105	0xbcc5fd18	-0.024168536
106	0xbc82bc82	-0.015959028
107	0x3ce17753	0.027522719
108	0xbb9a6390	-0.004711576
109	0x3e26c4fd	0.16286083
110	0x3c524d7e	0.012835858
111	0x3cdb4725	0.026767323
112	0x3d32225d	0.043489803
113	0xbd462aca	-0.04838065
114	0x3d3b96e0	0.045798182
115	0x3c6d5d96	0.014487645
116	0xbcb4dbae	-0.022077408
117	0x3e21a4bd	0.15785499
118	0xbae4d1c8	-0.0017457539
119	0x3ea3b3e3	0.3197318
120	0xbb07e4f2	-0.0020735827
121	0x3c54533e	0.0129593
122	0x3adaa48c	0.0016681119
123	0xbe84dfee	-0.25952095
124	0xbc9a6612	-0.018847499
125	0x3d4067b6	0.046973906
126	0x3d1a2bac	0.037639305
127	0xbd0b433e	-0.033999674
128	0xba8dbf78	-0.0010814508
129	0xbcdb54eb	-0.02677389
130	0xba8ac518	-0.0010587303
131	0xbc42622a	-0.011864224
132	0xbcadcf78	-0.021217093
133	0xbba5aa84	-0.0050557274
134	0x3c210103	0.009826901
135	0x3c6c9e4d	0.014442039
136	0xbc2dd8b6	-0.01061075
137	0x3c765f2e	0.015037341
138	0x3df5467d	0.11976335
139	0x3d6fec71	0.058575097
140	0xbd2a36be	-0.041556112
141	0xbd31420e	-0.043275885
142	0x3c54543a	0.012959534
143	0x39b4fd28	0.00034520891
144	0x3d213e64	0.03936614
145	0x3cb9c275	0.022675732
146	0xbb02cc28	-0.0019958112
147	0xbc63acda	-0.0138961915
148	0x3bf16b04	0.0073674936
149	0x3e50492f	0.20340417
150	0xbc171919	-0.009222292
151	0x3e98c710	0.29839373
152	0x3b771b94	0.0037705647
153	0x3b00cde9	0.0019653982
154	0x3b75e9c2	0.0037523364
155	0x3e61f3fd	0.2206573
156	0x3c6cb197	0.014446638
157	0xbca8e51a	-0.020617057
158	0xbc3a90d4	-0.011387069
159	0x3c3b00fa	0.011413807
160	0x3c8f5b17	0.01749949
161	0xbbf0d54c	-0.0073496457
162	0xbb94d64c	-0.0045421477
163	0x39e56208	0.00043751323
164	0x3cb477af	0.022029726
165	0xbcb062ef	-0.02153155
166	0xbd2270e2	-0.039658435
167	0xbdf3ecb9	-0.11910386
168	0x3cb8cd0b	0.02255871
169	0xbd13bc61	-0.036068324
170	0xbd04e9a2	-0.032449372
171	0xbc725406	-0.014790541
172	0x3d8a1778	0.067427576
173	0xbc726099	-0.0147935385
174	0xbd69b7b3	-0.057059955
175	0xbcc68b80	-0.02423644
176	0xbcc52756	-0.024066608
177	0xbc2ddace	-0.010611249
178	0xbca459c8	-0.020062342
179	0x3ba2e7d0	0.004971482
180	0xbb91cbaf	-0.00444933
181	0x3d6918f3	0.05690856
182	0x3b04f586	0.0020287945
183	0x3e245e50	0.16051602
184	0x3c7398cd	0.0148679735
185	0x3b70ffda	0.0036773593
186	0xbc820443	-0.015871173
187	0xbdaac4e2	-0.08338334
188	0x3b1edeb8	0.0024241637
189	0xbb3cdf7c	-0.002881973
190	0xbc67defe	-0.014152287
191	0xbb8ebca4	-0.004355984
192	0x3cf175fa	0.0294752
193	0x3cb11f3b	0.021621337
194	0x3c3d9b51	0.011572675
195	0x3ca79fb6	0.020461898
196	0xbc748197	-0.014923475
197	0x3c16d311	0.009205596
198	0x3c130aa3	0.008974704
199	0xbe11da27	-0.14243375
200	0x3d5efaaf	0.05443829
201	0x3bb4db2b	0.005519291
202	0x3d8c9d8c	0.06865987
203	0x3d0eef95	0.034896452
204	0x3cd7f0c7	0.026359929
205	0x3d501194	0.050798014
206	0x3d75ed54	0.060040787
207	0x3d228265	0.039675135
208	0xbc24ea63	-0.010065648
209	0xbde6f7a9	-0.11277706
210	0x3d1e0aa6	0.038584374
211	0x3c1d85d0	0.009614423
212	0xbcf968de	-0.030445512
213	0xbd9f8137	-0.07788318
214	0x3c5b438b	0.013382803
215	0x3df155c1	0.117839344
216	0xbcc69b3c	-0.024243943
217	0x3c50d671	0.012746439
218	0xbc44e8c0	-0.012018383
219	0x3d56a7ff	0.052406307
220	0xbcda5bae	-0.026655044
221	0x3cc4dc84	0.024030931
222	0x3d1d5b68	0.03841725
223	0x3bda23e4	0.0066571105
224	0x3d267e40	0.040647745
225	0x3be71b87	0.007052842
226	0xbc94ec8a	-0.018179197
227	0xbcd69a44	-0.026196606
228	0xbc817c76	-0.015806418
229	0x3d167de2	0.036741145
230	0x3d242f9e	0.040084474
231	0xbd27759f	-0.040883657
232	0x3ce46307	0.027879251
233	0x3c53ff86	0.0129393395
234	0xbd5d91c2	-0.054094084
235	0xbcdc2cc9	-0.026876824
236	0x3d01b051	0.03166229
237	0x3cfd659b	0.030932238
238	0x39ec20b0	0.00045037782
239	0xbd321618	-0.0434781
240	0xba541e6c	-0.00080916914
241	0xbc4c2427	-0.012459791
242	0x3d57900d	0.052627612
243	0x3cbe688d	0.023243213
244	0xbcd84546	-0.02640022
245	0x3e0aa44c	0.13539237
246	0xba147da2	-0.00056644727
247	0xbd97ad34	-0.07406083
248	0x3bac7ed2	0.0052641416
249	0x3bbac4aa	0.0056997137
250	0x3c6b9b9f	0.014380365
251	0x3ddbd858	0.10734624
252	0x3c36d73d	0.011159715
253	0x3c6b9194	0.01437797
254	0xbd0fb997	-0.0350891
255	0xba9169f6	-0.0011094201

decoder_layer3.bias f4 [32]
0	0x3cdf48c4	0.027256377
1	0x3c5bcef4	0.013416041
2	0x3cefbe6b	0.029265603
3	0xbda24205	-0.079227485
4	0x3dc441d2	0.09582867
5	0xbd2ae9fe	-0.04172706
6	0xbd180794	-0.037116602
7	0x3b47ab8a	0.0030467235
8	0x3cd4dd8e	0.025984552
9	0x3d83f44d	0.06443081
10	0x3ddc30c9	0.107514925
11	0xbc980769	-0.018558221
12	0xbc15b237	-0.009136728
13	0x3db4e647	0.088329844
14	0xbc9fcdcf	-0.019507317
15	0x3d2198c4	0.03945233
16	0xbcfa05c0	-0.03052032
17	0xbccd1870	-0.025036067
18	0xbb891309	-0.0041831774
19	0xbc1f0523	-0.0097058145
20	0x3dc17ae6	0.09447269
21	0xbea268c0	-0.31720543
22	0xbc35c1ac	-0.011093538
23	0xbc465536	-0.012105277
24	0x3d4cc0cb	0.04998855
25	0x3c002b4a	0.007822821
26	0x3b65eac5	0.003508256
27	0xbd08b4a2	-0.03337539
28	0x3e02d7fb	0.12777703
29	0xbcd0003e	-0.02539074
30	0xbd4e2328	-0.050326496
31	0xbcc63286	-0.024194013
