vae/model_housing_24_jan.pt (torch, 363037 bytes, 75 tensors)

dof f4 [13]
2.6026638 0.4863302 3.4823895 0.9198383 3.813377 3.4190443 4.533465 4.728596
2.5643172 3.998849 3.8472373 0.83322537 4.196458
00000000: 0b92 2640 4600 f93e 78df 5e40 867a 6b3f
00000010: 5e0e 7440 9fd1 5a40 2512 9140 a950 9740
00000020: c61d 2440 24ed 7f40 2339 7640 424e 553f
00000030: 6249 8640

encoder_layer1.weight f4 [128, 13]
-0.041039802 -0.033490352 -0.062057737 -0.0045149177 0.06152476 0.08879981 -0.07544299 -0.0949366
-0.059893876 -0.047728494 -0.06263827 0.080718 0.036061145 -0.02385795 0.01316137 0.047734816
0.0036225603 0.006922561 0.0322394 0.002956914 -0.022501612 -0.033420738 -0.024480231 0.023231208
-0.028585747 0.010851041 0.037528124 -0.052267283 -0.022089569 0.017296925 -0.039500788 -0.008484785
-0.072317466 -0.03084771 -0.03621944 0.13467732 -0.06332503 0.018372158 -0.05426921 -0.013088749
0.007909686 -0.02740377 -0.009498347 0.1106238 0.0071574226 -0.038890745 -0.0338193 -0.19806752
0.14590651 -0.117317334 0.035128847 0.0308054 -0.064751014 0.021752253 0.048415113 -0.001999976
0.15257536 0.12093366 0.083284676 -0.02755886 -0.25132576 -0.01845322 -0.06911102 -0.082436234
0.0498406 0.044382386 0.042474974 0.07884633 0.013482737 0.042704564 -0.050516635 -0.124822445
-0.07207992 -0.053699248 0.0035356488 0.031492 0.0038397997 0.001814503 -0.022214862 0.061864033
-0.016834194 -0.0032858558 -0.060686998 -0.0073423595 0.07795935 -0.04123564 -0.039518192 0.046319503
0.09038749 -0.12889266 -0.017838988 -0.056191072 -0.057807088 -0.023006339 -0.032423582 -0.039354213
0.027683057 -0.0139879715 0.0127409 -0.009968663 0.030713586 -0.17731088 0.0041025593 0.13332132
0.012788968 -0.024716737 -0.04490421 0.02566438 -0.10520671 -0.04946983 -0.060199443 -0.02450869
0.15778995 -0.055341836 -0.014792834 0.07611353 -0.03007248 -0.029815786 0.0019112532 -0.0033015616
0.0006155892 0.10845133 -0.061253555 0.03511321 0.106241904 -0.1310496 0.073665634 0.006712803
-0.11896037 -0.010106403 -0.018246882 -0.040811773 -0.01622883 0.007856715 0.062547974 0.06802083
-0.06888588 0.059033357 -0.11958607 0.1316366 -0.0033557208 -0.09483548 0.012501722 0.0005700034
-0.030806405 0.002507684 -0.004768851 -0.0200251 0.04364363 -0.05848814 -0.032719944 0.0087282
0.012656369 -0.075841844 0.025617352 0.057075307 -0.003920091 -0.013749296 -0.016265607 0.023250328
-0.00930596 -0.019137595 -0.0419626 0.008442964 -0.0039777705 0.035073556 0.021919204 -0.024032481
-0.032541044 0.021324897 -0.05590327 -0.0050709574 0.00058495905 0.04890495 -0.073939964 -0.05163436
-0.058726255 -0.09201167 0.03134875 -0.052643854 0.037340946 -0.08174579 0.0027905602 -0.03746697
-0.08388761 -0.00877278 -0.05114101 -0.016507791 0.043586962 -0.026327016 0.07458169 -0.034658708
-0.067750834 -0.007928991 0.027141077 0.025355387 0.02130995 -0.013014181 -0.007865931 0.030038783
-0.11739129 0.05850794 -0.017738529 -0.04069326 0.08383698 -0.10355051 -0.003882981 -0.11667279
0.04284536 -0.07466817 -0.014263725 0.020147482 -0.040435754 -0.068170175 -0.080102324 -0.013265797
0.067563005 -0.003525344 -0.077945024 0.040746912 -0.013991832 -0.081865214 0.0014124417 0.08928687
0.02212222 0.022568751 -0.050689287 0.07312747 -0.027863093 -0.27634156 -0.000451598 -0.0076861936
-0.006033363 0.02787183 0.12862602 -0.07245656 -0.13553555 0.05415333 -0.13455838 -0.03461825
-0.059893396 -0.05942122 0.11388427 0.048030484 0.030909289 -0.023113977 -0.11026316 -0.012263949
0.035171 0.018632755 0.0055110306 0.076419845 0.007149049 0.047671378 0.027898466 -0.11319041
00000000: 5a19 28bd 2e2d 09bd 4130 7ebd e0f1 93bb
00000010: 6301 7c3d addc b53d db81 9abd 1f6e c2bd
00000020: 4853 75bd f47e 43bd 7e48 80bd 7b4f a53d
00000030: dab4 133d bf71 c3bc c9a2 573c 9585 433d
00000040: 7a68 6d3b a7d6 e23b 760d 043d c9c8 413b
00000050: 4d55 b8bc 2fe4 08bd c48a c8bc 604f be3c
00000060: a82c eabc 91c8 313c 17b7 193d 3816 56bd
00000070: 2ff5 b4bc 48b2 8d3c 94cb 21bd c503 0bbc
00000080: 2e1b 94bd 56b4 fcbc d65a 14bd dae8 093e
00000090: 8eb0 81bd 3581 963c 6449 5ebd 3172 56bc
000000a0: a197 013c df7d e0bc f49e 1bbc bb8e e23d
000000b0: d088 ea3b e74b 1fbd 1b86 0abd 36d2 4abe
000000c0: 8468 153e 1244 f0bd 44e3 0f3d 9b5b fc3c
000000d0: 2e9c 84bd c831 b23c ed4e 463d 0812 03bb
000000e0: b73c 1c3e 11ac f73d 2891 aa3d 1ec3 e1bc
000000f0: c5ad 80be 352b 97bc 148a 8dbd 54d4 a8bd
00000100: a825 4c3d 4eca 353d 3dfa 2d3d 2f7a a13d
00000110: b3e6 5c3c fbea 2e3d 88ea 4ebd e9a2 ffbd
00000120: a39e 93bd bef3 5bbd 58b6 673b c1fd 003d
00000130: 26a5 7b3b 9ed4 ed3a f1fb b5bc 2465 7d3d
00000140: dde7 89bc 8357 57bb ee92 78bd 2d98 f0bb
00000150: 27a9 9f3d b4e6 28bd d4dd 21bd 85b9 3d3d
00000160: 141d b93d 70fc 03be 1223 92bc 9c28 66bd
00000170: 20c7 6cbd ca77 bcbc 97ce 04bd e231 21bd
00000180: 94c7 e23c ce2d 65bc 35bf 503c 9a53 23bc
00000190: 0f9b fb3c fc90 35be c36e 863b 6285 083e
000001a0: d288 513c c17a cabc 7aed 37bd 1b3e d23c
000001b0: 9e76 d7bd e0a0 4abd b193 76bd 73c6 c8bc
000001c0: b093 213e 1fae 62bd a55d 72bc 69e1 9b3d
000001d0: 905a f6bc 3c40 f4bc 0483 fa3a 035f 58bb
000001e0: 7e5f 213a bb1b de3d 02e5 7abd dfd2 0f3d
000001f0: 5b95 d93d de31 06be 02de 963d 13f7 db3b
00000200: 7fa1 f3bd 5495 25bc 7c7a 95bc 3f2a 27bd
00000210: 53f2 84bc 73b9 003c 2719 803d 814e 8b3d
00000220: 0a14 8dbd f6cc 713d 8be9 f4bd bfcb 063e
00000230: a7eb 5bbb 1b39 c2bd 06d4 4c3c 486c 153a
00000240: b75d fcbc f557 243b 0644 9cbb ae0b a4bc
00000250: aac3 323d 4391 6fbd 5905 06bd b900 0f3c
00000260: a95c 4f3c f852 9bbd 7bdb d13c ccc7 693d
00000270: 1b74 80bb ba44 61bc 733f 85bc 7977 be3c
00000280: 0678 18bc 72c6 9cbc fae0 2bbd 5c54 0a3c
00000290: f557 82bb 4aa9 0f3d e78f b33c c4df c4bc
000002a0: c249 05bd 8db1 ae3c d4fa 64bd 462a a6bb
000002b0: f057 193a 8f50 483d d66d 97bd 8d7e 53bd
000002c0: f18a 70bd 9d70 bcbd 8c67 003d 15a1 57bd
000002d0: d2f2 183d 566a a7bd d5e1 363b f776 19bd
000002e0: 44cd abbd b5bb 0fbc 3c79 51bd 593b 87bc
000002f0: 3e88 323d c1ab d7bc 49be 983d 4af6 0dbd
00000300: f3c0 8abd 99e8 01bc f756 de3c 1ab6 cf3c
00000310: 3492 ae3c 6e39 55bc 1be0 00bc e513 f63c
00000320: d86a f0bd 06a6 6f3d 6450 91bc faad 26bd
00000330: b9b2 ab3d 4a12 d4bd 9c79 7ebb 25f2 eebd
00000340: 9e7e 2f3d a0eb 98bd 66b2 69bc 550c a53c
00000350: f69f 25bd ce9c 8bbd b00c a4bd c958 59bc
00000360: 795e 8a3d 7509 67bb a4a1 9fbd 3ce6 263d
00000370: ff3d 65bc f3a8 a7bd ae21 b93a 09dc b63d
00000380: a839 b53c 1ae2 b83c 929f 4fbd dbc3 953d
00000390: 2441 e4bc a47c 8dbe 75c4 ecb9 77dc fbbb
000003a0: 84b3 c5bb 7753 e43c 8ab6 033e 1b64 94bd
000003b0: d5c9 0abe e2cf 5d3d acc9 09be decb 0dbd
000003c0: c752 75bd aa63 73bd 283c e93d 9dbb 443d
000003d0: 7a35 fd3c 8659 bdbc a7d1 e1bd bbee 48bc
000003e0: 770f 103d b8a3 983c e095 b43b 0282 9c3d
000003f0: 9242 ea3b 1043 433d 538b e43c 60d0 e7bd

encoder_layer1.bias f4 [128]
0.019404244 -0.026472636 0.08824402 0.041292466 0.025558056 0.07896296 0.032036416 0.086549155
0.045356456 0.06954912 0.062409565 0.02973121 0.04863829 0.11320637 0.07129725 0.109299086
0.1202138 0.032481655 0.15317419 0.0011076152 0.033376858 0.13413475 0.09495341 0.2014287
0.03733063 0.11836987 -0.02197044 0.0008653311 0.09855874 0.13605359 0.10010947 0.10671133
0.0054254318 0.063401766 0.10118652 0.11075544 0.0816091 0.12953825 0.10360815 0.0381931
0.052703533 0.08052854 0.076610185 0.018818453 0.073981576 0.04219749 0.09983863 0.10832483
0.079803094 0.14451306 0.00371065 0.0313861 0.036789946 0.06401537 0.10821519 0.054967362
0.095871925 0.068339705 0.06819325 0.0057558 0.058455262 0.075954184 -0.02965578 0.113369875
0.061023984 0.068139166 0.04345628 -0.0022470795 0.044966754 -0.0031504796 0.02918004 0.09693534
0.124156296 -0.027353944 0.122569025 0.08115406 0.101131395 0.07039814 0.084317945 0.03735755
0.1787804 0.08810684 0.10781968 0.10255206 0.08191213 0.1439607 0.117386565 0.07242211
0.030929428 0.051427353 0.099270254 0.11628792 0.05398781 0.09144995 0.09770343 0.054677613
0.057630807 0.069558054 0.002267809 0.10922813 0.06544595 0.007489371 -0.04343769 0.019581396
0.057023287 0.112187244 0.019422522 -0.0114741465 0.079561554 0.05267583 0.117768355 0.024797563
0.11940685 0.056320697 0.05088876 0.07851595 0.03887676 0.045095265 0.12717733 0.06778743
0.102290705 0.09493122 0.054813452 0.09258712 0.078746274 0.09748785 0.06444548 0.07012234
00000000: a6f5 9e3c 24dd d8bc 48b9 b43d 4a22 293d
00000010: 215f d13c 55b7 a13d 9e38 033d af40 b13d
00000020: b1c7 393d c56f 8e3d 2ca1 7f3d de8e f33c
00000030: f238 473d bed8 e73d 4b04 923d 33d8 df3d
00000040: a732 f63d 7c0b 053d b2d9 1c3e 662d 913a
00000050: 2cb6 083d 9f5a 093e ef76 c23d 5343 4e3e
00000060: 01e8 183d e76b f23d 5afb b3bc 63d7 623a
00000070: 2ad9 c93d a251 0b3e 3206 cd3d 788b da3d
00000080: d2c7 b13b c9d8 813d e13a cf3d c0d3 e23d
00000090: ac22 a73d ada5 043e 8230 d43d 5e70 1c3d
000000a0: a9df 573d 26ec a43d cde5 9c3d 2829 9a3c
000000b0: a783 973d 46d7 2c3d 3278 cc3d 69d9 dd3d
000000c0: ce6f a33d 3bfb 133e 602e 733b b68e 003d
000000d0: 0eb1 163d 7e1a 833d ed9f dd3d 7525 613d
000000e0: 8058 c43d b0f5 8b3d e7a8 8b3d 269b bc3b
000000f0: c96e 6f3d de8d 9b3d aef0 f2bc 772e e83d
00000100: 49f4 793d 8c8c 8b3d 36ff 313d bd43 13bb
00000110: 0f2f 383d 4778 4ebb fb0a ef3c 0986 c63d
00000120: a845 fe3d 6115 e0bc 7805 fb3d 1a34 a63d
00000130: fa1d cf3d e62c 903d e3ae ac3d 3b04 193d
00000140: 3612 373e 5c71 b43d 90d0 dc3d d006 d23d
00000150: 8cc1 a73d 6f6a 133e 5e68 f03d 0b52 943d
00000160: b65f fd3c 7da5 523d 344e cb3d 5c28 ee3d
00000170: 5222 5d3d 1d4a bb3d bc18 c83d a2f5 5f3d
00000180: 480e 6c3d 7474 8e3d 859f 143b ffb2 df3d
00000190: 8708 863d 6669 f53b b8eb 31bd 2a69 a03c
000001a0: 4091 693d 6dc2 e53d fb1b 9f3c 0ffe 3bbc
000001b0: 2bf1 a23d 9cc2 573d 8930 f13d 4224 cb3c
000001c0: 948b f43d 88b0 663d bb70 503d f8cc a03d
000001d0: 3d3d 1f3d d0b5 383d c63a 023e 23d4 8a3d
000001e0: ca7d d13d 4d6b c23d 1284 603d 519e bd3d
000001f0: ba45 a13d b6a7 c73d fefb 833d 4d9c 8f3d

encoder_layer2.weight f4 [64, 128]
-0.049321584 -0.0039667636 0.025758933 -0.08484463 -0.15058246 -0.02291308 -0.0024072924 -0.030867226
0.057575487 -0.07577641 -0.041610494 0.00048895495 0.012794787 -0.041913122 0.027338514 -0.007965246
0.03915025 -0.16538584 0.11586933 -0.0510374 -0.16745485 0.070467494 0.092637174 -0.12702613
0.008432028 0.029614085 -0.23488241 0.18411914 0.052739434 0.750818 0.008055161 0.05288363
-0.06976726 -0.008539105 -0.05212036 0.5494385 0.048737157 0.3804676 0.027804123 0.009724396
-0.006888893 -0.00023179833 0.026385384 -0.17010765 0.15469438 0.17896919 -0.209417 -0.13818452
-0.015691627 -0.24790719 -0.16385844 0.028898912 0.0016203094 0.07197225 0.03403042 -0.17317984
0.013432849 -0.08774564 0.0027521905 -0.15765685 0.022862542 -0.098037235 -0.14985776 0.027335715
-0.0068680597 -0.3169191 0.017720236 -0.15388547 -0.066564 -0.12364673 -0.023778103 0.023243263
0.05549948 -0.17920715 -0.0681653 -0.014778213 -0.023508823 0.03865796 0.002390113 -0.006601028
-0.20803219 -0.057020143 0.12095613 0.023409622 -0.046381634 0.00041147508 -0.28435695 0.0017710507
-0.006516186 0.004102078 -0.15462944 0.040688194 -0.03557596 0.031436756 -0.027765827 -0.012883587
-0.00074659404 0.090975516 -0.2206829 0.21101429 0.013464961 -0.12792136 -0.13415158 0.032354873
0.014218884 0.042991593 -0.048104413 -0.014245588 -0.1986372 0.0006487911 0.015722228 -0.007526635
0.06874068 0.7504103 0.12643637 -0.10404439 -0.035584837 -0.0023664944 0.018142018 -0.009747659
0.108161524 0.056558445 0.043905724 -0.0061927373 -0.10770312 -0.02694714 0.015537198 0.042929705
0.051485464 0.035236068 -0.00741596 -0.021686606 -0.03105255 -0.040350247 0.023955794 -0.0040164525
0.019289384 -0.0034826857 0.0022113218 0.017868483 -0.0069677597 -0.0069741644 -0.0007125631 0.047151797
-0.037101295 -0.012285078 -0.007921291 -0.06114197 0.0040991064 -0.008874908 -0.010176011 0.009599895
0.016522042 0.0015335209 0.006416233 -0.035358924 -0.025920909 0.013196752 -0.03914617 0.012251196
-0.11916614 -0.0045565963 -0.0022614766 0.017816553 0.0038851926 0.10304255 0.026697798 -0.009493414
0.040719654 0.014443309 -0.012986737 0.0182972 -0.023591792 0.03365793 -0.038658295 -0.05565773
0.0018289676 0.016245257 0.05413581 0.03202062 0.013408029 0.0033173265 -0.0023813946 0.02185952
-0.011395001 -0.05828408 0.005592678 -0.016654488 0.04204334 0.003170868 0.035361607 -0.014129999
-0.037956618 -0.04250315 0.0051659523 0.042299658 -0.01242153 -0.13300619 0.085897595 -0.0024915815
-0.003109351 0.014563642 -0.023423363 -0.005331133 -0.008437893 -0.00013465136 -0.010197873 0.022514392
0.057049643 0.03594721 0.015539942 0.002236147 -0.016191479 -0.01772274 -0.06169744 0.027387446
0.028536946 0.029902272 -0.039308816 -0.0127222175 -0.04891968 -0.011362762 -0.008797965 0.0085265655
-0.0053458083 0.016400283 0.034792192 0.05702615 -0.0046862788 0.04647534 0.11192141 0.025140066
0.0029650603 -0.013286329 -0.042497292 0.0836977 0.004287641 -0.063372806 -0.0033284742 0.017785206
-0.0052820956 -0.06215307 0.01756114 0.0002325578 -0.092815824 -0.014574551 -0.007305469 -0.03666049
-0.011247248 -0.033592634 -0.025780302 -0.0028648938 0.031117368 -0.028396359 -0.011441066 -0.020628823
00000000: 6e05 4abd a0fb 81bb 6604 d33c 05c3 adbd
00000010: 4a32 1abe 36b4 bbbc aac3 1dbb 44dd fcbc
00000020: 46d4 6b3d aa30 9bbd c46f 2abd 362d 003a
00000030: 3aa1 513c 18ad 2bbd 05f5 df3c aa80 02bc
00000040: 035c 203d e85a 29be e64c ed3d 980c 51bd
00000050: 4979 2bbe 4351 903d 8fb8 bd3d 2313 02be
00000060: 7d26 0a3c 3d99 f23c 0485 70be ba89 3c3e
00000070: 4e05 583d 9c35 403f cbf9 033c 819c 583d
00000080: 23e2 8ebd 9ae7 0bbc 297c 55bd 00a8 0c3f
00000090: 9da0 473d a6cc c23e 79c5 e33c 1353 1f3c
000000a0: 39bc e1bb e40e 73b9 2926 d83c b330 2ebe
000000b0: 3468 1e3e b343 373e 6971 56be 3e80 0dbe
000000c0: ba8b 80bc 62db 7dbe 82ca 27be 69bd ec3c
000000d0: 9060 d43a 3066 933d 7b63 0b3d 0e56 31be
000000e0: 7415 5c3c fcb3 b3bd 185e 343b cc70 21be
000000f0: 3a4a bb3c bfc7 c8bd 5074 19be 26ef df3c
00000100: 760d e1bb 3843 a2be 072a 913c 2794 1dbe
00000110: b552 88bd 7f3a fdbd 4cca c2bc a868 be3c
00000120: 6c53 633d 1482 37be 409a 8bbd 5120 72bc
00000130: 9395 c0bc cf57 1e3d 71a3 1c3b 704d d8bb
00000140: 6406 55be f48d 69bd d9b7 f73d 89c5 bf3c
00000150: abfa 3dbd 40bb d739 3c97 91be 9a22 e83a
00000160: bb85 d5bb b96a 863b 2e57 1ebe aaa8 263d
00000170: 19b8 11bd d4c3 003d 2975 e3bc ae15 53bc
00000180: 14b7 43ba 5f51 ba3d b3fa 61be 2114 583e
00000190: 249c 5c3c d1fd 02be 085f 09be 8b86 043d
000001a0: 52f6 683c f417 303d 2209 45bd 5466 69bc
000001b0: 8d67 4bbe a213 2a3a e7cb 803c fea1 f6bb
000001c0: eac7 8c3d e41a 403f 8978 013e 3a15 d5bd
000001d0: 68c1 11bd 3017 1bbb 929e 943c a5b4 1fbc
000001e0: ca83 dd3d d4a9 673d 7dd6 333d 72ec cabb
000001f0: 7493 dcbd 40c0 dcbc bb8f 7e3c 0fd7 2f3d
00000200: 6ce2 523d b253 103d 9501 f3bb 1ca8 b1bc
00000210: eb61 febc 4d46 25bd f13e c43c 729c 83bb
00000220: c504 9e3c c53d 64bb d3eb 103b ed60 923c
00000230: ce51 e4bb 8887 e4bb 4dcb 3aba 3e22 413d
00000240: 87f7 17bd 5a47 49bc 4dc8 01bc 0170 7abd
00000250: cc51 863b 1068 11bc 49b9 26bc e148 1d3c
00000260: 3c59 873c 6c00 c93a 433f d23b 85d4 10bd
00000270: 1658 d4bc 3137 583c bc57 20bd 3eb9 483c
00000280: 610d f4bd 804f 95bb 4835 14bb 05f4 913c
00000290: b79e 7e3b f907 d33d 57b5 da3c 448a 1bbc
000002a0: a7c9 263d a1a3 6c3c 53c6 54bc 02e4 953c
000002b0: 9343 c1bc e6dc 093d 2958 1ebd 5cf9 63bd
000002c0: f8b9 ef3a c614 853c 83bd 5d3d 0e28 033d
000002d0: 5aad 5b3c 8167 593b 2c11 1cbb bc12 b33c
000002e0: 19b2 3abc 4abb 6ebd c942 b73b fe6e 88bc
000002f0: a335 2c3d 56ce 4f3b 55d7 103d 8381 67bc
00000300: 6678 1bbd c817 2ebd 2647 a93b 6842 2d3d
00000310: ac83 4bbc c632 08be 14eb af3d cd49 23bb
00000320: 41c6 4bbb 589c 6e3c 5ae2 bfbc c9b0 aebb
00000330: 173f 0abc 3331 0db9 fb14 27bc 1a70 b83c
00000340: e3ac 693d 623d 133d 3e9b 7e3c 528c 123b
00000350: fea3 84bc 482f 91bc 74b6 7cbd a35b e03c
00000360: 50c6 e93c 9cf5 f43c 4802 21bd d970 50bc
00000370: 0160 48bd e12a 3abc 5725 10bc 02b3 0b3c
00000380: e42b afbb e359 863c 4282 0e3d 4194 693d
00000390: 5b8f 99bb ed5c 3e3d 0d37 e53d 8af2 cd3c
000003a0: 7551 423b e7ae 59bc a411 2ebd b369 ab3d
000003b0: 577f 8c3b 9ac9 81bd 8822 5abb 48b2 913c
000003c0: 6e15 adbb 3894 7ebd 61dc 8f3c c2da 7339
000003d0: 3916 bebd 19ca 6ebc b762 efbb 4f29 16bd
000003e0: 6146 38bc 6e98 09bd 3631 d3bc f1c0 3bbb
000003f0: dae9 fe3c 7b9f e8bc 4f73 3bbc c7fd a8bc

encoder_layer2.bias f4 [64]
-0.25293913 0.009676345 0.02029921 0.0048208707 0.011605195 0.042822115 0.02842797 -0.00074362714
0.0002581685 0.00204441 0.010345447 0.02811139 0.01740191 -0.016624274 0.0015570432 -0.0045549544
0.037180413 0.011863194 -0.0026706255 0.008685862 0.0034914273 0.025934191 0.048676565 0.013554134
0.0043204497 0.043078594 0.02922728 0.011172056 0.020651752 0.030125279 0.025781753 -0.0038422747
0.0074562626 0.03329448 -0.03868553 0.010438921 0.03214416 0.012338105 0.008271133 -0.015598699
0.051726174 0.02182318 0.05946139 0.03101146 -0.0057698307 0.028939882 -0.0059895045 0.0129342545
0.024193868 -0.01014962 -0.00052154 0.041483406 0.01854073 0.028704086 -0.010664741 0.0003448489
0.0019097027 0.021543007 0.0056628054 0.024660947 0.024323205 0.010372196 -0.001747586 0.007941278
00000000: 3d81 81be 8889 1e3c 874a a63c 65f8 9d3b
00000010: b723 3e3c 3e66 2f3d c6e1 e83c f9ef 42ba
00000020: ca5a 8739 82fb 053b f37f 293c dc49 e63c
00000030: 738e 8e3c a12f 88bc b315 cc3a ba41 95bb
00000040: 7d4a 183d d85d 423c a905 2fbb 254f 0e3c
00000050: 6ed0 643b f173 d43c 1461 473d 2912 5e3c
00000060: 8f92 8d3b 2e73 303d 0c6e ef3c 000b 373c
00000070: dd2d a93c 4ac9 f63c 4134 d33c acce 7bbb
00000080: aa53 f43b cb5f 083d b874 1ebd 0208 2b3c
00000090: 98a9 033d c325 4a3c a583 073c b091 7fbc
000000a0: d3de 533d 87c6 b23c c98d 733d bf0b fe3c
000000b0: d910 bdbb 5513 ed3c 9b43 c4bb 32ea 533c
000000c0: 3832 c63c 974a 26bc f5b7 08ba 81ea 293d
000000d0: bbe2 973c d524 eb3c 2abb 2ebc d6cc b439
000000e0: fd4e fa3a f67a b03c 0e8f b93b c105 ca3c
000000f0: 7541 c73c 25f0 293c 410f e5ba 221c 023c

encoder_layer3.weight f4 [32, 64]
-0.05659516 -0.06223208 -0.04086307 0.014454392 0.009696085 0.003362015 0.090090625 -0.009260655
-0.023365991 0.06019127 -0.062887944 -0.04325677 0.017888255 -0.009275559 -0.070449725 -0.0040366217
0.07073101 0.02045601 0.028227309 0.15764067 0.010509598 0.012542189 0.0357802 -0.016622264
0.042672977 0.008423012 -0.0069627096 0.04200575 0.0075189644 -0.039873935 0.01585272 0.021761706
0.004823694 0.004768333 -0.08070916 -0.010369204 -0.11622327 0.0027641593 -0.060065325 -0.09592466
-0.059217375 0.008825807 0.20476112 -0.03981864 -0.07467932 0.07766838 0.016253805 -0.012110299
0.065391935 0.015074876 -0.08623623 0.007199275 0.08854246 0.060438752 0.006277688 0.0052639837
-0.06567152 0.035239603 0.010976361 -0.02345486 0.017379493 -0.01753992 0.054414015 -0.04987647
0.030220333 0.11338215 -0.043098897 0.03249337 0.01845658 0.05373164 0.0008416642 0.07006924
0.0043033864 0.01984367 -0.11867526 0.0411352 0.023864392 0.07083114 0.02321537 0.030416802
0.025306849 -0.031674 0.06515841 -0.040653598 0.03383908 0.09919322 0.019400975 -0.055670325
-0.019291751 0.062291913 -0.0154367415 -0.01608767 0.03518685 -0.0057144794 0.007143162 0.0018473709
-0.064665064 -0.0953227 0.03144514 0.023998167 -0.016195863 0.084023744 0.008267529 -0.14067313
0.07778078 -0.0860035 -0.064400546 -0.03851349 -0.015065583 0.019321531 -0.032471433 0.032016616
-0.022670347 0.045802604 -0.010858109 -0.08666346 -0.12383456 0.08604697 0.040908165 -0.008362507
-0.021541197 0.061054874 0.013036913 -0.059793178 0.004087571 0.036001027 -0.11541093 -0.06395758
-0.020442452 -0.055447135 0.026093077 0.015892023 0.02002443 0.041877523 -0.043916833 -0.005165229
-0.0028668945 -0.050348278 0.05775416 -0.0051570055 0.022659302 -0.044219874 -0.15826559 0.020452589
-0.044896178 0.021661727 -0.012228151 0.04321958 -0.07491269 -0.022385066 0.07413548 -0.010839191
-0.012097204 -0.066805035 -0.025623213 -0.0057937247 0.00036147065 0.00056431186 -0.023475185 -0.004898316
-0.038983084 0.016123878 -0.07125256 -0.0088968305 -0.05889837 -0.0014698158 0.029668901 -0.06722571
-0.13959855 0.04106288 0.07103041 -0.014580251 -0.018102657 -0.021600282 0.020206057 0.03142386
0.019597402 -0.032684695 -0.10005306 -0.037545513 0.045270957 -0.04333935 -0.028122496 0.008715053
0.038530488 0.08336662 0.0047470476 0.011585205 -0.021352801 0.006603323 0.004939305 -0.015639845
-0.010115669 -0.096333705 0.03724767 -0.093601905 0.20146888 0.059616446 0.04861121 -0.022383915
0.015793862 -0.09891881 -0.12574099 -0.066371456 -0.020442383 -0.072434925 -0.06461378 -0.12658799
-0.043483686 0.04472966 -0.060546193 -0.11768043 0.054164484 0.10212088 0.021242816 -0.0061272234
-0.021474306 0.035029493 -0.05012159 -0.06988026 -0.09264729 -0.04034511 0.023364022 -0.018954296
0.1382512 0.10802993 -0.12414462 -0.0029220888 -0.24774183 -0.10175082 -0.101489566 0.1497529
0.083151355 0.004692543 0.02902424 0.05464891 0.025012303 -0.048937414 0.040504392 -0.03282813
0.13856249 -0.021406103 -0.18513109 0.09175855 -0.026050147 0.0043141698 -0.0048306487 0.0021157216
0.15723126 0.025845192 0.13635413 -0.1424005 -0.012647433 0.037284285 0.037481166 -0.11688887
00000000: 54d0 67bd 11e7 7ebd 0960 27bd 1dd2 6c3c
00000010: 54dc 1e3c 4055 5c3b 6f81 b83d 01ba 17bc
00000020: 096a bfbc 1f8b 763d 65cb 80bd 032e 31bd
00000030: 648a 923c 84f8 17bc f247 90bd a345 84bb
00000040: 6bdb 903d 5d93 a73c f53c e73c 8e6c 213e
00000050: 7330 2c3c c17d 4d3c 428e 123d 6a2b 88bc
00000060: dcc9 2e3d ac00 0a3c 7127 e4bb 390e 2c3d
00000070: a561 f63b da52 23bd 90dd 813c 9b45 b23c
00000080: 1410 9e3b ad3f 9c3b d84a a5bd 98e3 29bc
00000090: 7706 eebd e626 353b 0f07 76bd 2674 c4bd
000000a0: eb8d 72bd 1e9a 103c e6ac 513e df18 23bd
000000b0: 79f1 98bd 9a10 9f3d b326 853c 476a 46bc
000000c0: 35ec 853d 9dfc 763c 9f9c b0bd e5e7 eb3b
000000d0: c055 b53d a08e 773d 10b5 cd3b 7f7d ac3b
000000e0: ca7e 86bd 6757 103d 32d6 333c 6824 c0bc
000000f0: 705f 8e3c e1af 8fbc 3be1 5e3d 454b 4cbd
00000100: a290 f73c e734 e83d 7888 30bd c517 053d
00000110: 4132 973c b515 5c3d 21a3 5c3a 7680 8f3d
00000120: 6c03 8d3b 318f a23c 040c f3bd 627d 283d
00000130: 427f c33c eb0f 913d 292e be3c a82c f93c
00000140: 4f50 cf3c 99bc 01bd c671 853d 6384 26bd
00000150: d99a 0a3d d125 cb3d cbee 9e3c 9106 64bd
00000160: bc09 9ebc ce25 7f3d 63ea 7cbc 4aca 83bc
00000170: 1620 103d 8740 bbbb 3011 ea3b 7b23 f23a
00000180: 1e6f 84bd 8c38 c3bd 9ecc 003d ce97 c43c
00000190: 30ad 84bc a414 ac3d 8874 073c 9e0c 10be
000001a0: 884b 9f3d 9a22 b0bd 6fe4 83bd 52c0 1dbd
000001b0: a3d5 76bc 3048 9e3c c400 05bd db23 033d
000001c0: 2ab7 b9bc 839b 3b3d 36e6 31bc 9d7c b1bd
000001d0: f99c fdbd 6539 b03d 528f 273d e602 09bc
000001e0: 2a77 b0bc ad14 7a3d c798 553c b1e9 74bd
000001f0: 08f1 853b d075 133d 915c ecbd 31fc 82bd
00000200: ee76 a7bc 891c 63bd 26c1 d53c fd2f 823c
00000210: 460a a43c c487 2b3d 23e2 33bd 1541 a9bb
00000220: 82e2 3bbb ff39 4ebd a08f 6c3d 19fc a8bb
00000230: 00a0 b93c e61f 35bd 6010 22be 308c a73c
00000240: 0ee5 37bd ef73 b13c 9558 48bc 0407 313d
00000250: d36b 99bd e360 b7bc 58d4 973d dd96 31bc
00000260: 5a33 46bc 14d1 88bd c6e7 d1bc 49d9 bdbb
00000270: c583 bd39 54ee 133a 084f c0bc 0e82 a0bb
00000280: baac 1fbd 3916 843c ddec 91bd 03c4 11bc
00000290: 6b3f 71bd d6a6 c0ba 320c f33c a2ad 89bd
000002a0: ecf2 0ebe 8d31 283d 6478 913d 01e2 6ebc
000002b0: 064c 94bc 13f3 b0bc 2c87 a53c 4eb6 003d
000002c0: bb8a a03c 63e0 05bd 9ee8 ccbd 53c9 19bd
000002d0: 0a6e 393d 9a84 31bd 2661 e6bc 95c9 0e3c
000002e0: 25d2 1d3d 1ebc aa3d 1f8d 9b3b dfcf 3d3c
000002f0: 12ec aebc b060 d83b e5d9 a13b 221f 80bc
00000300: 31bc 25bc 9b4a c5bd 0391 183d 5bb2 bfbd
00000310: dc4d 4e3e 6030 743d 8c1c 473d 795e b7bc
00000320: 2162 813c f295 cabd 3fc2 00be c2ed 87bd
00000330: c976 a7bc c358 94bd 3b54 84bd 48a0 01be
00000340: f31b 32bd 7336 373d 49ff 77bd 7002 f1bd
00000350: 94db 5d3d c024 d13d 6a05 ae3c e0c6 c8bb
00000360: e2ea afbc 167b 0f3d 4c4c 4dbd 621d 8fbd
00000370: ddbd bdbd ea40 25bd e865 bf3c 0a46 9bbc
00000380: b991 0d3e cc3e dd3d 893f febd 8480 3fbb
00000390: 09b0 7dbe bc62 d0bd c3d9 cfbd d358 193e
000003a0: 424b aa3d e7c3 993b 3ec4 ed3c 89d7 5f3d
000003b0: 9ae6 cc3c 9972 48bd efe7 253d ca76 06bd
000003c0: 53e3 0d3e da5b afbc 0193 3dbe e8eb bb3d
000003d0: 1e67 d5bc e15d 8d3b 6b4a 9ebb eba7 0a3b
000003e0: 3b01 213e 4cb9 d33c 6ba0 0b3e 70d1 11be
000003f0: 2e37 4fbc 68b7 183d da85 193d 6f63 efbd

encoder_layer3.bias f4 [32]
-0.025601517 0.022119334 -0.010234415 -0.013715713 0.010217016 0.003322137 0.0056354604 0.019472243
0.54105824 -0.012260264 -0.007725881 0.06502754 0.14173442 0.052314498 -0.003397619 0.04324677
0.07384099 0.096694395 0.08250937 -0.15320785 -0.026364401 0.00421771 0.069956124 0.012971322
-0.12513246 0.09313868 0.015460573 0.010595298 0.44444087 0.022925153 0.006656451 0.015558935
00000000: 46ba d1bc 9b33 b53c 3fae 27bc dfb7 60bc
00000010: 4565 273c 36b8 593b aba9 b83b 4184 9f3c
00000020: cb82 0a3f 46df 48bc 6329 fdbb 292d 853d
00000030: d422 113e ba47 563d 96aa 5ebb 8623 313d
00000040: f239 973d b607 c63d acfa a83d 85e2 1cbe
00000050: 28fa d7bc b734 8a3b 2845 8f3d ab85 543c
00000060: b922 00be 7ebf be3d 584e 7d3c e797 2d3c
00000070: c18d e33e 88cd bb3c 5c1e da3b e7ea 7e3c

encoder_layer_mu.weight f4 [2, 32]
0.0009377048 -0.0013606586 0.0003845917 0.002618116 -0.0037921548 0.0010212656 0.0047028176 -0.005359441
0.001380092 -0.026082082 -0.0042033116 -0.030025817 -0.22523938 -0.0147619685 0.0066394466 -0.01317547
-0.032788653 0.013043414 -0.053291976 0.0005637069 0.004599952 0.0038624716 -0.050806623 -0.00015411132
0.0040676016 -0.0236996 -0.005689591 -0.0017548886 -0.0054173176 -0.0025873012 -0.0014337298 0.01973584
0.0032180033 -0.0017269888 0.001022514 0.0031147224 0.003809263 0.005216667 0.0042455373 -0.005364909
0.0090901805 -0.0066020247 0.0017217201 -0.008855423 -0.12712361 -0.009395785 -0.010641517 -0.00789033
-0.0685355 0.0023349985 -0.01808435 0.0037197806 0.003767856 0.00029489573 -0.04178258 0.0003726591
0.089392856 -0.007732208 -0.0016280061 -0.0004105226 -0.002386221 0.0025929431 -0.0019618939 -0.011056764
00000000: 4ed0 753a 2058 b2ba 06a3 c939 b394 2b3b
00000010: cd85 78bb fddb 853a 181a 9a3b 409e afbb
00000020: 34e4 b43a 17aa d5bc efbb 89bb b4f8 f5bc
00000030: 27a5 66be 2fdc 71bc b78f d93b eddd 57bc
00000040: 654d 06bd 0bb4 553c b048 5abd bbc5 133a
00000050: 32bb 963b 8521 7d3b 9b1a 50bd f198 21b9
00000060: 8449 853b aa25 c2bc c06f babb 4a04 e6ba
00000070: c183 b1bb b68f 29bb fdeb bbba 0ead a13c
00000080: 23e5 523b 215c e2ba e005 863a 5f20 4c3b
00000090: d4a4 793b 93f0 aa3b 261e 8b3b 1ecc afbb
000000a0: fbee 143c cc55 d8bb 57ab e13a 5616 11bc
000000b0: b12c 02be c7f0 19bc c259 2ebc 7146 01bc
000000c0: 575c 8cbd c606 193b a125 94bc 90c7 733b
000000d0: 22ee 763b 3c9c 9a39 3624 2bbd 7561 c339
000000e0: 9a13 b73d 765e fdbb d262 d5ba 693b d7b9
000000f0: 2562 1cbb 5eee 293b 1e93 00bb 6e27 35bc

encoder_layer_mu.bias f4 [2]
0.038791835 0.039421298
00000000: 30e4 1e3d 3a78 213d

encoder_layer_sigma_square.weight f4 [2, 32]
0.20721921 -0.04921904 0.035264548 0.11330565 0.07753271 0.018561767 0.018760808 -0.076321796
-3.0364537 -0.035710193 0.37072706 -0.30556297 -0.9967284 -0.3969804 -0.06819469 0.015436122
0.6117031 -1.1415955 -0.5737338 1.295206 0.3927937 -0.0016032018 0.5270125 -0.0020521372
1.0995483 0.66569823 -0.0022358624 -0.01601725 -2.7170875 0.044522684 -0.008017895 -0.44260702
0.19174144 -0.06715182 0.029945392 0.08637396 0.030052058 0.00043973362 -0.013456071 -0.106808074
-2.9833891 -0.09928718 0.39156413 -0.30213055 -1.0182115 -0.32200757 -0.0026120602 -0.051894747
0.5355404 -1.1370475 -0.5920597 1.4585825 0.3658918 -0.04903866 0.51931465 -0.006407924
1.1696643 0.58104926 0.0011814554 0.001355662 -2.7650506 0.021965811 -0.061624024 -0.4949415
00000000: 4631 543e e799 49bd 8f71 103d cb0c e83d
00000010: 78c9 9e3d d90e 983c 44b0 993c 9a4e 9cbd
00000020: 4255 42c0 da44 12bd f0cf bd3e c072 9cbe
00000030: 9829 7fbf 0441 cbbe a8a9 8bbd cae7 7c3c
00000040: 9398 1c3f cd1f 92bf 38e0 12bf 4fc9 a53f
00000050: 411c c93e 8722 d2ba 4bea 063f 267d 06bb
00000060: 00be 8c3f 336b 2a3f 8c87 12bb 9c36 83bc
00000070: c3e4 2dc0 6b5d 363d 7d5d 03bc 639d e2be
00000080: de57 443e e586 89bd 0a50 f53c d5e4 b03d
00000090: bc2f f63c 0c8c e639 da76 5cbc 31be dabd
000000a0: d9ef 3ec0 1457 cbbd 187b c83e dbb0 9abe
000000b0: c154 82bf 2dde a4be 192f 2bbb 968f 54bd
000000c0: 2d19 093f c68a 91bf 3991 17bf d5b2 ba3f
000000d0: 2c56 bb3e c3dc 48bd cef1 043f 90f9 d1bb
000000e0: 8fb7 953f a5bf 143f 11db 9a3a 78b0 b13a
000000f0: 97f6 30c0 a5f1 b33c 7969 7cbd f968 fdbe

encoder_layer_sigma_square.bias f4 [2]
-2.0262973 -2.1217916
00000000: dbae 01c0 6fcb 07c0

decoder_layer1.weight f4 [32, 2]
0.09291713 -0.012647247 0.0036637972 -0.004696533 0.32292938 -0.008487137 0.009402631 0.035500653
0.01666502 0.036957424 -0.14436279 -0.043471426 0.0014640694 0.017157132 2.7607615 1.4422699
-0.011578699 -0.013867632 -0.40151635 2.7323997 -0.008365543 -0.01627498 0.0023905197 -0.008823526
0.00041352416 0.00043660338 0.00022206097 0.008306953 0.0022550721 0.009270932 -3.8545055e-05 0.00065186113
-0.126555 -0.022780262 0.02881416 -0.0455764 -0.00044119384 3.1045538e-06 -0.6637287 1.0335771
-0.0064572585 -0.0078112446 0.013217536 0.04227299 0.010221934 0.0379904 0.74328876 -3.5218697
0.013272161 0.0009863928 0.0031445199 0.00683171 -0.010673467 0.002485193 0.0004150147 0.00011445328
-3.0526457 0.094027564 -0.0031957556 -0.0043143006 -0.00014857615 0.00014424472 0.009990006 0.00986183
00000000: 564b be3d 6636 4fbc 511c 703b 60e5 99bb
00000010: 0057 a53e a20d 0bbc 7e0d 1a3c 2269 113d
00000020: 1485 883c ab60 173d d7d3 13be 180f 32bd
00000030: 04e6 bf3a 1d8d 8c3c 51b0 3040 4d9c b83f
00000040: 95b4 3dbc 1035 63bc 8d93 cdbe a3df 2e40
00000050: a10f 09bc 1b53 85bc 44aa 1c3b 8d90 10bc
00000060: 46ce d839 eae7 e439 0ad9 6839 e319 083c
00000070: d5c9 133b 1be5 173c 70ab 21b8 a9e1 2a3a
00000080: a297 01be ac9d babc ac0b ec3c 52ae 3abd
00000090: 0950 e7b9 d457 5036 20ea 29bf 414c 843f
000000a0: 6997 d3bb 78f5 ffbb 5d8e 583c 7126 2d3d
000000b0: e679 273c d29b 1b3d 2c48 3e3f 5066 61c0
000000c0: 7a73 593c da49 813a 4a14 4e3b 8adc df3b
000000d0: c4df 2ebc 9fde 223b 5596 d939 a306 f038
000000e0: 8c5e 43c0 8691 c03d e26f 51bb fa5e 8dbb
000000f0: 1bcb 1bb9 6640 1739 1fad 233c 8393 213c

decoder_layer1.bias f4 [32]
-0.00015587008 -0.0017530784 -0.001919917 0.0013602691 2.8500363e-05 0.0017044537 0.0016852848 -0.08106934
0.0015394371 -0.051435884 -0.00011127614 0.00800077 -1.7216758e-05 0.006032928 0.005212993 0.01096876
0.0015528424 -0.00030158373 -0.0025410033 -0.012245756 -0.006491374 0.00069563923 0.00026625404 -0.10125221
-0.00018167819 0.00022239995 -0.00024889316 0.00027311785 -0.08093343 0.0049414793 0.00024622682 0.0022089854
00000000: 0e71 23b9 8dc7 e5ba b9a5 fbba 0f4b b23a
00000010: 1014 ef37 fa67 df3a c6e4 dc3a af07 a6bd
00000020: f0c6 c93a 6fae 52bd ec5c e9b8 a915 033c
00000030: b56c 90b7 deaf c53b c1d1 aa3b 50b6 333c
00000040: bf88 cb3a e21d 9eb9 f686 26bb 6ca2 48bc
00000050: 98b5 d4bb 8f5b 363a 0398 8b39 525d cfbd
00000060: de80 3eb9 0834 6939 e07d 82b9 4231 8f39
00000070: 6dc0 a5bd 22ec a13b 0118 8139 a0c4 103b

decoder_layer2.weight f4 [32, 32]
-0.046688046 -0.0040986696 0.018880622 0.031699434 0.03630518 0.03075427 0.022895198 -0.63582575
0.014182201 -0.38083252 0.0065400586 0.037037235 -0.0020389762 0.014680527 0.013360135 0.044510607
0.0022023506 -0.08071391 -0.017227378 -0.17317186 0.00746226 0.04196267 0.046607163 -0.64369977
-0.013768746 -0.016952712 -0.043144833 0.0005263648 -0.6154531 0.023599789 0.0011184147 -0.016470727
-0.01461807 0.0120555805 -0.042687673 0.002727112 -0.0035748275 -0.034170795 -0.010221938 -0.033885095
-0.002792495 0.0054018004 -0.02550807 0.00032326044 0.00016814891 -0.011247971 -0.004586123 -0.0066896332
-0.074335024 -0.0119114965 0.019592922 -0.022624148 -0.0005334406 -0.0020080497 -0.003939807 -0.010942952
-0.0022368464 0.00016947203 -0.0037498637 -0.00054657465 -0.007790504 -0.0024986805 -0.0004222823 -0.007741615
0.058562025 0.031830784 0.20034724 -0.015740464 -0.019488083 -0.03924097 -0.030343361 -1.1404358
-0.07884406 -0.8735305 -0.08097376 0.012532252 0.006746016 -0.02150609 -0.03503402 0.015020554
-0.011557558 -0.13704766 -0.024924397 -0.14895874 0.01835319 -0.017061446 -0.04135284 -1.2365872
0.029729731 -0.00091650535 0.013349584 0.007006263 -1.11467 -0.009524612 0.0009952175 -0.032356806
-0.008110841 0.027559403 0.025664771 -0.0614179 -0.05649915 -0.008970631 -0.053470567 -0.01126288
-0.011432126 -0.010378612 -0.0025469009 -0.013031167 -7.026539e-05 -0.046322238 -0.021509618 0.0010529825
-0.008073346 -0.029934043 -0.009033955 0.009799428 0.01257692 -0.063469484 -0.06048612 -0.0123627735
0.0045449636 -0.010295724 0.022268107 8.14642e-05 -0.01253374 -0.022424744 -0.00047023437 -0.017784188
-0.013686197 -0.01792781 -0.06339462 0.004143386 0.011977734 -0.009540642 0.013615998 -0.0039128256
-0.022938518 -0.029105414 -0.010025032 0.0043815454 -0.0011599977 0.029351475 0.006342984 -0.011522534
-0.01763618 -0.031032331 0.00060649076 0.0434754 -0.0030666194 0.007185912 0.01028158 -0.005538698
-0.007082828 0.00055659347 0.008578817 5.140152e-05 -0.0068265223 0.01148267 0.00070419884 -0.02098981
0.0030658394 -0.005909126 0.04851019 -0.053483333 -0.061671138 0.11083335 -0.028411828 -0.021927776
0.034986377 0.027585775 0.04378509 -0.016551033 -0.0003614406 -0.023954574 -0.00806125 -0.028212806
0.06263121 0.06695315 0.012336229 0.020068273 0.0038724868 -0.06999937 -0.05853156 0.0075567514
6.0670274e-05 0.0038983526 0.03762864 -0.00014300697 -0.015978023 -0.006494736 0.0006326499 0.021465428
0.094287194 -0.022790274 0.078965835 0.01039286 0.0015949768 0.04243737 0.020881766 -0.9053928
0.03196038 -0.6702497 -0.0040807948 0.029691977 0.00013660302 0.028985808 0.03163332 0.021646332
-0.02547578 0.14469746 0.0024384642 0.06427253 -0.037234023 0.002730662 0.009631619 -0.9594212
0.0018842142 0.0070853177 0.015527874 0.0024756682 -0.9359817 0.020692876 0.003367818 0.06452126
-0.007787561 0.005380256 -0.031183 0.016678385 0.008149646 -0.06475828 0.0044037825 0.018057782
-0.027819833 -0.0038503017 -7.240119e-05 -0.0005326316 0.00014724447 -0.00968855 -0.00977159 -0.00020548314
-0.021906206 -0.0742103 -0.010176291 -0.03468569 0.0086807795 0.017068895 0.00841984 -0.011148476
0.0008791518 -0.01034154 -0.013846945 6.658403e-05 0.0099221775 -0.0066904607 -0.00015872876 -0.013224012
00000000: f73b 3fbd 224e 86bb 89ab 9a3c 44d7 013d
00000010: beb4 143d 61f0 fb3c b68e bb3c 7ac5 22bf
00000020: 765c 683c 7bfc c2be fd4d d63b 5bb4 173d
00000030: 58a0 05bb 9886 703c 78e4 5a3c c150 363d
00000040: 5055 103b 564d a5bd 6e20 8dbc f753 31be
00000050: f985 f43b 0ce1 2b3d 27e7 3e3d 82c9 24bf
00000060: 4e96 61bc 6ae0 8abc a3b8 30bd befb 093a
00000070: 568e 1dbf 5854 c13c c597 923a 9eed 86bc
00000080: a180 6fbc c584 453c 45d9 2ebd 59b9 323b
00000090: a747 6abb adf6 0bbd ea79 27bc 19cb 0abd
000000a0: 4b02 37bb 9601 b13b 4df6 d0bc 487b a939
000000b0: 2151 3039 6949 38bc 3047 96bb b634 dbbb
000000c0: f63c 98bd 7028 43bc 5681 a03c 4756 b9bc
000000d0: 98d6 0bba 7c99 03bb 7f19 81bb 114a 33bc
000000e0: 0e98 12bb 4db4 3139 46c0 75bb 0148 0fba
000000f0: 7c47 ffbb e7c0 23bb c565 ddb9 60ad fdbb
00000100: bcde 6f3d ff60 023d d427 4d3e 25f2 80bc
00000110: 79a5 9fbc 24bb 20bd a492 f8bc cdf9 91bf
00000120: ff78 a1bd b29f 5fbf 92d5 a5bd 1354 4d3c
00000130: af0d dd3b 8a2d b0bc d57f 0fbd c518 763c
00000140: e95b 3dbc 3956 0cbe 402e ccbc a488 18be
00000150: 6e59 963c 72c4 8bbc 9861 29bd 7d48 9ebf
00000160: c48b f33c a241 70ba 37b8 5a3c cb94 e53b
00000170: 82ad 8ebf 1e0d 1cbc f571 823a 9288 04bd
00000180: 55e3 04bc 42c4 e13c ed3e d23c 5691 7bbd
00000190: a76b 67bd 8ef9 12bc f403 5bbd f187 38bc
000001a0: d04d 3bbc 0e0b 2abc e8e9 26bb ad80 55bc
000001b0: 725b 93b8 63bc 3dbd f034 b0bc 3b04 8a3a
000001c0: 1146 04bc 3d38 f5bc 2703 14bc c88d 203c
000001d0: 6d0f 4e3c 4afc 81bd 4bc0 77bd 3b8d 4abc
000001e0: ebed 943b 65af 28bc 9b6b b63c c2d7 aa38
000001f0: 515a 4dbc 19b4 b7bc ca89 f6b9 25b0 91bc
00000200: 123c 60bc 58dd 92bc 0ad5 81bd 3ec5 873b
00000210: 423e 443c 5a50 1cbc a315 5f3c 2937 80bb
00000220: 8fe9 bbbc 7a6e eebc 0840 24bc 1193 8f3b
00000230: 100b 98ba 8172 f03c ced8 cf3b 03c9 3cbc
00000240: c079 90bc 8437 febc e8fc 1e3a 4313 323d
00000250: 56f9 48bb cd77 eb3b 1274 283c f77d b5bb
00000260: 1117 e8bb 5be8 113a 2b8e 0c3c f697 5738
00000270: 05b1 dfbb cf21 3c3c fc99 383a d2f2 abbc
00000280: 40ec 483b 57a1 c1bb 9fb2 463d 5711 5bbd
00000290: e09a 7cbd 98fc e23d ecbf e8bc e1a1 b3bc
000002a0: e04d 0f3d 90fb e13c ff57 333d 0896 87bc
000002b0: bc7f bdb9 623c c4bc 5513 04bc 8b1e e7bc
000002c0: cb44 803d bc1e 893d e51d 4a3c 3866 a43c
000002d0: 8cc9 7d3b d45b 8fbd cabe 6fbd a09e f73b
000002e0: 3678 7e38 817b 7f3b 7d20 1a3d 24f4 15b9
000002f0: 58e4 82bc cbd1 d4bb 6bd8 253a 44d8 af3c
00000300: a519 c13d abb2 babc d7b8 a13d d046 2a3c
00000310: 8a0e d13a cfd2 2d3d 3d10 ab3c d3c7 67bf
00000320: e3e8 023d 7c95 2bbf 30b8 85bb 973c f33c
00000330: 183d 0f39 a573 ed3c f191 013d a653 b13c
00000340: 95b2 d0bc 922b 143e a4ce 1f3b 51a1 833d
00000350: b482 18bd e8f4 323b f0cd 1d3c a19c 75bf
00000360: bdf7 f63a f42b e83b a068 7e3c d23e 223b
00000370: 7f9c 6fbf 1b84 a93c 9cb6 5c3b b923 843d
00000380: cc2e ffbb dc4c b03b 7e73 ffbc 1ca1 883c
00000390: 1886 053c fd9f 84bd 9b4d 903b eaed 933c
000003a0: 6be6 e3bc 5855 7cbb 18d6 97b8 4da0 0bba
000003b0: a365 1a39 b9bc 1ebc 0519 20bc f676 57b9
000003c0: a574 b3bc 92fb 97bd 75ba 26bc 9512 0ebd
000003d0: d439 0e3c 11d4 8b3c 5ef3 093c 19a8 36bc
000003e0: e176 663a 906f 29bc 4cde 62bc 07a3 8b38
000003f0: a190 223c a73b dbbb 6d70 26b9 87a9 58bc

decoder_layer2.bias f4 [32]
-0.093249604 0.0013042195 -0.09979897 0.008864948 0.0016699152 -0.0011039401 -0.17494799 -0.0016488913
0.005113542 0.0005407743 -0.00029472093 -0.12317684 -0.008972301 -0.0025126052 0.004546585 -0.0061918986
0.0060060043 -0.007124788 0.0020352395 0.0011246456 -0.0035170955 0.0033905236 -0.0035526925 0.0047092894
-0.0014420255 0.0029968696 -0.0014745567 -0.004012884 -0.088402025 -0.13078922 -0.0018572104 0.0016796535
00000000: a6f9 bebd 58f2 aa3a 6763 ccbd 493e 113c
00000010: 0ee1 da3a 15b2 90ba 9125 33be 9c1f d8ba
00000020: 808f a73b c0c2 0d3a c684 9ab9 2444 fcbd
00000030: 8f00 13bc 85aa 24bb 85fb 943b 69e5 cabb
00000040: 04ce c43b 0e77 e9bb a761 053b d868 933a
00000050: 127f 66bb 8c33 5e3b 4ad4 68bb 6250 9a3b
00000060: 5902 bdba 2167 443b ea45 c1ba 837e 83bb
00000070: 1f0c b5bd 9ced 05be a46d f3ba d227 dc3a

decoder_layer3.weight f4 [32, 32]
0.08216513 -0.05644857 0.038781814 -0.03070026 0.0010424631 0.0034595176 -0.019161623 -0.052107953
-0.017525146 -0.00013921072 0.012602982 0.019603789 0.002071677 -0.0061813854 0.0018531462 -0.021760838
0.008839363 -0.028622977 0.014304993 -0.0033011276 -0.00029925618 0.004349136 -0.008619278 -0.06571071
0.009313056 -0.029228969 0.032345798 0.017313093 -0.07867993 0.020247523 -0.03906437 0.007154316
-0.015396803 -0.011913639 -0.033841994 -0.02105882 -0.01234723 -0.034697514 0.003411276 0.044961337
0.01031944 -0.015405545 -0.0079390295 0.04848316 -0.027186664 -0.030602666 0.015256882 0.005346363
-0.011192623 0.00597872 0.0047508115 -0.07622832 -0.017175118 0.017893625 -0.01989561 -0.031763047
-0.024611533 0.019856872 -0.02581873 0.040896595 -0.06843439 0.13063516 0.028089672 0.020143613
-0.013387807 0.053124554 0.016160993 0.010060587 0.010214292 0.031094832 -0.06514228 -0.00968298
0.0048788968 0.018426288 0.02973284 0.027610378 0.050408527 -0.00080333673 0.008146659 -0.027445769
0.027760198 0.09865008 -0.02282903 -0.052754145 0.029877705 0.002366883 0.0061822054 0.048030373
0.06548307 0.013469069 0.007995509 -0.027774543 0.058031145 -0.07249811 -0.026664153 -0.00272192
0.046423815 0.054456655 0.0064787203 0.05818717 0.02749347 -0.024774794 0.021911012 0.017174201
0.01581138 0.041634515 0.002341794 -0.06813269 0.0143865775 -0.0169154 0.013673436 -0.022056947
0.019785307 -0.007816466 0.0011830246 -0.011989561 0.018813383 -0.009901438 -0.010320777 0.057371963
-0.0006810999 0.034775905 0.0011539063 -0.025167502 -0.05279331 0.046236448 0.006105941 -0.03289897
-0.1222176 0.006866877 0.041994087 3.9417646e-05 0.027394583 0.04813187 0.08366952 0.004269865
-0.027400281 0.0019974448 0.007624031 0.038448084 0.017195042 0.023010898 -0.023283046 0.018417316
-0.026270062 0.029881395 0.023694878 0.018022466 0.12452345 -0.01644448 -0.025535366 0.012844112
0.005009949 -0.019355834 0.0034634557 0.0006667311 0.08769129 -0.21584204 0.00073060114 -0.012902742
-0.043484412 0.058596853 -0.050752517 0.023141481 0.046090722 0.023709254 0.01412428 -0.0065192794
-0.004950055 0.016358675 -0.030616496 -0.018760705 0.0043679094 -0.024927517 -0.05110673 -0.010635629
-0.004072198 -0.08329746 -0.014666128 0.013634883 0.015723236 -0.04808004 -0.0133881355 0.06808301
-0.021703888 0.00035164302 0.029613655 -0.047110423 0.02348298 0.064439766 -0.015907766 -0.006611535
-0.11055521 0.06364599 -0.054870717 0.05499263 0.013728327 -0.0030570552 -9.774226e-05 -0.022083089
0.025574895 0.010688984 -0.018696945 0.041346718 -0.014248112 -0.028364703 -0.013822117 -0.045332827
0.022774922 -0.036519274 0.006143448 0.047251012 0.03661454 -0.010690639 -0.006089382 0.03938992
-0.00975422 -0.006405125 -0.015069389 -0.044520833 0.08050485 0.00038768814 0.004377909 -0.004031948
-0.072405584 0.0062792734 0.017937787 -0.0019342785 -0.008742746 0.022375034 0.06376167 -0.018173147
0.05002989 -0.013155786 0.036270183 0.13878594 -0.012505196 0.019554906 0.03791127 -0.044935733
0.006605037 0.008394738 0.004552961 -0.028274545 0.02330958 0.032759387 -0.028208535 0.014245912
-0.007044515 -0.0068554906 -0.02738617 -0.01043234 -0.0230658 -0.13251665 -0.040674943 0.031194847
00000000: 3146 a83d 9e36 67bd aed9 1e3d 1d7f fbbc
00000010: 42a3 883a 13b9 623b d6f8 9cbc 266f 55bd
00000020: e590 8fbc 18f9 11b9 bd7c 4e3c 2098 a03c
00000030: f9c4 073b 388d cabb 45e5 f23a c943 b2bc
00000040: fad2 103c bc7a eabc 7d5f 6a3c bb57 58bb
00000050: 7ce5 9cb9 3283 8e3b df37 0dbc 5693 86bd
00000060: ca95 183c 9771 efbc 077d 043d 30d4 8d3c
00000070: f122 a1bd 22de a53c f601 20bd c16e ea3b
00000080: df42 7cbc 6c31 43bc e79d 0abd 8c83 acbc
00000090: 094c 4abc fb1e 0ebd b78f 5f3b 6129 383d
000000a0: de12 293c 8a67 7cbc b412 02bc 4796 463d
000000b0: 91b6 debc 71b2 fabc 00f8 793c 8b30 af3b
000000c0: 4361 37bc 23e9 c33b b2ac 9b3b 981d 9cbd
000000d0: d5b2 8cbc a795 923c 1efc a2bc f819 02bd
000000e0: 209e c9bc e1aa a23c cd81 d3bc 3083 273d
000000f0: 5427 8cbd 39c5 053e 501c e63c 3804 a53c
00000100: 8858 5bbc 2299 593d 0f64 843c 29d5 243c
00000110: d959 273c 97ba fe3c 5169 85bd 5da5 1ebc
00000120: 27df 9f3b baf2 963c 4992 f33c 292f e23c
00000130: 2c79 4e3d 0497 52ba 9079 053c f3d5 e0bc
00000140: 5b69 e33c 0e09 ca3d f203 bbbc bb14 58bd
00000150: 17c2 f43c b51d 1b3b 1994 ca3b 7fbb 443d
00000160: fd1b 863d 5fad 5c3c 98ff 023c 7087 e3bc
00000170: 11b2 6d3d e479 94bd c86e dabc 3d62 32bb
00000180: e626 3e3d f10d 5f3d 724b d43b ac55 6e3d
00000190: fc39 e13c 82f4 cabc b97e b33c e9b0 8c3c
000001a0: de86 813c f488 2a3d c978 193b 2789 8bbd
000001b0: aeb5 6b3c 2a92 8abc 8c06 603c c5b0 b4bc
000001c0: cc14 a23c a210 00bc b80f 9b3a dd6f 44bc
000001d0: 861e 9a3c a439 22bc 7a18 29bc ddfe 6a3d
000001e0: d78b 32ba 2e71 0e3d ac3e 973a 142c cebc
000001f0: cc3d 58bd 6e62 3d3d 5814 c83b 12c1 06bd
00000200: 394d fabd 8a03 e13b fe01 2c3d 6054 2538
00000210: 9b6a e03c ec25 453d ed5a ab3d 39ea 8b3b
00000220: 8e76 e0bc 90e7 023b 02d3 f93b bd7b 1d3d
00000230: 9edc 8c3c 5a81 bc3c 16bc bebc e9df 963c
00000240: 5034 d7bc d4c9 f43c c31b c23c daa3 933c
00000250: 2706 ff3d 93b6 86bc 8b2f d1bc 1c70 523c
00000260: 802a a43b 2090 9ebc 25fb 623b 91c7 2e3a
00000270: 7e97 b33d b205 5dbe d085 3f3a 0666 53bc
00000280: b61c 32bd 4103 703d dfe1 4fbd 3493 bd3c
00000290: a0c9 3c3d e939 c23c 8669 673c ae9f d5bb
000002a0: 1234 a2bb a102 863c 72cf fabc 0db0 99bc
000002b0: ae20 8f3b cb34 ccbc 4a55 51bd 1041 2ebc
000002c0: 1370 85bb dc97 aabd 334a 70bc d864 5f3c
000002d0: 04ce 803c 93ef 44bd e959 5bbc 1b6f 8b3d
000002e0: 5acc b1bc ba5c b839 5698 f23c dcf6 40bd
000002f0: 615f c03c fff8 833d 0151 82bc 93a5 d8bb
00000300: c56a e2bd d458 823d 1ec0 60bd f43f 613d
00000310: c7ec 603c e058 48bb fafa ccb8 98e7 b4bc
00000320: 7182 d13c d920 2f3c 562a 99bc 2d5b 293d
00000330: ea70 69bc 185d e8bc 2976 62bc eaae 39bd
00000340: 7992 ba3c 3c95 15bd fa4e c93b 478a 413d
00000350: 21f9 153d ca27 2fbc 7089 c7bb 5357 213d
00000360: 2ad0 1fbc 15e2 d1bb 99e5 76bc 7a5b 36bd
00000370: badf a43d 9f42 cb39 9074 8f3b 6e1e 84bb
00000380: 6149 94bd 5dc2 cd3b 44f2 923c 9e87 fdba
00000390: bc3d 0fbc d94b b73c 7a95 823d dadf 94bc
000003a0: 24ec 4c3d 5e8b 57bc 0b90 143d e71d 0e3e
000003b0: 98e2 4cbc 9c31 a03c d948 1b3d 880e 38bd
000003c0: 116f d83b 158a 093c 0131 953b 05a0 e7bc
000003d0: bbf3 be3c b52e 063d 9615 e7bc b067 693c
000003e0: add5 e6bb 06a4 e0bb f658 e0bc 68ec 2abc
000003f0: 7df4 bcbc 72b2 07be c59a 26bd 568c ff3c

decoder_layer3.bias f4 [32]
0.022723395 0.025953239 -0.010733636 0.021822639 -0.02783132 0.00090470514 -0.004620694 0.005804071
0.017603157 -0.026311355 0.035325024 0.024911998 0.009027003 0.17765318 0.040417343 0.076680005
0.0075620133 -0.033327613 0.031965923 0.014342753 -0.2987081 0.020219073 -0.011953013 0.0004181578
-0.020476457 0.0087044705 -0.00070552825 0.16391134 -0.02147451 0.014638465 -0.024792437 0.0097187115
00000000: 6a26 ba3c e39b d43c 22dc 2fbc 64c5 b23c
00000010: 82fe e3bc bc29 6d3a 3169 97bb 1430 be3b
00000020: 7f34 903c e98a d7bc f9b0 103d 3f14 cc3c
00000030: ffe5 133c b7ea 353e a88c 253d 680a 9d3d
00000040: c4ca f73b 8982 08bd b3ee 023d defd 6a3c
00000050: 45f0 98be 78a2 a53c 92d6 43bc 313c db39
00000060: 3ebe a7bc 329d 0e3c 33f3 38ba 60d8 273e
00000070: 50eb afbc 2cd6 6f3c 8219 cbbc 3b3b 1f3c
