ELDR-NEW/results/vae_models/Heart.pt (torch, 362183 bytes, 75 tensors)

dof f4 [13]
00000000: a382 0040 350c f13f dc0a 963f 077a fa3f
00000010: aaa9 fe3f 32f1 643f fbd5 0040 e73d fb3f
00000020: d889 e03f e80b ea3f afbb e63f c75a 1a3f
00000030: 7e19 273f
2.0079734 1.883185 1.1722064 1.956849 1.9895527 0.89430535 2.0130603 1.9628266
1.7542067 1.8284883 1.8026026 0.60294765 0.65273273

encoder_layer1.weight f4 [128, 13]
00000000: ed50 113d bbac bf3e df34 353c 6d75 b23d
00000010: d555 23bb 5c10 923e 9b4b dfbd f5e3 05be
00000020: f328 8d3d c9f7 173e 87a3 91be 5b89 963d
00000030: b742 52bd 4fcc b43b 606b 44bc 3cfe 02bd
00000040: d087 cdbb b320 c1bb 9c84 593c 8a2b d43b
00000050: ae0d bebb 29c5 02bd 2c64 193c c282 1ebc
00000060: 5374 143c f5f9 163b 871f 2dbc 30a4 afbc
00000070: 1863 4f3c 627d adbb 28d6 bbbb ed06 aabc
00000080: 1c8d b13a 7647 703c 561c 053d c1a1 c4bc
00000090: 3b86 723d 85af 4bbc e202 38bd 8dc9 48bd
000000a0: e718 a4be 1ea4 b63c 70f7 1e39 3a08 50bc
000000b0: 75da 7b3d 0212 a73d dc50 8d3d ffa3 71be
000000c0: 3aae 25bd 7ba4 513e f479 d73b 55de 09bd
000000d0: 1b91 2f3d 8989 1ebf 4199 003e 0963 103d
000000e0: bfe2 3b3d c35c 21bd 0067 8db9 8898 1c3d
000000f0: 105e 23bc 81c8 813d bea0 193d 96c2 2abc
00000100: 97ae 3dbd 278b 473c 54a0 56bc f8bd 42bd
00000110: 1d22 febb d3ea b4bb 866f 09bd 9578 4c3a
00000120: 9ca7 72bc 6b6f 71bd 2126 093d 3b4c 6bbd
00000130: a888 9c3a 44b5 b33c b8b5 4cbb a1bc e4bd
00000140: 781e b2bd 7573 90bc d345 37bc 8878 9bbd
00000150: 6316 563c 1420 30bd dc3e 2fbd 44bc 323c
00000160: 05b8 3f3d c486 46bc 2c78 a23c 3409 b13a
00000170: ec74 01bf 2d5e 8f3d c1b0 af3c 15e3 ac3c
00000180: 7f53 c1bd 0865 223d e57d 013c c8fb 94bd
00000190: a421 fa3c ee1f e83d 6f40 08ba 867d bc3a
000001a0: a800 cc39 f696 7ebb a748 ccbc 1e93 d1bb
000001b0: df3f 99bb ebda 52bc 0a4c 833b 6359 1bbc
000001c0: 80e4 99bc eae9 b33b 5477 e93b f7cc e13a
000001d0: 8cbb 95bb b3c9 5abc a89b 1b3b adf3 a53d
000001e0: caae d53c 5af0 823c 1108 083e 5766 96bc
000001f0: 6e9d 03bc a7f6 4b3e dea5 23bd b6be 5a3c
00000200: bd68 c93b 135d 09bd e883 28bc f666 afbd
00000210: 9e6d 5ebe ee87 3bbd 6349 0dbd 2e79 ecbd
00000220: b9ee 06bc c3c4 a83c 623c e93d 118b 26bd
00000230: eb72 d03d 610a 13bd 8081 0cbd c695 b83c
00000240: d461 a6bc 2a11 0ebe 902a 81bc ea45 aebc
00000250: 5695 bd3d 7543 733c e47e 6bbc 765c f7bd
00000260: 6a5f 863c 226a 59bc fa05 4a3d 8465 c53c
00000270: 5080 f13c 89c2 823e ed99 a0be 5a0b 65bd
00000280: 073b e0bb b492 4ebe 3a08 353d 447f bebc
00000290: 8c24 b33e b403 e3bc 5ad1 dd3d 7f1d 0fbd
000002a0: 3073 b0bc 6b1d f4bb 804f 0cbc 175f 5bbd
000002b0: 73f5 1fbc b5e5 2fbc e372 133d fcf9 2b3c
000002c0: 53bb 41bc eaad ebbc b353 f4bb da57 263d
000002d0: cc65 a53c cd1e b3bb 7ff6 48bd 5050 55bd
000002e0: f726 8f3d 469e a13c 1a90 b63b 7a45 a63e
000002f0: 3020 1d3c 07c8 14bc 27ea 473e 4281 0abe
00000300: 2275 513e b034 773d b8ca b5bd 9f2b 86bb
00000310: d9e7 b3bb 79ba 173b 220e 80bb acbf a939
00000320: 6cf6 95bd 6f75 18bc 5bb1 c33b 5f7e 31bc
00000330: 2027 ce3c dc7d 5fbd bed8 8fbc 0868 153b
00000340: e28a 4c3c 83c3 53bd 28a2 f6bd 5960 e3bc
00000350: db27 a7bc 7c67 cbbd 58c4 353a f9f4 18bd
00000360: aa4d 73bd 142c 123d 6f98 b8bc 7da5 4abc
00000370: 1263 063d 0d5c c4bd a3cf 10be 0c51 753e
00000380: b001 d4bc 5439 ae3c 8514 bfbe b68c 113e
00000390: 9065 243e f31d 38be df20 66be d1e9 d33e
000003a0: ccec 6bbe c946 77bc d86c 82bc 8bb4 ba3d
000003b0: d859 be3b b407 2ebd 34bf 4fbc c29c c7be
000003c0: 1d20 a23c 70fe e73c fd2a 2f3d a3d0 cc3c
000003d0: 86a0 4ebb 88d2 02be a7c4 0abd 2bdd 39bc
000003e0: 6fea 69bd e7a7 4bbc 089c 58bb 1c2c 81ba
000003f0: 2062 06bd 813e a3bb 048f ccbc 95d1 fa3b
0.035477567 0.3743647 0.011059969 0.087138034 -0.0024922986 0.28528106 -0.109030925 -0.1307524
0.06892576 0.14840616 -0.28445074 0.07350417 -0.051333155 0.0055175195 -0.011988491 -0.031980738
-0.0062722936 -0.0058937906 0.013276245 0.006474917 -0.0057999706 -0.031926308 0.009362262 -0.00967473
0.009060937 0.002303717 -0.010566599 -0.021440595 0.012657903 -0.005294488 -0.0057323165 -0.020755256
0.0013546082 0.014665475 0.032497726 -0.024002912 0.059210043 -0.012431984 -0.044924624 -0.04902034
-0.3205025 0.022295054 0.00015160232 -0.012697274 0.061487634 0.081577316 0.06900188 -0.23597716
-0.04044936 0.204729 0.0065758172 -0.033659298 0.042862993 -0.6192861 0.12558462 0.035250697
0.04587054 -0.039395105 -0.00026970357 0.038231403 -0.009971157 0.06337071 0.03750681 -0.010422369
-0.04630908 0.012179173 -0.013099749 -0.04754445 -0.0077555315 -0.0055211573 -0.033553623 0.00077999505
-0.014810469 -0.058944147 0.03348363 -0.057445746 0.0011942582 0.02193702 -0.0031236243 -0.111687906
-0.08697218 -0.01763318 -0.011186081 -0.07591349 0.013066861 -0.042999342 -0.042784557 0.010909144
0.046806354 -0.012117092 0.019832693 0.0013506771 -0.50569034 0.070003845 0.021446588 0.021104375
-0.09439754 0.039647132 0.007903551 -0.07274586 0.03053362 0.11334215 -0.00051975896 0.0014380671
0.000389104 -0.0038847304 -0.024936987 -0.0063957116 -0.0046768035 -0.012869577 0.0040068673 -0.009481761
-0.018785715 0.005490531 0.0071248207 0.0017227222 -0.0045694765 -0.013353753 0.0023743901 0.08103118
0.026084322 0.01598375 0.13284327 -0.018359346 -0.00803314 0.19918309 -0.039953105 0.013351133
0.006146519 -0.033536028 -0.010285355 -0.0856456 -0.21721503 -0.04578393 -0.034493815 -0.11546551
-0.008235627 0.020601636 0.1138847 -0.040659968 0.10178169 -0.03589857 -0.03430319 0.022532355
-0.02031032 -0.13873735 -0.015767366 -0.021273572 0.09256999 0.014847626 -0.014373515 -0.120781824
0.016402919 -0.013269933 0.049322106 0.024096258 0.02948013 0.25539044 -0.31367436 -0.05591903
-0.006842974 -0.2017315 0.0441973 -0.023254044 0.3498882 -0.027711727 0.10830946 -0.03494024
-0.0215393 -0.007449796 -0.008563876 -0.05355748 -0.0097631095 -0.010735919 0.035998236 0.010496613
-0.011824447 -0.028769452 -0.007456267 0.040611126 0.020190142 -0.005466318 -0.049063202 -0.052078545
0.06989854 0.019728791 0.0055713775 0.3247488 0.009590194 -0.009080893 0.19522916 -0.1352587
0.20454839 0.06035298 -0.08876556 -0.0040945555 -0.005490285 0.0023151918 -0.0039079348 0.00032377
-0.07322392 -0.009305342 0.00597207 -0.010833352 0.02516514 -0.05456339 -0.017559405 0.0022797603
0.012484284 -0.051700126 -0.120426476 -0.027755903 -0.020404747 -0.099318475 0.00069338595 -0.037343
-0.059400238 0.035686567 -0.022533624 -0.012368557 0.032809325 -0.0958787 -0.14141707 0.23956698
-0.02587971 0.02126757 -0.37320343 0.14213833 0.16054368 -0.17980175 -0.22473477 0.41389325
-0.2303955 -0.01509256 -0.015921041 0.09116467 0.00580905 -0.042487815 -0.012679864 -0.38986784
0.019790703 0.028319567 0.042765606 0.02500183 -0.0031528785 -0.12775624 -0.03387895 -0.011344234
-0.05710834 -0.012430168 -0.0033051986 -0.0009855065 -0.032808423 -0.0049818163 -0.024970539 0.0076543787

encoder_layer1.bias f4 [128]
00000000: 9f2f c2bd 054b d83c 9efd 1e3c c808 153e
00000010: 4313 803e c9e2 8c3d 1797 f83d 504d 523e
00000020: b244 bd3c 656b 53bd 0d56 f33d 3bac 403d
00000030: 49c4 143d b05d 443c c9e8 babd 9f4f 703d
00000040: ace9 fc3d 05ae 3d3e 7e28 053e b35f 943d
00000050: 424f 8a3d 4b8d 5b3d 7d33 503d e6ea fa3d
00000060: 2c5e 3fbc 89fc 803d 1263 a03d 99cf 113c
00000070: 623e a23c 0520 ea3c 772f 4a3e a10c ce3d
00000080: 012c 50bd 181f 12bd b9e3 acbb 4f5d f5bd
00000090: 9ff5 0c3a 682d 123d cb54 a03c 4b2e a73d
000000a0: 2b48 fc3c 5162 d73c 71a7 3f3e c9dc 813e
000000b0: 1476 da3d 1f63 d33c 72dc 273d b9c8 d63d
000000c0: 62e9 853d 10ea 8e3d 9e7d a03c 3d83 5c3c
000000d0: f1fb e93c f778 893c 2770 fe3d 91ed c83a
000000e0: af34 febc 1e4a 3f3e 53ab db3d de7e 8c3d
000000f0: abbf 673d 841d 7cbc abc4 06bd bbe0 653e
00000100: 0d5f 213e 8d5b 7dbd 2a9a 3bbd 519b 2b3d
00000110: c545 eebc 95d5 8e3c a220 413e cc61 843b
00000120: 14e0 f33d cebf 833d 981b 463d c426 503c
00000130: 7176 333e 71a4 663e 17d5 cb3d cea4 143e
00000140: 75ec c63c f0bd 3d3d 922e 603d 4287 19be
00000150: ca5f e3bc 12f3 7f3d 5517 e4bb 8b7d 533a
00000160: 5981 26ba e941 7c3d 5f6a e5bc b826 553e
00000170: 522c 0c3d 3030 9ebd 734c b43c 55fa 96bc
00000180: bf8c d83c d449 013e 4dd1 2abc 03c8 3fbd
00000190: fcc0 9a3c 0973 4c3d 2286 8a3d 7f72 af3d
000001a0: 18e8 ae3d 137d e53d bb7b 4e3e 7564 203a
000001b0: 0756 803d 5b1d 403d 19be 4639 f7c9 7cbd
000001c0: 8817 69bd bdf9 853d 4bbc 033d e86d 713d
000001d0: fe63 b13d 5b4f a8bd 4bef 093e da4c be3c
000001e0: 412a ad3d fe88 2e3c 5f41 cc3b 0c23 643d
000001f0: 2aee 433d 477b a3bc a01d c7bc c5da 3bbd
-0.09481739 0.02640296 0.009704022 0.14554131 0.25014696 0.06879193 0.12138193 0.20537305
0.023104046 -0.05161609 0.11881647 0.04703925 0.036320005 0.011985227 -0.091264315 0.058669683
0.12349257 0.18523414 0.13003728 0.07244816 0.067533985 0.053601544 0.050830353 0.122518346
-0.011680167 0.06298167 0.07831396 0.008899593 0.019805137 0.028579721 0.19744669 0.100610025
-0.050823215 -0.035674185 -0.00527617 -0.11980688 0.00053771766 0.035687834 0.019571682 0.081631266
0.030796131 0.026291998 0.18716218 0.25363758 0.10667053 0.0258041 0.040981717 0.104875036
0.06538655 0.06978238 0.019591149 0.013459024 0.028562518 0.016781313 0.12423735 0.0015329589
-0.03103098 0.18680617 0.10726037 0.068601355 0.056579273 -0.015387896 -0.0329024 0.22449009
0.15758915 -0.061854888 -0.04580132 0.04189617 -0.029086003 0.017435828 0.18860105 0.0040399786
0.11907974 0.06433068 0.04836616 0.012704555 0.1752565 0.22523667 0.09952753 0.14515993
0.024282673 0.046323717 0.054731913 -0.14993003 -0.027755637 0.06248767 -0.006960789 0.00080677186
-0.0006351672 0.061586294 -0.028004823 0.20815551 0.034221955 -0.07724035 0.02200911 -0.018429914
0.0264343 0.1262582 -0.010425878 -0.046821605 0.01889085 0.049914394 0.06763865 0.0856676
0.08540362 0.11205497 0.20164387 0.0006118485 0.062664084 0.046902996 0.00018953568 -0.061716046
-0.056907207 0.065417744 0.032161992 0.058942705 0.0866165 -0.08218261 0.1347019 0.023230005
0.08455325 0.010652779 0.006233379 0.055697486 0.047834553 -0.019956244 -0.024306118 -0.04586293

encoder_layer2.weight f4 [64, 128]
00000000: 07a2 033b a84b 1ab9 586b dab8 c34f da38
00000010: 5c0f 653a 3d73 44b9 a40c bbb9 02c4 1b39
00000020: 6a58 e1b8 447b 653a 2400 2fba 802e fbb8
00000030: 9be3 b1ba 0555 43b8 9992 ab3a 965f 56b9
00000040: 3c3b 08ba 1b33 23bb ba7f c6ba 8ff2 99b7
00000050: 218f 80b9 882f 99b9 f90a 143a d7cd ba3a
00000060: ba4f 153a 8acf 9ab9 0d32 ccb9 9c45 6eba
00000070: 3478 27b9 a53d 5ab9 34a3 a9b9 9f08 ebb9
00000080: 7cc6 7fba f8a8 efb8 c892 bdb9 f1d7 1d39
00000090: d879 5d39 718d a5ba 785c 3839 84ad b53a
000000a0: 2fa7 23b9 b0b7 7937 f75f 6f3b 6b40 a73a
000000b0: a03d 8dba a9f5 9eb9 ea2b a13a bbdc 02ba
000000c0: 8ce2 e13a 2139 82b9 872f 3c3a c120 5438
000000d0: 5d30 d1b8 e051 10b8 a429 efb9 6591 8039
000000e0: b171 2e39 241d d7b8 e4d1 20ba 09a8 8ab9
000000f0: bb89 91ba fa8d a4b9 a43d 963a 88a6 35ba
00000100: 58e4 47b7 c461 da37 e10b 003a 28cf 82b8
00000110: a611 2039 1516 8239 e8e8 31bb 8e25 d3b7
00000120: 094e 42ba c4d7 24b9 5f5b 33b9 0c78 70b7
00000130: ad11 243a 5cb6 67b9 817c 5bb9 070b 7f3a
00000140: ba20 87b8 36f5 0ab9 d8ca 4ab8 59a9 293b
00000150: b216 2eb9 bf78 2eb9 c478 01b9 86c3 b0b7
00000160: 14ce 9d38 592b deb8 f6a1 0b3a 5632 a039
00000170: 2e89 09b9 61cc 5d3b 17b4 12b8 42fc e339
00000180: 168f 4cb9 d490 bcba ce9e 103a 4a73 a739
00000190: 2469 89b8 a393 40ba c7e9 02ba 84d2 84b9
000001a0: 9dc3 1f39 5a28 2cba 88df 31b9 7877 a637
000001b0: 9c7f ce3a 7e6d 90b9 3c16 8e37 a389 d03a
000001c0: 327c 083a 321d c639 123e 30b9 45d5 30b9
000001d0: 1008 15ba b549 863a 5197 ea3a 7a4d a3b8
000001e0: 3dfc 583a 775a cd38 3c41 5938 f380 0a3b
000001f0: 3791 01b9 ea18 9ab9 36b7 b239 2445 4ab9
00000200: ffe7 b03d 342c a13b 7ced 02bb 5950 dabb
00000210: 258e c9bc bbdc d4bb ef03 8bbc 1d62 09bd
00000220: 10c2 23bb 46d0 d53c 9658 efbc ae61 753c
00000230: 387e 0abd b7f3 8a3b 67a0 713d a6c4 4fbc
00000240: c58f abbc 7ae9 b7bd 8581 8dbd 90d2 f4bb
00000250: 48b8 5fbc 570d 0f3c d05a e43c 62c7 f83c
00000260: b07e fd3c edc4 acbc 79bb 79bc 146b d9b9
00000270: 582c 213c ee99 8439 3e62 03bd 9827 8fbc
00000280: 4341 a3bc 9863 b03c 788e 41bc ffac 133d
00000290: 9b13 903c 4d01 26bd 653b d03b 0951 213d
000002a0: 01db 61bc 5a2a 353c 7d79 953d 4082 26bd
000002b0: 6a94 85bc a9c6 3dbc 2bcd dc3c db3c b1bc
000002c0: 4db8 893d fd0a 8bbc 8c2d 8d3c a426 fc3c
000002d0: 0e70 643c 7481 f93b 85f7 f1bc 1de4 8b3b
000002e0: f15f 223c 2dc9 3ebc 65fb 06bd 2a6c dabb
000002f0: 0758 19bd 9b9d 7ebc cb29 063d 2493 30bd
00000300: 049c e0bc 1fe1 2a3c 0c42 d93c aa02 a9bb
00000310: ee0c ba3a 6448 223c dcb0 e0bd 74ba 1f3c
00000320: 46d3 01bd 12b3 1abc e17b 56bc 81ff 66bb
00000330: cceb 80bc 44bf 3abd 3d76 59ba e05e a1bb
00000340: 8579 aa39 7db1 fcbb 5131 4a3c 2093 c73d
00000350: 9d1c dd3c 9856 5ebc 9dad f9bb 735d 923c
00000360: 1c2e 583b 22b0 e83a b581 c33a e913 f4bc
00000370: fe20 cbbb 8133 0b3e ab60 afbb aede 3e3d
00000380: ac65 6fbc 1b8e 8dbd 5805 383d df77 193d
00000390: b214 f43b d6a7 01bd a55e 02bd 4863 57bc
000003a0: 83b6 fa3c d571 41bd 188e e3bc 8297 2dbb
000003b0: abdd 1f3d cd09 40bc 394c 69ba ae0e a63d
000003c0: 55de da3c 7328 c53c c75a a03b bf83 febb
000003d0: 8c50 f8bc a3c1 353d 6aa0 b03c fd41 3ebb
000003e0: f834 5b3c 4f82 ea3b 86c5 16bc ef68 473d
000003f0: 6075 903c 2e1e 953b c1a4 263d 9fac ffbb
0.002008559 -0.00014714769 -0.000104150444 0.00010409907 0.00087379455 -0.00018734946 -0.00035676837 0.0001485497
-0.000107453045 0.0008754025 -0.0006675741 -0.00011977274 -0.001357186 -4.6570804e-05 0.0013089954 -0.00020444239
-0.0005196815 -0.0024902287 -0.0015144267 -1.8351971e-05 -0.00024520702 -0.00029217848 0.0005647387 0.0014252019
0.0005695779 -0.00029527798 -0.00038947203 -0.0009089352 -0.0001597114 -0.00020813064 -0.00032355788 -0.00044829116
-0.00097570545 -0.00011427881 -0.0003615825 0.00015053131 0.00021121593 -0.0012630654 0.00017582055 0.0013860916
-0.00015607172 1.4884325e-05 0.0036525705 0.0012760287 -0.0010775812 -0.0003031914 0.0012296413 -0.0004991998
0.0017233654 -0.00024838097 0.0007178713 5.0575243e-05 -9.974905e-05 -3.4408527e-05 -0.00045616657 0.0002452239
0.00016636286 -0.00010257427 -0.0006134792 -0.00026446607 -0.0011103669 -0.00031386298 0.0011462462 -0.0006929417
-1.191449e-05 2.603315e-05 0.00048845826 -6.237469e-05 0.00015265364 0.00024811985 -0.002714688 -2.5170648e-05
-0.0007412141 -0.00015720638 -0.00017104809 -1.4333065e-05 0.00062587374 -0.00022097811 -0.00020931849 0.0009729121
-6.4433974e-05 -0.00013252054 -4.8349466e-05 0.0025888293 -0.00016602388 -0.00016638915 -0.00012347387 -2.1071883e-05
7.5247284e-05 -0.00010593859 0.0005326563 0.0003055508 -0.00013116442 0.0033843743 -3.4976834e-05 0.0004348476
-0.0001950826 -0.0014386424 0.0005516828 0.0003193862 -6.552253e-05 -0.00073462183 -0.0004993942 -0.00025333848
0.00015236293 -0.0006567292 -0.00016963307 1.9844374e-05 0.0015754583 -0.00027547398 1.6938073e-05 0.001591016
0.0005206495 0.00037787255 -0.00016807791 -0.00016864117 -0.00056851003 0.0010245355 0.0017897879 -7.786877e-05
0.00082773325 9.792012e-05 5.1797586e-05 0.0021133989 -0.00012356495 -0.0002939173 0.00034087308 -0.00019289978
0.08638 0.0049185995 -0.0019977977 -0.00666241 -0.024603913 -0.0064960397 -0.01696965 -0.033540834
-0.0024987496 0.02610029 -0.029217046 0.014976902 -0.033811778 0.004240479 0.058990862 -0.012681162
-0.020942578 -0.08980079 -0.069094695 -0.00747139 -0.013654776 0.008731208 0.027875334 0.03036851
0.030944198 -0.021089995 -0.015242451 -0.00041469245 0.0098372325 0.00025291689 -0.032076113 -0.017474934
-0.01992858 0.021531865 -0.011813752 0.036053654 0.017587474 -0.040528584 0.0063547366 0.03938392
-0.013785125 0.011057461 0.07298563 -0.04065156 -0.01630612 -0.011583009 0.0269533 -0.021635463
0.06724606 -0.016973013 0.017233633 0.030780144 0.013942732 0.007614309 -0.029536972 0.0042691366
0.0099105695 -0.011644644 -0.032954592 -0.006665726 -0.037437465 -0.015540506 0.0327547 -0.043109074
-0.027418144 0.01042965 0.026520751 -0.0051577883 0.0014194527 0.009904955 -0.10971233 0.009749044
-0.031695627 -0.009442108 -0.0130910585 -0.0035247507 -0.015737437 -0.04559256 -0.0008295512 -0.00492464
0.00032515466 -0.007711588 0.0123408595 0.09744859 0.026991183 -0.01357045 -0.0076195733 0.017866826
0.0032986468 0.0017752687 0.0014915975 -0.02979465 -0.0061990013 0.13593866 -0.0053521 0.046599083
-0.014611643 -0.0691187 0.04492697 0.037467834 0.007448756 -0.0316542 -0.03182854 -0.013146229
0.030604606 -0.0472277 -0.027777717 -0.002648801 0.03902976 -0.011721087 -0.00088996027 0.08108269
0.026717344 0.02406714 0.004893634 -0.00776717 -0.030311845 0.04437412 0.021560866 -0.0029031031
0.013379328 0.0071566473 -0.009202367 0.048684057 0.017634094 0.004550717 0.040684465 -0.0078025605

encoder_layer2.bias f4 [64]
00000000: 01ed cc3b 1ba7 0ebd 7787 7d3c 6815 163c
00000010: 1561 23bc 5137 363d 8688 ffbc 80ea d33c
00000020: c064 df3d 2e3f e1bc e042 2c3d 4dc8 9f3c
00000030: 3224 d43d 7a28 183c 8a14 2abe 08f4 a73d
00000040: 0a53 f53c 7b42 3cbd 2d39 083e 9150 3cbe
00000050: 9466 66bd 795f 1c3e 4c66 ebbb 4d00 623c
00000060: 7e12 873c 7266 89bd b2b3 2f3d 3eac a9ba
00000070: 76b0 e43d 9cde 033d a575 673b 4696 513d
00000080: f5c0 d93c 1be1 a6be db60 313c 93ec 783a
00000090: 50cf 4d3b 19b5 c0b8 a028 23ba 6c70 be3d
000000a0: 2ece 3d3d dca5 843d 1aa1 5bbc 9e64 893c
000000b0: f4e9 f33b 0e8b 02bf 4fe4 9fba 19ae 2c3d
000000c0: 3941 61bd bff6 8d3d 1269 6cbe 5cef 1dbe
000000d0: 6c34 8d3d af74 773c 8f69 3dbe 011f c83c
000000e0: 6976 8abd 897c c53c 223a c7bd 9763 f23d
000000f0: 7671 ff3b cd7d adbc 00b9 44bd e0c0 073d
0.006253839 -0.034827333 0.015474192 0.009160377 -0.009971877 0.044486348 -0.03119303 0.025868654
0.109078884 -0.027495947 0.042055964 0.01950469 0.10358466 0.009286994 -0.16609398 0.08200842
0.029946823 -0.04596184 0.13303061 -0.18390109 -0.05625017 0.15270795 -0.0071838256 0.013794017
0.01648831 -0.06708993 0.04289598 -0.0012945009 0.1116647 0.03219472 0.0035317924 0.051168703
0.026581267 -0.32593617 0.010826315 0.00094957015 0.0031404085 -9.1890055e-05 -0.000622401 0.092987865
0.046339206 0.06476948 -0.013405109 0.01677161 0.007443661 -0.5099343 -0.0012198779 0.04215822
-0.05499384 0.06931829 -0.23086956 -0.1542334 0.06894764 0.015103503 -0.18497299 0.024428846
-0.06760866 0.024107235 -0.09727885 0.118354015 0.007795508 -0.02117815 -0.048027992 0.033142924

encoder_layer3.weight f4 [32, 64]
00000000: 40bb 43b9 4d58 d73d db2b c6b9 b32a 853b
00000010: 72b5 9dbb 7abf 293c 3fc3 d93a 7eaa d63a
00000020: 811c 243c 45ec 6bbb 2ec0 213b 62bf adb9
00000030: 71ca e63b a659 2d3c 86ad 5a3e 3478 7a3c
00000040: dc54 9d3b e169 3cbc 2ea8 1f3c 23f2 503e
00000050: d0ad 873c 26e3 7d3c 803c 4ebb e420 84ba
00000060: 088a 56be ada4 d83b b3d3 fbba 828a 60b7
00000070: 6a57 393b 756d 85ba 6ed0 213d 34ad 053c
00000080: f682 8c3a 81bb b9be ca4d 8b3b f088 17b9
00000090: 2752 223b ccad 48ba 9f60 3b39 0b13 fe3c
000000a0: 3fe7 043b bbeb b5bc 231f 8abb 3a84 863b
000000b0: 08a2 8fba 5b0c 9a3e 5e14 faba b8a7 e13a
000000c0: 426c 013d 3486 f2bd e0e9 83bd 8b9c e939
000000d0: 3c5e 7d3b 3f91 9a3a c4b1 5abd d880 b0ba
000000e0: cc41 103b e26b c9b9 7b19 463c 748d ed3b
000000f0: b947 6bba 3263 573b d158 4939 f80b 6d3a
00000100: 4135 1f3b bb76 093e 59a8 873b 5350 4e3b
00000110: e5f0 0d3b 1b96 cf3c 4356 22bb 69af e83b
00000120: 3d37 a53c 8b19 34bc 11a9 613c e614 0dbb
00000130: 7ee0 793c ec9f a33c 8565 7dbd 7b3b 153d
00000140: bc08 363c 7245 8e3d ec13 033d 92cb 61bd
00000150: a7d6 ac3c 9008 223d 50f1 5e3a f853 853b
00000160: 1e73 1b3e a9bc 6b3b cd57 583a 37d0 14b9
00000170: 00da 563c 7959 c43b 4aa1 37bc 360a b53c
00000180: 121b e93a f5b6 d73e 012b 0abb ef59 bd39
00000190: 4903 7bba 61ca 77ba 01ae 5a39 b23b 913d
000001a0: 7032 943b 7d69 fcbd b000 dfbb 6ea5 123a
000001b0: 8651 51b9 5135 93be f436 77bb b280 3d3c
000001c0: e95f 533d d472 963d 0a07 f3ba 4cc3 89bc
000001d0: f73b 2c3c 79fa fd3b 3310 fe3d eea4 f63b
000001e0: 0fb5 f0bb 8ce5 963b f5a3 593c e0a8 943c
000001f0: 5b16 1e3b 9f85 33ba e7d2 95bb 9c3b 393c
00000200: 970a 4c3b ef03 d23d 4107 b83b 5ddd 88ba
00000210: 1022 103c e421 7c3c 14cf 0abb 27cf 873b
00000220: 5953 cc3c 7f82 fdbb c21c 913c 8405 1a3c
00000230: 59ff c33c e31f 813c 458d 3b3d 38b9 933b
00000240: 41a2 773c 8a2f 8ebd 05e4 cd3c 444f 4e3d
00000250: 31db 843c 14fd 2e3d 37fd 9b3c 5935 003c
00000260: d76e 97be 939b cebb e397 853c b018 85b9
00000270: 743b e33c d437 ad3b ccbc 673d e6dd 8c3c
00000280: e6aa 343b f4da debe 2410 3c3c 15ee 333a
00000290: c2fc 473b 695b 013b 90d9 19ba bdc6 6d3d
000002a0: 94e0 2c3c 4998 85bd e71f 73bb e08e e33b
000002b0: d9fb 343b 169f b23e bd8d 9fbb d83f 753c
000002c0: d55d cb3c 0196 10be 0024 5ab7 7083 f1bc
000002d0: 45ef cf3b 275f 163b e6c4 09be ff34 323c
000002e0: 3e6d a5bc c66d e13b 1756 b6bb df3a ed3c
000002f0: 86d5 753b 0780 3bbb aa9c 85bb 1e2b 4f3c
00000300: 9475 9f3a 0fe0 353d 316d 323b ba66 82b8
00000310: 0cd0 b4b9 a984 c43b 910b 4fbb d2bf 8c3b
00000320: eb3a aa3c 7796 94bb 2c9d ae3b ee5e 933b
00000330: 2290 893c d818 363b 58f5 343e 9de8 533c
00000340: 340e 813b 25d1 9e3b 1ce7 b53c 4c3c 953e
00000350: f1ab a63c ba00 b13c 5b5d 753b 72da 033b
00000360: 3c8f 0e3c 0b50 d6bb 2f98 ea3b 4d17 c1b8
00000370: cd25 913c 082a c03b 8693 d0bd 4e27 0c3c
00000380: 1256 803b 0aa6 1ebc 2a8e ecbb ac9f 003a
00000390: 4108 9c3b 1240 8b3a 8d8a b7b9 5c39 9e3c
000003a0: 1eb7 e53b e177 803c 5095 d3ba eaca 3d3b
000003b0: c79a bc3a 4064 e63d 1886 deb7 4fc6 f73b
000003c0: be00 a63c c4ba f6bd 8e0e 1dbe 0b70 1f3c
000003d0: 0e61 3d3c 7ea7 0f3b 26de f73c ccc9 a73b
000003e0: 07d4 a1bb d1cc 843b ec1f 99ba 2fba 9f3c
000003f0: d80b 173b f702 c5bb 5177 16bc 1aa1 c63b
-0.00018666405 0.10514889 -0.00037798178 0.004063928 -0.0048128897 0.010360593 0.0016613974 0.0016377715
0.0100165615 -0.0035998982 0.0024681198 -0.00033139723 0.007043176 0.010580456 0.21355256 0.015287448
0.004801376 -0.011499853 0.009744687 0.20404868 0.016562372 0.015496051 -0.0031469166 -0.0010080603
-0.20951092 0.0066114278 -0.0019212872 -1.3383689e-05 0.0028280863 -0.0010179715 0.039505415 0.008158971
0.0010720182 -0.36275867 0.0042512165 -0.00014451495 0.0024768205 -0.0007655292 0.00017869704 0.03101494
0.0020279435 -0.022207132 -0.0042151376 0.004105118 -0.0010958323 0.3008755 -0.0019079556 0.0017216122
0.031597383 -0.118420035 -0.064410925 0.00044557857 0.0038660904 0.0011792554 -0.053392187 -0.0013466133
0.0022011874 -0.00038418086 0.012091036 0.0072495285 -0.0008975226 0.0032865521 0.0001920194 0.0009042616
0.0024293216 0.13424198 0.0041399417 0.0031480982 0.0021658477 0.02534013 -0.0024770654 0.0071009886
0.020167941 -0.010992418 0.013773219 -0.002152735 0.015251277 0.019973718 -0.061864395 0.036433678
0.011110481 0.069468394 0.03200142 -0.05512578 0.021098448 0.039558947 0.00085045863 0.0040688477
0.15180632 0.0035970605 0.00082528294 -0.00014191946 0.013113499 0.0059921113 -0.011207888 0.022099596
0.0017784557 0.42131773 -0.0021082761 0.00036115895 -0.00095753797 -0.0009452459 0.00020854922 0.07091464
0.004522614 -0.12324808 -0.006805502 0.0005594109 -0.00019962163 -0.28751615 -0.0037721964 0.011566328
0.05160514 0.073461205 -0.0018541527 -0.016816758 0.010512344 0.007750806 0.124054335 0.0075269854
-0.0073458026 0.004605001 0.013283719 0.018146932 0.0024122212 -0.0006848219 -0.0045722607 0.011305716
0.0031134242 0.102546565 0.005616099 -0.0010441948 0.008797184 0.0153889395 -0.0021180557 0.0041445675
0.024942087 -0.0077365036 0.017713908 0.009400729 0.02392547 0.015762275 0.045789022 0.004508164
0.015114368 -0.06942661 0.025133142 0.050368562 0.0162178 0.042721823 0.01904164 0.007825219
-0.29576752 -0.006305167 0.016307777 -0.0002538613 0.02773831 0.0052861962 0.056576535 0.017195653
0.0027567684 -0.43526423 0.011478458 0.0006863785 0.0030515646 0.0019738323 -0.0005868906 0.05805086
0.0105515905 -0.06523187 -0.0037097873 0.0069445223 0.0027615933 0.34886998 -0.0048691914 0.014968835
0.024825016 -0.14119722 -1.30021945e-05 -0.02948162 0.006345662 0.0022944899 -0.13454017 0.010876893
-0.020193692 0.006879541 -0.005564462 0.028958736 0.0037511303 -0.0028610246 -0.0040775137 0.012644557
0.0012165778 0.044403132 0.0027225728 -6.2180174e-05 -0.00034487282 0.0059972596 -0.0031592587 0.0042953277
0.020780047 -0.0045345384 0.005328795 0.0044974005 0.01679236 0.0027785804 0.17671716 0.012933877
0.0039384607 0.0048467093 0.022204928 0.29147565 0.02034566 0.021606792 0.0037439677 0.0020119217
0.008701142 -0.0065403036 0.007159255 -9.207297e-05 0.01771822 0.0058643855 -0.10184388 0.008554293
0.0039165104 -0.0096831415 -0.0072190957 0.00049066055 0.004761726 0.0010623953 -0.00035007708 0.01931446
0.0070103547 0.015682163 -0.0016142521 0.0028960058 0.0014389389 0.1124959 -2.6526905e-05 0.007561482
0.020264026 -0.120473415 -0.15337583 0.009731303 0.011558784 0.0021919901 0.030257296 0.0051204916
-0.0049386057 0.0040527363 -0.0011682487 0.019497959 0.002304783 -0.0060123163 -0.009183721 0.0060616853

encoder_layer3.bias f4 [32]
00000000: a86f 8cbd 10f8 553d 277b f33a 3c56 51bc
00000010: 5a0b 163e f630 f03b f40e 3c3e 2d78 ca3d
00000020: 3cc0 7d3d efa9 b3bd ed0b 65bb 6855 f13c
00000030: d560 e03d 127b eb3d 2ed8 dd3d 89f1 993d
00000040: af3d 65bc 5fdd 293d 62c1 003e d0c4 bc3d
00000050: 5e32 213d fcac 00bd 7bb7 033e dd6f d53b
00000060: 2121 cb3f f226 b53c d287 0d3e 2dea 843d
00000070: 68fc 19bc 03c3 f73d a005 d4bc 2bca 013c
-0.06857234 0.052238524 0.0018576131 -0.0127769075 0.14652768 0.0073300553 0.18365079 0.09886203
0.061950907 -0.08772647 -0.0034949735 0.02945967 0.10955969 0.11498083 0.10832249 0.07516772
-0.013991757 0.04147088 0.1257377 0.092172265 0.039354675 -0.03141497 0.12862961 0.0065135793
1.5869485 0.022113297 0.13821343 0.06489978 -0.009398557 0.120977424 -0.025881588 0.007921736

encoder_layer_mu.weight f4 [2, 32]
00000000: b945 92be 08dc 5c3e fd8c 79be 075c 47be
00000010: 42d4 7c3e 9bda 1c3e 2375 963e 9fae 533e
00000020: 5756 34be 6cb6 2bbe 8a98 46be 332e 82bd
00000030: 79b5 9f3e c721 223e 9da1 8a3e 3fb6 c3bb
00000040: b1e0 33be 8637 0c3e f532 823e 01c6 093e
00000050: e3ef 4ebe 9278 133d 6598 eaba 56b1 8bbe
00000060: bda5 7b3c 5ba2 2abe 5c52 903e 289d 50be
00000070: d8fc bc3d e699 a93e 8032 c6bd 3d61 723d
00000080: 3649 fe3d 12b5 66be c2f4 753e ece8 f9bd
00000090: 2830 523e 3938 67be 5d2c dbbd 1860 373e
000000a0: ec7a 423e 1dfd 8a3e f016 6bbe 0daf 8abe
000000b0: 57a2 e93d f845 8cbd 5d36 153e 2386 8cbe
000000c0: b3e8 a43e 6e5d 69be d13e ae3b 84a9 893e
000000d0: fc90 5639 4ad4 2a3d c28f 913e 113c 23be
000000e0: c4ea e03c e71a a63e da30 183e a970 62be
000000f0: cb2a 55be b7f6 ce3d 86ab 7bbe 4cae 5dbe
-0.2856882 0.2156831 -0.24370189 -0.194687 0.24690345 0.15317766 0.29386243 0.20672081
-0.17611061 -0.16768807 -0.19394127 -0.06356468 0.3119314 0.15833198 0.27076426 -0.005972653
-0.17566182 0.13693056 0.25429502 0.13454439 -0.20208697 0.036003657 -0.00178982 -0.27283734
0.015359339 -0.16663496 0.28187835 -0.2037245 0.092279136 0.33125228 -0.09677601 0.059174765
0.12416308 -0.2253001 0.24019149 -0.122026294 0.20526183 -0.22580041 -0.10701821 0.1790775
0.18992203 0.27146235 -0.22957969 -0.27086678 0.11407917 -0.06849283 0.14571519 -0.27446088
0.32208785 -0.22789547 0.005317547 0.26887143 0.00020462641 0.04170636 0.2842999 -0.15940882
0.027455695 0.324424 0.14862385 -0.22113289 -0.20817105 0.10105651 -0.2457715 -0.2164852

encoder_layer_mu.bias f4 [2]
00000000: 81ae d83d cd13 ccbd
0.10580159 -0.09964714

encoder_layer_sigma_square.weight f4 [2, 32]
00000000: 8bf2 c23c dfca 37bd dc78 38bd b82e 343c
00000010: 8967 06bd dc4a 58bc eb70 00be 9c57 02bd
00000020: 9408 e0bc 6b78 333d de11 06bb 7ebf 4fbd
00000030: bfd0 12bd 4526 83bd 8fde 50bd b041 6bbd
00000040: 9635 ecbc 19f7 71bd 695b b0bd f758 6cbc
00000050: e677 a6bd da65 7c3c 9a5f 4cbd 01cb 7fbd
00000060: d382 c6bf 1914 febc 0e8c a3bc 02be 28bd
00000070: aec9 3fbb 0587 7fbd 6adb 75bc 959a 2ebc
00000080: 5269 6d3c bb0a 86bd f0db 2ebd a878 2a39
00000090: a25f 18bd 07e3 f4bc dddc 10be 6921 c7bc
000000a0: cbc2 15bd 2266 f63c ed83 34bc 753d 75bd
000000b0: 6cb8 3cbd 43b6 9dbd 3206 5fbd 77af 95bd
000000c0: 8a21 1dbd 8955 9cbd 0ffe c2bd 6058 e2bc
000000d0: 7323 92bd 3114 973c 379b 76bd 1f3a 62bd
000000e0: 8499 c0bf a139 17bd 39b6 d6bc 4634 3dbd
000000f0: 687c b6bc 7c54 87bd c3b2 0cbd 3f7a 09bd
0.023797294 -0.044871207 -0.045037135 0.010997467 -0.032813583 -0.013201442 -0.12543075 -0.031821832
-0.02734784 0.04381601 -0.0020457427 -0.05071973 -0.035843607 -0.06403784 -0.0509935 -0.05743569
-0.028834146 -0.05907354 -0.08611185 -0.014425508 -0.081283376 0.015405143 -0.04989586 -0.06244946
-1.5508674 -0.031015443 -0.019964244 -0.04119683 -0.0029264498 -0.062384624 -0.015005926 -0.010656972
0.014490442 -0.065450154 -0.042690217 0.00016257411 -0.037200578 -0.029893411 -0.14146753 -0.024307923
-0.036562722 0.030077998 -0.011017782 -0.059873063 -0.046074316 -0.07700779 -0.054449268 -0.07308858
-0.038362063 -0.07633502 -0.09521114 -0.027630031 -0.07135668 0.018442245 -0.06020662 -0.05523121
-1.5046849 -0.036920194 -0.026209937 -0.04619243 -0.022276118 -0.06607911 -0.034350168 -0.03356385

encoder_layer_sigma_square.bias f4 [2]
00000000: 1d34 22bf 8416 1ebf
-0.6336077 -0.61753106

decoder_layer1.weight f4 [32, 2]
00000000: 5dd2 5f3e dd73 8c3e b9c2 423f df7a 44bf
00000010: 16c5 b3bd b438 f43c a82c 15bf a16a aebe
00000020: 1832 e6bd 0179 71be 052f 6fbe b31d b83d
00000030: 8685 e038 d0f7 8c3a 0d1e b733 42b2 3234
00000040: 94ba 013f cbcd 03bf 1744 d3bc 4cac 9ebc
00000050: 636f d8ba e0db 47bc 550b ccbd 1706 fbbe
00000060: 0c82 b0bd f758 5f3f bad9 973f 01c7 6a3f
00000070: 0547 c4bd 9c6e babd cc54 1f3c 3792 76bb
00000080: 7b7a f43d 6367 2dbe b12a 803d 7e16 943c
00000090: 1e18 b737 1e58 553a f78d 5e39 9435 8c3c
000000a0: c3d2 e33d 784c aa3d 2976 85be 8a10 753e
000000b0: 5262 963a 2682 063c 7ec2 aebe 9782 4c3e
000000c0: 2a4e 1a3f a274 e13e a419 f6be 9c2a e43e
000000d0: d1c4 95b9 4f0b e6ba 01ea aa3b 013d 383c
000000e0: 9b06 25bf 424c 2a3f 3c19 9d3c 7dd5 933c
000000f0: e1a5 e1b9 4690 83bb 4837 02bc 8e16 c43b
0.21857591 0.27432147 0.76078373 -0.76749986 -0.087778255 0.029812194 -0.58271265 -0.34065726
-0.112400234 -0.23581316 -0.2335778 0.0899004 0.00010706023 0.0010755006 8.527068e-08 1.6642392e-07
0.5067532 -0.5148589 -0.025789304 -0.019369267 -0.0016512688 -0.012198418 -0.09963099 -0.49028084
-0.086185545 0.87245125 1.186332 0.91709906 -0.095838584 -0.09103128 0.009724807 -0.0037623772
0.11937424 -0.1693397 0.06258143 0.018077131 2.182653e-05 0.00081384357 0.00021224456 0.017115392
0.11124184 0.083153665 -0.26066712 0.2393209 0.0011473394 0.008209741 -0.3413276 0.19971691
0.6027552 0.44034296 -0.48066437 0.44563758 -0.00028566134 -0.0017550978 0.0052158837 0.011245013
-0.64463204 0.6652261 0.019177072 0.018046135 -0.00043038934 -0.0040150015 -0.00794775 0.005984134

decoder_layer1.bias f4 [32]
00000000: 3672 883d 0a70 8abe 2864 863d 3b4d 95bd
00000010: eeee 7cbd e14c c0bd e400 193b 5f2a 2435
00000020: eeaf 8fbe 0f5f 22bd 98d8 b4bc 2f57 f8bd
00000030: 0f31 6bbd 4e72 ecbe ceb6 59bd be59 80bc
00000040: 21c4 1abe 6585 813d fef7 153b 5568 c53c
00000050: 4651 4dbd 1df1 64be 0a08 ae3c b138 ccbd
00000060: f2d7 83be b508 6ebe 4c03 b3bb 08ac 213c
00000070: 6690 02bf da6e 973d 6499 23bc 2088 8f3c
0.06662409 -0.27038604 0.06562072 -0.07290121 -0.0617513 -0.093896635 0.0023346478 6.115642e-07
-0.2806391 -0.039641436 -0.022075936 -0.12126004 -0.057419833 -0.46180958 -0.05315285 -0.015667792
-0.1511388 0.06324271 0.002288341 0.024097601 -0.050126337 -0.22357602 0.021244068 -0.099717505
-0.2575069 -0.23245509 -0.0054630395 0.009867676 -0.51001585 0.0739419 -0.009985302 0.017520964

decoder_layer2.weight f4 [32, 32]
00000000: 33c4 49bd c1ba 923e d346 8cbc 1e48 d3be
00000010: 8e35 20be 99ed 90bd 315f 03ba 24e3 d4b1
00000020: e478 423d 3a48 7cbc ed6a deba e380 8dbe
00000030: 0ae8 db3d 9c63 8fbe 54e7 0abe e6f4 5a3c
00000040: df31 72bc 0ea4 41bd a377 c339 4959 9b3c
00000050: 8b01 42bd de72 8a3d f8be 25bb bc23 bbbd
00000060: a3f6 5dbe abfb 4e3d 6be6 a53b 9265 0cbc
00000070: fcad a53b 7a1e 5fbc d5d9 c63b 479f a3bc
00000080: cb35 1fbe 701e f2ba 195e 7abb 2644 30be
00000090: 73e4 50bb 6e2a 5f3e 2423 4abb b8c3 4535
000000a0: 4cd4 d03d 120b a23b eb35 123b 727e 07be
000000b0: 4e94 083d 2162 0bbd 46f0 7a3c 039e d63c
000000c0: 6608 8f3c aa60 65bd 45fd 6eba 3e4b 6dbc
000000d0: 9ec8 3cbd 5f1a 3c3e 0abc 42bc 9d44 7d3d
000000e0: a725 003d 9a3e 823e ffbc 283b ac96 04bd
000000f0: cbd1 033f 6fcf d93c d5e5 073c 86fa 6abc
00000100: dc33 1bbe 39ac 843d 2d7c 933c 2418 84be
00000110: fb90 cfbd b9f5 bc3c 2391 c2bb 70e0 9bb6
00000120: aa96 24be 5e03 9a3d d9ef 5d3d 156e 9abc
00000130: dfb5 00be f7a3 0dbf c6fc f1bc 4d29 553a
00000140: ef7a 293d 55c1 fa3b af9e c8bb 3147 bdbd
00000150: 33ec 513d 256f 953d a346 9bbc cf4b be3c
00000160: aba8 b1be 8b82 e4bd 3c61 203c 8905 2b3b
00000170: 0ce3 943e 0d24 c5bd c41a c03c 32cd 583b
00000180: 1590 81ba df43 b93c 4e60 d63a 6117 fc3c
00000190: da75 7639 6fc4 f4bb 5a1c 5c38 e729 c232
000001a0: daab 3cbc 7832 733b 327f a7b8 1b7c babb
000001b0: 4e55 a33c 3bcf e9bb f424 e5bb 2e69 00bb
000001c0: 8840 88bb 9dcd fcb9 cc8e 5138 bf3e 8fbb
000001d0: c39d 393c 2d04 27bc c695 9e3a 51fb 2b3d
000001e0: 25ba cb3c 91a9 80bc cea6 48b9 0c7c 2d39
000001f0: ed2d 89bc 20e3 443b 8cf1 bcb9 995c 733a
00000200: 76c5 ecbc e067 b0bc 6830 cebc 1ed3 9abd
00000210: bd1e d93c e388 033c 6813 6ab9 19a3 b3b2
00000220: 6be9 433c b5a8 23bc 248c df39 9241 133b
00000230: b859 8a3c a0ac f4bb a697 cd3a 9292 f4ba
00000240: 1a6b c03c 4d5e 073b 066a 1cb9 ea28 afbb
00000250: 537a 8c3c 40bb d7bb 7b0f a7ba 9ce3 83bc
00000260: f035 29bd b771 10bd 7bff 4639 933d 5ebb
00000270: d06d 433d b614 83bb 5e4b 4b3a 2528 193b
00000280: beb5 96be 75d1 5d3e 2ab2 363e 1e8b 9a3e
00000290: 3c7b bb3c 3b31 3e3e 343f d0b9 cbef 2db5
000002a0: f60d 60bd 2431 ab3d 97fd adbb 65b6 813e
000002b0: e95a 3ebe bea1 45bf dc47 f63d d309 5dbd
000002c0: ec76 273c 6411 e4bd d8c5 d539 b53c 74bc
000002d0: 088f 51be 9b4e a83d bde7 ac3b 8799 ed3d
000002e0: 5e58 05bf 6e33 ff3d 9b09 fb39 7665 9e3b
000002f0: 5466 be3c 9cb8 c4ba 15c4 d43a 3c02 f63c
00000300: b69a 28be 5c6a 77be 995a abbc fe19 dbbd
00000310: d8ef 063e 2ea5 07be 0c19 abbb c461 89b5
00000320: d5d3 23be f76d 453b a1d4 023d 7108 aa3e
00000330: 7cc9 e8be c83f 18bf 5de5 bd3a 9f92 b33b
00000340: f172 fc3d 0b6d b23c 05ae 7bbb fec6 b8bb
00000350: 192d babc f0ad 24be 2690 eebc 37d1 06be
00000360: 72a0 44be f6b3 b8be 057a 453c dca4 e4bc
00000370: 19bb d1be c42a a7bc aa8c 813c 5063 2cbd
00000380: 195e c7bc f1b8 b8ba 803c a0bc 528b 8e3c
00000390: 8a39 04bd 5d86 d73a 2c1c f3b9 5000 ae34
000003a0: 5c52 78bc 18aa 81bc fd3d f93a 7f7f 05bd
000003b0: 3fa3 363e 5637 bfbd e200 eabb 45df 1a3c
000003c0: cdd7 843c 8fc8 12bb ab6d c0b9 36fd 133b
000003d0: e344 27bd 1a16 8cbc 7aaa 2ab9 e8ca 2dbc
000003e0: 39d7 d93c 5f14 0dbd 3759 e339 8a0f 543b
000003f0: 9ea8 f3bd fec3 1d3b 2b7b fe39 009b a43a
-0.049259376 0.28658107 -0.017123615 -0.4126596 -0.1564543 -0.07076568 -0.0005011438 -6.195835e-09
0.04747857 -0.0153980795 -0.0016969122 -0.27637395 0.10737617 -0.28005683 -0.13564807 0.013364052
-0.014782398 -0.047275595 0.00037282435 0.018963473 -0.047364753 0.067601904 -0.0025290828 -0.09137675
-0.21676116 0.050532978 0.0050628684 -0.008569138 0.005056141 -0.013618106 0.006068448 -0.01997341
-0.15547864 -0.0018472206 -0.003820306 -0.17213497 -0.0031874448 0.2179353 -0.00308437 7.3673027e-07
0.101967424 0.0049451673 0.002230997 -0.13231829 0.03334456 -0.03402913 0.015316075 0.026198393
0.01746006 -0.05600039 -0.00091167196 -0.014483271 -0.04608976 0.18369435 -0.011885652 0.061833013
0.031285908 0.25438386 0.0025747416 -0.032370254 0.51491994 0.02658817 0.008294542 -0.014341956
-0.15156502 0.06478161 0.018003548 -0.25799668 -0.10135075 0.023066388 -0.005937712 -4.645488e-06
-0.16073099 0.075201735 0.054183815 -0.01885132 -0.12569378 -0.55328315 -0.029539477 0.00081314595
0.041377004 0.0076524415 -0.006122432 -0.09242094 0.051250648 0.0729659 -0.01895458 0.023229508
-0.34698996 -0.111577116 0.0097888075 0.0026095829 0.29079473 -0.09626017 0.023450263 0.003308129
-0.0009884859 0.022615371 0.0016355605 0.030772867 0.00023504291 -0.007469706 5.2478492e-05 2.2603627e-08
-0.011515582 0.003710894 -7.9868725e-05 -0.005691064 0.019938137 -0.0071352995 -0.0069929305 -0.0019593942
-0.0041580833 -0.0004821838 4.9962473e-05 -0.0043714936 0.011329117 -0.010193867 0.0012099079 0.04198772
0.024869034 -0.015705856 -0.00019135626 0.00016544777 -0.016745532 0.0030042604 -0.0003603812 0.00092835125
-0.02890275 -0.021533906 -0.025169566 -0.07559799 0.026503915 0.008028242 -0.00022323208 -2.091251e-08
0.011957507 -0.009988953 0.00042638287 0.0022469503 0.016888484 -0.0074668676 0.0015685454 -0.0018659404
0.02348857 0.0020655573 -0.00014916816 -0.0053454535 0.017148172 -0.0065836012 -0.0012745702 -0.016099744
-0.041311204 -0.035264697 0.00018977925 -0.0033911213 0.047712147 -0.0040002717 0.0007755066 0.0023369875
-0.29435533 0.21661933 0.17841402 0.30184263 0.022885911 0.18573467 -0.00039719942 -6.4796467e-07
-0.054700814 0.08358982 -0.0053097713 0.25334468 -0.18589367 -0.77199924 0.12025425 -0.053964447
0.010221224 -0.111361295 0.0004077393 -0.014907052 -0.20464718 0.08218118 0.005276649 0.11601549
-0.5208796 0.12460981 0.00047881607 0.0048338724 0.023242153 -0.0015008631 0.0016232753 0.030030362
-0.16465268 -0.24161667 -0.020917224 -0.10698317 0.1317743 -0.13246605 -0.0052214917 -1.0235749e-06
-0.15998776 0.0030125359 0.03194106 0.33209565 -0.4546622 -0.5947232 0.0014487911 0.005480125
0.12326611 0.021780511 -0.0038403284 -0.005638956 -0.022726582 -0.16081977 -0.02912147 -0.13165747
-0.1920183 -0.360748 0.0120530175 -0.027910642 -0.40963057 -0.020406134 0.015814144 -0.0420869
-0.024336861 -0.0014093203 -0.019560099 0.017400417 -0.032281436 0.0016443242 -0.00046369561 3.2410253e-07
-0.015156355 -0.015828177 0.0019015666 -0.032592293 0.17835711 -0.09336726 -0.0071412185 0.009452646
0.016216183 -0.0022397374 -0.00036702803 0.0022581345 -0.04083718 -0.017100383 -0.00016275971 -0.010607459
0.026591884 -0.034443256 0.00043363284 0.0032357895 -0.118973956 0.002407312 0.00048538423 0.0012558401

decoder_layer2.bias f4 [32]
00000000: 7268 eb3d 66cb 83bd c8e2 2cbc 4733 92bc
00000010: d012 003d d441 ae3d cf2c a4bd 9cfa e8bb
00000020: f8ad 273b 027f 3dbe 25e9 003d 84c7 ba3d
00000030: bb53 53bd 2388 15bd f704 a3bd 3ab2 e53c
00000040: ece5 47bc d694 163d 1169 35bc cfae c83c
00000050: 7c6f 8fbc 8ce2 903d 56f6 76bd a480 cc3d
00000060: 2514 3d3e 74b1 99bd d477 453d 1637 563e
00000070: a615 3b3e a8a1 e3bc 7f4f 633c 05af 143e
0.11494531 -0.064352795 -0.010552116 -0.017846717 0.03126794 0.085086495 -0.08016359 -0.007109953
0.0025585871 -0.18505481 0.031472344 0.09120086 -0.051593523 -0.036506783 -0.07959931 0.028039087
-0.012200814 0.036763035 -0.011072413 0.024497418 -0.017509215 0.070744604 -0.060293518 0.09985474
0.18464716 -0.075045496 0.04820998 0.20919451 0.18269977 -0.027787045 0.013873934 0.1451989

decoder_layer3.weight f4 [32, 32]
00000000: 4b14 8f3d 5387 a53d 5980 cd3b ec62 d6bb
00000010: beec 1bbc 8d22 44be 1153 f3bd 0412 28bd
00000020: 20d4 473c 64ab c3be 54fe 3e3e d1e4 49bb
00000030: 81e7 63be aae8 a93b 0d21 c33c 1c4a 8a3d
00000040: ab4c 4ebe 58aa 5c3d ad65 6c3c 24c9 81bd
00000050: 0dd6 e03d e7fc c63d 0753 b13c 29cd 0a3e
00000060: 3ef4 313d b122 39be f093 13bc 4bfd 893d
00000070: a424 debd cf69 8bbd 7e03 c33c 51f8 e6bd
00000080: e2e6 33bb 3af4 c23c f469 d13b 526b da3a
00000090: 8848 223c d9c8 b2bc 92b8 03bd 7068 153c
000000a0: 3b46 9cbb fe22 34bd 8698 9e3b 096e 953c
000000b0: a3e1 0e3c b46f 07bd a2e5 e13c 65af 143d
000000c0: 12f2 5a3d 3d83 28bc c7fe 083b 2dd7 95bb
000000d0: a4cc aabc b2bb 9a3d d9c1 cabb 6e9b aa3b
000000e0: 5ba6 133c 7830 913a e461 893c 8a71 9c3c
000000f0: 52a7 57bc aff8 82bc 6fc9 a1bb 5610 dc3c
00000100: a018 4038 c69f b5bd 5b84 cb3d 3247 f3b9
00000110: 36e9 0c3c b12b 09bc 5249 91bd 2e16 f03c
00000120: ba85 e7bb 1719 b7bb fcf0 00bd 9aa9 0e3d
00000130: b393 633c 6bd5 3dbd caaa a73d dedb 843b
00000140: 8990 45bc 00eb 93bc f2d9 06bd 43f5 383c
00000150: fe60 76bd c31f 15bd b8ad adbc 185f d03c
00000160: 2f5a 823a 7455 183d f62c 863c b22d 023d
00000170: de27 bbbc 1190 aeb9 e1f0 0fbc bbd5 103d
00000180: 9879 113c 2a6d 5ab9 6cab 62bc dcce 25b7
00000190: 03f1 ea3a d257 07bb 2fe2 4a3c ec2a 5c3b
000001a0: ed9a d1ba 3815 93bb e24a 543c 0152 e8ba
000001b0: 883e fd3a b0a0 a037 aab1 90bc fde2 513a
000001c0: 0fcd c5bb d26c 14bb 898f cebb f191 a53b
000001d0: 9593 8cbb 9005 0ebb ca3d 14ba 03a9 a6b9
000001e0: a800 f4bb 6ed3 37bb db32 793b 7fdf edbb
000001f0: 4bd2 e93b 120b 8ebb ae2d 02bb 4d5e 2e3b
00000200: 2408 8b3c 580e b3ba 2e25 47bb 7577 8e39
00000210: 293d fb39 1d08 afba ff6a ff3c 72c8 c2ba
00000220: cb00 18bb 2978 073c 8dac 7e3c 0460 24bc
00000230: 350e 28bc 0e56 103c cc96 e2bc 5cbe 033b
00000240: fb65 76bc ebf7 553b 90f7 7d3b 546c febb
00000250: 5986 0a3c 08ae 0ebc c143 a53a 811c 04ba
00000260: 601a 7bbc 0ea4 2bbc c8ca ba3a 1899 8bbc
00000270: 8d07 8f3b a0d6 31bb 4618 2939 715e a9bc
00000280: 616f 043e 2f58 653e 19fb 483e 4742 f53b
00000290: f346 4cbc b589 c6bd ef46 80be dbc3 5abc
000002a0: 3ac9 f5ba 0606 28bd 23ba 373d 5ded 893d
000002b0: 7409 d8bc 62ba ae3c 8254 23be bc6c 15bd
000002c0: 0746 df3d fe1f c63b 20d4 85bb 7dbf 173c
000002d0: d2f5 623c 53e0 803d 862a 8f3c ef12 1a3d
000002e0: 1a90 473e dc26 a13b d08d c4bc 0f91 ab3d
000002f0: d24c 733e c755 013d 5801 8b3b 6691 063e
00000300: 08a6 e73c 56b0 56bd 5c48 8d3b 7388 4ebb
00000310: d9f3 803b 864b 44bc 4576 1cbd c97f 233c
00000320: f422 173a dc19 d7bc d970 f8bc fa2d 373c
00000330: bb04 a53c 6215 7cbc 9441 743c b9dc 8bbc
00000340: ec5d ba3c 3764 e6bb e64c 89bb 8f18 253c
00000350: b980 cabc 922f a33b 7b87 19bc f746 6e3b
00000360: d6a2 36bd 9959 183c 2cd3 093c bed6 6c3c
00000370: b26b 0e3c 8801 cdbb f813 18bb 0f3a 013d
00000380: 29b7 89bd d0c6 8abd 8166 27bd 5ee0 a73a
00000390: dcb6 0dbc 7a11 04be 3803 bd3e 5828 34bc
000003a0: 7b87 09bc fdb8 83bd 8c40 a1bd 5c21 803d
000003b0: b486 3f3d 35e1 b33c cd27 57be 0d41 813d
000003c0: 6f19 81be a5bf bebb 616f 5cbc e286 dc3d
000003d0: d5c1 74ba 564b e33e ac2d 663c 4a2c 053d
000003e0: 16c5 b43c f2b2 853d b098 5dbc 7e98 803e
000003f0: 85c7 e7bd 7e61 6a3d 5afc 863b faec 1abe
0.069862925 0.08082452 0.0062714037 -0.006542554 -0.009516893 -0.19153805 -0.11881078 -0.041032806
0.012196571 -0.38216698 0.18651706 -0.0030806551 -0.2225628 0.0051852064 0.02381947 0.067524165
-0.20146434 0.05387339 0.014428538 -0.06337193 0.10978327 0.09716206 0.021646036 0.13554825
0.043445818 -0.1807964 -0.009007439 0.06737765 -0.108468324 -0.06807291 0.023805376 -0.11277831
-0.002745085 0.023798097 0.0063908044 0.0016664064 0.009904988 -0.021824287 -0.03215844 0.009119138
-0.0047691143 -0.043978684 0.0048399596 0.018240945 0.008720788 -0.033065513 0.027575318 0.03630008
0.053453512 -0.010285196 0.0020903812 -0.00457277 -0.020849533 0.07555331 -0.006187659 0.005206517
0.00901183 0.0011077067 0.01677031 0.019097108 -0.013162451 -0.015987722 -0.004937343 0.026863258
4.57993e-05 -0.08868365 0.09937354 -0.00046401616 0.008600524 -0.008372233 -0.07094063 0.029307451
-0.007065502 -0.0055877077 -0.03147982 0.034829713 0.013890195 -0.04634611 0.08186872 0.0040545305
-0.012058386 -0.018056393 -0.032922693 0.011288944 -0.060151093 -0.036407243 -0.021201 0.02543597
0.000994509 0.03719087 0.01637886 0.03178186 -0.022846159 -0.00033295204 -0.008785457 0.03536008
0.008879088 -0.00020830767 -0.0138348155 -9.88293e-06 0.001792461 -0.002065171 0.012383028 0.003359492
-0.0015991606 -0.0044886135 0.012957307 -0.0017724634 0.0019321004 1.9148312e-05 -0.017662842 0.0008006541
-0.006036408 -0.002264787 -0.006303732 0.005052798 -0.004290054 -0.0021670796 -0.0005654959 -0.0003178791
-0.0074463673 -0.0028049606 0.0038024697 -0.007259309 0.0071356646 -0.004334816 -0.0019863653 0.00266065
0.016971655 -0.0013660891 -0.003038715 0.00027173353 0.0004792002 -0.0013353858 0.03117895 -0.0014860763
-0.0023193832 0.0082683945 0.015544069 -0.0100326575 -0.0102572935 0.00880958 -0.027659796 0.0020102477
-0.0150389625 0.0032648991 0.0038752295 -0.0077643786 0.008454883 -0.0087084845 0.0012608693 -0.0005039648
-0.0153261125 -0.010476125 0.0014251107 -0.017040774 0.004364914 -0.0027135983 0.00016126139 -0.020674916
0.12933113 0.2239692 0.19627036 0.0074847075 -0.0124680875 -0.09694234 -0.25054118 -0.01335236
-0.0018751987 -0.04102137 0.04485525 0.067347266 -0.026371695 0.021329109 -0.15950206 -0.03648065
0.109020285 0.0060462942 -0.004084125 0.009261963 0.013852553 0.062927864 0.017476331 0.037615713
0.19488564 0.0049179625 -0.023993403 0.08377277 0.23759773 0.031575944 0.0042421035 0.13141403
0.028277412 -0.05241426 0.0043116044 -0.0031514436 0.003935319 -0.011980897 -0.038198728 0.009979197
0.00057654013 -0.026257448 -0.030327247 0.011180395 0.020143857 -0.015385957 0.014908213 -0.017073022
0.022749864 -0.0070309895 -0.004190075 0.010076656 -0.024719583 0.004980036 -0.00937068 0.0036358216
-0.044588886 0.0092987055 0.008412164 0.014455495 0.008692669 -0.006256286 -0.0023205262 0.03154951
-0.06724388 -0.06776202 -0.04086924 0.0012807955 -0.008649554 -0.12897292 0.36916518 -0.010995947
-0.0083941175 -0.06431768 -0.078736395 0.06256363 0.046759322 0.021957973 -0.21011277 0.063112356
-0.25214717 -0.0058211857 -0.013454289 0.10767914 -0.00093367446 0.44393414 0.014048975 0.03251294
0.022066634 0.06528272 -0.013525173 0.25116342 -0.11317352 0.057221882 0.004119438 -0.15129462

decoder_layer3.bias f4 [32]
00000000: 2a78 6d3d 1c81 e7bc 38ba 8abc e89f 233a
00000010: 5a4e df3c 0114 113d 0e58 0dbc fd40 703e
00000020: 3f87 043a 2bd5 93bc 367a 733d 6e89 c83b
00000030: 5b13 093b d8b0 1d3c 1df8 e93d 3c94 fcbb
00000040: 5763 883c a20a 583d ea03 f2bc d4ae 9cbb
00000050: 65e6 fabc 80c3 503c de41 9f3c 35ab f7bd
00000060: 8966 2c3d 423d ae3d 5863 07be cf4a 9d3c
00000070: da17 01bd 01bb 033b 64bd 27be 90d3 c73d
0.057975926 -0.028259806 -0.0169345 0.00062417844 0.02725904 0.035419468 -0.008626951 0.23462291
0.00050555536 -0.018045982 0.05944272 0.0061198985 0.0020916078 0.009624682 0.11424277 -0.0077081006
0.016648931 0.052744515 -0.029542882 -0.0047815833 -0.030627439 0.012741923 0.019440588 -0.12093202
0.042089973 0.08507778 -0.1322149 0.01920071 -0.031516887 0.0020100477 -0.1638084 0.09757149
