ELDR-NEW/results/vae_models/Housing.pt (torch, 362183 bytes, 75 tensors)

dof f4 [13]
0	0x3fd95a65	1.6980711
1	0x3fd27179	1.6440879
2	0x3fead43d	1.834602
3	0x3fa3d950	1.2800694
4	0x3fd8a9e2	1.6926844
5	0x3fe42145	1.7822653
6	0x3feac0d1	1.8340093
7	0x3ff3a260	1.9033928
8	0x3fdf6582	1.7452853
9	0x3fda75ea	1.7067235
10	0x3ff6f913	1.9294761
11	0x3f88fac2	1.0701525
12	0x3fe47cbc	1.7850566

encoder_layer1.weight f4 [128, 13]
0	0x3a63fa01	0.0008696616
1	0x3cc3a707	0.023883356
2	0x3cbdc262	0.023163978
3	0x3babf31c	0.0052474868
4	0x3acd1229	0.0015645671
5	0xbaf0b833	-0.0018365443
6	0xbd11df40	-0.0356133
7	0x3b89efe0	0.0042095035
8	0xbc8c4add	-0.017125541
9	0x3ca46a32	0.02007017
10	0xbd160607	-0.036626842
11	0xbbfefe0c	-0.0077817496
12	0x3be50744	0.0069893915
13	0xbdc7ea22	-0.09761454
14	0x3eb4d1cf	0.3531632
15	0xbe99bc45	-0.3002645
16	0x3e3786b0	0.17922473
17	0xbe1f0abd	-0.1553144
18	0x3de31cba	0.110894635
19	0xbb486858	-0.0030579772
20	0x3e260993	0.1621459
21	0xbd3ada2a	-0.045618214
22	0xbe0e0bbc	-0.13871664
23	0xbe637d0b	-0.22215669
24	0x3d9f195c	0.07768509
25	0xbd3b54ed	-0.04573529
26	0x3c9daeca	0.019248385
27	0x3d610160	0.054932952
28	0x3d8bc880	0.06825352
29	0x3d385f4d	0.04501276
30	0x3c36294e	0.011118246
31	0x3c433d3d	0.011916456
32	0xbd508b71	-0.05091423
33	0x3c16b185	0.009197597
34	0xbc4395bb	-0.011937554
35	0x3d891580	0.06693554
36	0xbd257214	-0.040391997
37	0xbd8a766d	-0.06760869
38	0x3c7ec457	0.015549741
39	0xbd3de48c	-0.046360537
40	0xbc4bd612	-0.012441175
41	0x3cef57a2	0.029216591
42	0xbe3cd633	-0.18441086
43	0xbcc8cc36	-0.024511438
44	0xbd3650ad	-0.044510532
45	0xbe636f6d	-0.22210474
46	0x3d5d4965	0.054025073
47	0x3d870ba4	0.06594017
48	0x3d26bb34	0.040705875
49	0x3dee9311	0.116491444
50	0xbc845318	-0.016152903
51	0x3b04c121	0.0020256715
52	0xbde4e64a	-0.11176737
53	0x3f09b5a0	0.5379276
54	0xbe8fac5c	-0.28061187
55	0x3e944377	0.28957722
56	0xbe473fed	-0.1945798
57	0x3e4efe78	0.2021426
58	0xbe06656e	-0.1312463
59	0x3e62024f	0.22071193
60	0xbdbad285	-0.09122185
61	0xbdcb9be1	-0.09941841
62	0xbe85698d	-0.2605709
63	0xbcb5f1b3	-0.022209978
64	0xbd2650cd	-0.0406044
65	0xbbe39a2f	-0.0069458704
66	0xbc8c75f8	-0.017146096
67	0xbd7de27c	-0.06198357
68	0xba890faa	-0.0010456939
69	0xbc979c7a	-0.018507231
70	0x3a7d82b2	0.0009670659
71	0x3d2bea25	0.041971345
72	0xbb875d59	-0.004131001
73	0x3d2352c6	0.03987386
74	0xbcf1c9db	-0.029515198
75	0x3cb9cabd	0.022679681
76	0x3aeb1c6a	0.0017937545
77	0xbb2e3f9a	-0.0026588202
78	0xbb4674aa	-0.003028194
79	0xbcea02a2	-0.028565709
80	0x3c53ae8a	0.012920031
81	0xbd1f1031	-0.0388338
82	0x3ac0cf24	0.001471017
83	0xbd15eaac	-0.036600754
84	0xbc95737d	-0.018243546
85	0xbc7ede32	-0.015555905
86	0xbd19c5d8	-0.037542194
87	0xbcd6db86	-0.026227724
88	0x3c610cc8	0.013735957
89	0x3d55e203	0.052217495
90	0x3bf2c516	0.0074087484
91	0x3d185e41	0.037199263
92	0xbe90cb97	-0.28280327
93	0x3e2e0bd3	0.16996698
94	0xbe23d5a6	-0.15999469
95	0x3dd9269f	0.106030695
96	0xbd861927	-0.06547766
97	0x388487b8	6.31953e-05
98	0xbda15633	-0.07877769
99	0x3dd99aa3	0.10625198
100	0x3d78749b	0.06065808
101	0x3e738f03	0.23785023
102	0x3c8555bb	0.016276231
103	0x3c48270f	0.012216344
104	0x3da6ddd4	0.08147779
105	0xbcb37d7f	-0.021910427
106	0xbd99b86d	-0.075058796
107	0x3e367c9f	0.17820977
108	0xbd4a50d6	-0.049393497
109	0x3d7b2a97	0.061319914
110	0x3d390337	0.04516908
111	0xbd3517f1	-0.044212285
112	0x3ed0b333	0.40761718
113	0x3e4b1f21	0.19836093
114	0x3e003338	0.12519538
115	0xbe9f4db9	-0.31113985
116	0x3cd8ae12	0.02645019
117	0xbbd0a110	-0.0063668564
118	0xbc7b3c05	-0.015334134
119	0x3bd0f784	0.0063771624
120	0xbd12219f	-0.035676595
121	0xb9e6ca68	-0.00044019823
122	0xbcd8f45a	-0.026483703
123	0xbd289bda	-0.041164257
124	0xbba6a7a2	-0.0050859014
125	0xbc00f7d2	-0.007871585
126	0xbc0ee7b4	-0.0087222345
127	0x3cad919c	0.021187596
128	0x3c9b511a	0.01895957
129	0x3b3e14a0	0.0029003993
130	0x3d4ed975	0.050500352
131	0xbc48a7ec	-0.012247067
132	0x3d8c144d	0.068398096
133	0x3dc23f31	0.09484709
134	0x3cf39fe5	0.02973933
135	0x3ce0aa30	0.027424902
136	0x3c2e457e	0.010636685
137	0xbd007716	-0.03136357
138	0x3df1e69f	0.118115656
139	0x3de1b970	0.110216975
140	0x3d520222	0.051271565
141	0xbe10a36b	-0.14124839
142	0x3bff1143	0.00778404
143	0xbc1e56b3	-0.009664225
144	0xbd03886d	-0.032112528
145	0xbcc867c1	-0.024463536
146	0xbca71950	-0.020397812
147	0x3baa398f	0.00519485
148	0xbc50b90e	-0.012739433
149	0x3d5b839e	0.053592317
150	0xbc62a9e1	-0.013834448
151	0xbd8025ce	-0.06257211
152	0xbd9032c4	-0.07040933
153	0xbc6d9678	-0.014501207
154	0x3d6dae75	0.058027703
155	0xbb8659af	-0.0041000466
156	0x3a6228ce	0.0008627296
157	0xbb5ff67f	-0.0034174023
158	0x3c0422fe	0.008064983
159	0xbbc54973	-0.0060207187
160	0x3a96852f	0.0011483784
161	0xbc3372e8	-0.010952689
162	0xbc0dcaf7	-0.008654348
163	0xbbb62ea9	-0.0055597615
164	0xbc480ca0	-0.012210041
165	0xbb2d8dfe	-0.002648234
166	0xbb8ac58f	-0.0042349766
167	0x3c7ec84c	0.015550684
168	0x3b83aa06	0.004018071
169	0xba2e19a4	-0.0006641394
170	0x3c364352	0.011124449
171	0x3c9e148b	0.019296905
172	0xbb4c8ef0	-0.0031213127
173	0x3bf6e7b1	0.007534944
174	0xb88d8a47	-6.74916e-05
175	0xbcc7538b	-0.024331829
176	0x3b790fa5	0.003800371
177	0xbc5c5cdc	-0.013449874
178	0x3c30f2c2	0.0108000655
179	0xbc58ecf6	-0.01324009
180	0xbc5325ca	-0.012887428
181	0xba4cbc76	-0.0007810065
182	0xbc9a6fe4	-0.018852182
183	0x3d78b9a7	0.060723927
184	0x3da48c23	0.080345415
185	0xbdafb07a	-0.08578582
186	0xbcd3e9da	-0.025868345
187	0xbd17cd95	-0.037061293
188	0xbe3cc856	-0.18435797
189	0x3d1a8cdf	0.037732
190	0xbd8784e0	-0.06617141
191	0x3d16ce38	0.03681776
192	0xbcada531	-0.021196933
193	0x3c11b7f0	0.008893952
194	0x3ccc65a0	0.024950802
195	0x3b88df4f	0.004177011
196	0x3bcdefdd	0.0062846974
197	0x3d3b1373	0.045672845
198	0xbc2fd17c	-0.010731097
199	0x3c103d2b	0.008803646
200	0xbcb0c109	-0.021576421
201	0xbd091b57	-0.03347334
202	0xbbdc9e98	-0.006732773
203	0xbd54df24	-0.051970616
204	0x3ba8bc46	0.005149397
205	0xbce19305	-0.027535925
206	0x3ce75495	0.028238574
207	0x3c49a898	0.012308262
208	0xbbfec78e	-0.0077752536
209	0x3d0fa052	0.035065003
210	0x3d10bc7b	0.035336
211	0xbcd27c0c	-0.025693916
212	0xbab06d38	-0.0013460284
213	0xbc532074	-0.012886155
214	0xbdb198c4	-0.08671716
215	0x3c6e73df	0.014553993
216	0xbcf36cc9	-0.029714959
217	0x3cd6da10	0.026227027
218	0xbd1c8981	-0.03821707
219	0x3c0b81fb	0.0085148765
220	0x3c25f75e	0.010129778
221	0xba13f871	-0.00056446256
222	0x3c5fefed	0.013668043
223	0x3b28acc8	0.0025737751
224	0x3c308be4	0.01077554
225	0x3b26e2d9	0.0025464802
226	0x3c72a84e	0.014810635
227	0xbbf38b20	-0.0074323565
228	0x3c20ebf4	0.009821881
229	0x3c5aebf8	0.013361923
230	0x3c8165ec	0.01579567
231	0xb982c587	-0.00024942702
232	0xbd24b094	-0.04020746
233	0xbbaf4ae2	-0.005349503
234	0xbccef613	-0.025263822
235	0x3d713067	0.05888405
236	0xbd696659	-0.056982372
237	0xbc894a51	-0.01675907
238	0xbc72abbc	-0.0148114525
239	0x3cae0efa	0.021247376
240	0xbd48ab04	-0.04899122
241	0x3d1931ce	0.037401013
242	0x3d87dd6e	0.06634031
243	0x3ce61a3f	0.028088687
244	0xbcf79d46	-0.030226361
245	0xbd4606c9	-0.048346315
246	0xbcc73274	-0.02431605
247	0x3d92ef67	0.071745686
248	0xbe1f79f0	-0.15573859
249	0x3e8b0266	0.27150267
250	0xbdf0b8a6	-0.11753969
251	0x3dc7957a	0.09745307
252	0xbe0478de	-0.12936732
253	0x3ca809a3	0.020512408
254	0xbe071bf6	-0.1319426
255	0xbe92cbe3	-0.28671178

encoder_layer1.bias f4 [128]
0	0x3d1f8b4d	0.038951207
1	0x3e3ca995	0.18424065
2	0x3c8dd5c0	0.017313838
3	0x3d93a388	0.072089255
4	0x3e78e696	0.24306712
5	0xbbec205b	-0.0072060055
6	0xbb327148	-0.0027228165
7	0xbcc2ff50	-0.023803383
8	0xbdd23754	-0.10264459
9	0x3c935247	0.017983569
10	0xbd664319	-0.056216333
11	0x3c15fd4d	0.00915463
12	0x3a234dc9	0.00062295474
13	0x3cd27d74	0.025694586
14	0x3db9f19e	0.09079288
15	0x3c5d1f41	0.013496221
16	0x3d6fd65f	0.05855405
17	0x3cb4624d	0.02201953
18	0x3da9f0cf	0.08297884
19	0xbd20f804	-0.039299026
20	0xbb1adfea	-0.0023631998
21	0x3c504491	0.01271166
22	0x3cfbb48e	0.030725744
23	0x3d493fa0	0.049132943
24	0x3d97ffc5	0.07421831
25	0x3cc8d53d	0.024515742
26	0x3d8b5130	0.06802595
27	0xbd0899f9	-0.033349965
28	0xbde80ae7	-0.113302045
29	0xbb1fc534	-0.0024379017
30	0xbcf11059	-0.02942674
31	0x38e33eba	0.00010835887
32	0xba58c57a	-0.00082691724
33	0x3d1f3120	0.03886521
34	0xba0e0e5e	-0.0005419011
35	0x3bf3e6cd	0.007443285
36	0x3db81e9e	0.08990215
37	0x3da18288	0.07886225
38	0x39f10dcd	0.00045977384
39	0xbdd0519e	-0.10171817
40	0x3bb41390	0.005495496
41	0x3c27658f	0.010217085
42	0x3d1f01d6	0.03882011
43	0xbbf06e8b	-0.0073373965
44	0x3b9bb905	0.0047522807
45	0xbd4fce96	-0.050734125
46	0x3cc63c37	0.024198635
47	0x3dbaba05	0.09117512
48	0x3e3d13b9	0.18464555
49	0xbcafdc5d	-0.021467382
50	0xbc3e9b95	-0.011633773
51	0xbbf585b0	-0.0074927434
52	0xbb01d328	-0.0019809697
53	0x3d1cb161	0.0382551
54	0x3dd0572a	0.10172875
55	0xbd0d73b7	-0.034534182
56	0x3cf90695	0.030398646
57	0x3b8b3d69	0.004249264
58	0x3e08629b	0.13318865
59	0xbc0a95e7	-0.008458591
60	0x3bb454de	0.005503281
61	0x3d201483	0.03908206
62	0xbc95b4a2	-0.018274609
63	0x3c000775	0.007814278
64	0x3df44df8	0.11928934
65	0x3cc67b53	0.024228727
66	0x3caf5662	0.021403495
67	0xba3e7c33	-0.0007266432
68	0x3c660ab0	0.014040634
69	0xbcfd05b3	-0.030886507
70	0x3b362d84	0.0027798126
71	0x3cebbdd3	0.028777039
72	0x3e658bf8	0.22416675
73	0x3e48d9f9	0.196144
74	0x3d6247f2	0.055244394
75	0x3aa98032	0.0012931882
76	0x3a8ef604	0.0010907059
77	0x3de81c68	0.11333543
78	0xbd44dbca	-0.04806117
79	0x3d59c776	0.053168736
80	0x3c8e21b9	0.017350065
81	0xbd38d33f	-0.045123335
82	0x3d64dfbe	0.05587744
83	0x3c431a2b	0.011908094
84	0x399980bc	0.0002927835
85	0x3db11bf0	0.08647907
86	0x3ca52b23	0.02016217
87	0x3b4d0d3e	0.003128841
88	0xbd085bef	-0.0332908
89	0x3d049ee4	0.032378092
90	0x3b38845e	0.002815507
91	0xbcd7cc9c	-0.026342683
92	0x3bfa40ef	0.007637135
93	0x3c17b5d6	0.009259662
94	0x3d41b8e2	0.04729546
95	0xba53cad1	-0.0008079233
96	0x3cae60f4	0.021286465
97	0xbc5d45fc	-0.013505455
98	0x3c1ed0c2	0.009693326
99	0xbbf7da51	-0.007563867
100	0x3bba8be6	0.0056929467
101	0xbbc38a6c	-0.005967429
102	0x3e361035	0.1777962
103	0x3db30039	0.08740277
104	0x3c04a064	0.008094881
105	0x3e2766b9	0.1634778
106	0x3e09459b	0.13405459
107	0x3c86f2b0	0.016473144
108	0x3e196f3f	0.14983843
109	0xbe0b5339	-0.13605966
110	0xbdbda8ed	-0.09260736
111	0x3ded84c0	0.11597586
112	0x3d9bc099	0.076050945
113	0x3c11e0e3	0.008903715
114	0x3d24859e	0.04016649
115	0x3e3d56ed	0.18490191
116	0x3c1f0c20	0.009707481
117	0x3ccf73d6	0.02532379
118	0xbce8fe9f	-0.028441725
119	0x3dd33526	0.10312872
120	0x3e1e0f9c	0.15435642
121	0xbc1ed98c	-0.009695422
122	0x3d72614d	0.059174825
123	0x3bf9d847	0.007624659
124	0x3c4b8983	0.012422922
125	0x3c8f04f4	0.017458417
126	0x3d1ee94b	0.038796704
127	0xbc1bac5e	-0.009501545

encoder_layer2.weight f4 [64, 128]
0	0x3a1f340e	0.00060731254
1	0x3b105620	0.002202399
2	0x3a5bd30e	0.00083856366
3	0xbb036a2c	-0.0020052297
4	0x3b430449	0.0029757193
5	0xb945c6b7	-0.00018861411
6	0xbabea3c5	-0.0014544657
7	0x3bc1176b	0.005892684
8	0x3bb49c44	0.0055117924
9	0xba1e6f22	-0.0006043782
10	0x3b5cac6b	0.0033672105
11	0xba9248d4	-0.001116062
12	0xb994785f	-0.00028318443
13	0x3983a918	0.00025112252
14	0xbaf7511d	-0.0018868778
15	0xba0544c7	-0.0005083796
16	0x3844bd9b	4.6906625e-05
17	0x3a517d1b	0.00079913595
18	0x3a96cfa0	0.0011505969
19	0xbb8d4ed0	-0.0043123737
20	0xba5f134a	-0.0008509649
21	0x3a225300	0.00061921775
22	0xbb12d33a	-0.0022403733
23	0x39b46310	0.00034406083
24	0xbb4344e0	-0.0029795691
25	0xbb055aa7	-0.0020348222
26	0xbaa5a3d6	-0.0012637328
27	0x3aa490d7	0.0012555373
28	0x3bb5c5ba	0.0055472525
29	0x3b7582f0	0.0037462078
30	0xb8c4c0d2	-9.381924e-05
31	0xb8e7fcc4	-0.000110620196
32	0x3ad2422b	0.0016041448
33	0xbb1917f3	-0.0023360222
34	0xb86b84b9	-5.6151974e-05
35	0x395682ca	0.00020457353
36	0x3add53d1	0.0016885941
37	0x3a321a0e	0.00067940436
38	0xb9f9e25f	-0.0004766164
39	0x3c3d38b5	0.011549165
40	0x39695b94	0.00022254727
41	0x3b610e84	0.0034340927
42	0xbb74b8bf	-0.0037341563
43	0x38e227c4	0.00010783927
44	0xb9dad399	-0.00041737853
45	0x3b2021b9	0.0024434163
46	0x39b05009	0.00033628967
47	0xbb626ac3	-0.0034548498
48	0x3a85165c	0.0010153758
49	0xba0937c9	-0.0005234448
50	0x3b856f1d	0.0040720836
51	0xbac22e83	-0.0014814887
52	0xbb040b83	-0.0020148463
53	0x3a261c3c	0.0006336605
54	0xbbe17a32	-0.006881022
55	0x3ba1f003	0.0049419417
56	0xbaa73ea9	-0.0012759763
57	0x3892006b	6.9619e-05
58	0xb90dd124	-0.00013524719
59	0x396397ec	0.00021705002
60	0x3a14c56d	0.00056751707
61	0x391f0b8f	0.00015167728
62	0xba34359e	-0.00068744447
63	0x38bd0d5d	9.0147114e-05
64	0xbb2e0860	-0.0026555285
65	0x3a559a7c	0.0008148325
66	0x3acebbd5	0.0015772531
67	0xb950aeb0	-0.00019901502
68	0xbab59328	-0.001385306
69	0x3b2a3a0e	0.0025974545
70	0x38be98cc	9.088367e-05
71	0xba5f1d8b	-0.0008511177
72	0xb9eb26c0	-0.00044851564
73	0xbbe04287	-0.006843868
74	0xbb90347a	-0.004400787
75	0x38078bda	3.2316755e-05
76	0x3a864c71	0.001024617
77	0xb9ba05c1	-0.00035480972
78	0x3b810ad1	0.003938057
79	0x3a07c770	0.000517956
80	0x3adcffb4	0.0016860873
81	0x3b97144d	0.0046105743
82	0x3aa7a833	0.0012791216
83	0x395f1560	0.000212749
84	0x39f3fed4	0.00046538434
85	0x3a72379c	0.0009239854
86	0x3a11ef07	0.0005566929
87	0x3abbeea6	0.001433809
88	0xb90804dd	-0.00012971782
89	0x3ae850cd	0.0017724276
90	0xba6d6b4e	-0.0009056822
91	0x3afe140e	0.0019384639
92	0xb8ea4a57	-0.000111718364
93	0xb925eb60	-0.0001582331
94	0xba8945e4	-0.00104731
95	0xbac7f328	-0.0015254961
96	0x3a2c1441	0.00065642974
97	0xba964cc0	-0.0011466965
98	0x39844c0d	0.00025233664
99	0xba32a2f3	-0.00068144425
100	0xbb6c7d5c	-0.0036085462
101	0xba26fd4b	-0.0006370141
102	0x3b43b4df	0.0029862446
103	0xbb1f3a76	-0.002429632
104	0xb96cc772	-0.00022581013
105	0xbb633ebd	-0.0034674846
106	0xbb91a553	-0.004444757
107	0xba70efbf	-0.00091909984
108	0x3be4b0a9	0.0069790673
109	0x3bcbe432	0.0062222714
110	0x3beb3225	0.0071776086
111	0x3a92a8a2	0.0011189173
112	0xbb40c514	-0.0029414343
113	0x3a0656d1	0.0005124631
114	0xba72020f	-0.0009231874
115	0x3ae62ed1	0.001756156
116	0xba62d898	-0.0008653491
117	0xbab2b704	-0.0013634865
118	0x3c162157	0.009163222
119	0x3ad4544e	0.0016199441
120	0xbb96f108	-0.00460637
121	0xb9f59e17	-0.00046847828
122	0xbb4d1177	-0.0031290927
123	0x398a4e9b	0.00026379977
124	0x3b92fc09	0.0044856113
125	0xbb152539	-0.0022757782
126	0x3b494452	0.0030710888
127	0xba003560	-0.0004890766
128	0x3ca53f8d	0.020171905
129	0x3d8f0e65	0.069851674
130	0xbbd3ece7	-0.00646745
131	0x3db6f1c5	0.08932833
132	0x3d994cb6	0.074853346
133	0xbc81dba4	-0.015851803
134	0x3d3dfc24	0.04638304
135	0xbdd4b9a4	-0.10386971
136	0xbea7e440	-0.32791328
137	0x3ce83102	0.028343681
138	0xbe249c8b	-0.16075341
139	0x3d4b5374	0.049640134
140	0x3c615b49	0.013754674
141	0x3c0fe6f0	0.008783087
142	0x3e0bea94	0.13663703
143	0x3d34cafc	0.044138893
144	0x3d63c6fb	0.055609684
145	0xbca1e4a9	-0.019762354
146	0xbc9414d1	-0.018076332
147	0x3e3e1bf6	0.18565354
148	0x3cdc4ba4	0.026891537
149	0xbc725634	-0.01479106
150	0x3df30ed8	0.118680656
151	0x3d4c97b3	0.04994936
152	0x3e281064	0.16412503
153	0x3df2198f	0.11821281
154	0x3def4ea0	0.116849184
155	0xbde930ff	-0.113862984
156	0xbe665d20	-0.22496462
157	0x3cdeb6dd	0.027186805
158	0xbd6104da	-0.054936267
159	0xbb0bc26f	-0.0021325608
160	0xbd8bb221	-0.06821085
161	0x3de08012	0.109619275
162	0xbc141d82	-0.009040238
163	0x3c107382	0.008816602
164	0xbd510f4a	-0.05103997
165	0xbcf467fb	-0.029834738
166	0x3cb6e6d6	0.022326868
167	0xbea3dc12	-0.32003838
168	0xbb24a356	-0.002512177
169	0xbd8e4b09	-0.069479056
170	0x3e23192a	0.15927568
171	0xbc862ad1	-0.016377838
172	0x3cc08727	0.023501946
173	0xbdda3dd8	-0.10656327
174	0x3c21a7b4	0.009866644
175	0x3e511798	0.20419157
176	0x3e1ae342	0.15125754
177	0xbcee2612	-0.029070888
178	0xbe491f13	-0.1964076
179	0x3d2028ce	0.039101414
180	0x3d9e0656	0.07716052
181	0x3ce7bdbd	0.028288716
182	0x3eb9bd80	0.3627739
183	0xbe759cda	-0.23985615
184	0x3dfe3944	0.12413266
185	0x3c450258	0.012024485
186	0xbae0acd6	-0.0017141353
187	0xbd8209ff	-0.06349563
188	0xbcfb5960	-0.030682266
189	0xbb930db8	-0.0044877194
190	0xbbb06c93	-0.005384037
191	0x3bcfb5f4	0.006338829
192	0x3e43a8a5	0.19107302
193	0xbcb8a2ef	-0.02253863
194	0xbd6babd6	-0.057536922
195	0x3af19762	0.0018431956
196	0x3ce1029e	0.027467068
197	0xbe2101fd	-0.15723415
198	0x390181d1	0.00012350759
199	0x3d842b4f	0.06453573
200	0x3e6c20d8	0.23059404
201	0x3f004e6a	0.5011965
202	0x3e84cdfb	0.259384
203	0x3a654662	0.00087461446
204	0xbd9e8850	-0.07740843
205	0x3e0a7ad7	0.13523422
206	0xbe8fea5e	-0.28108495
207	0x3c8e290e	0.01735356
208	0xbd100d16	-0.03516873
209	0xbe325b6c	-0.17417687
210	0x3d0ec8c3	0.03485943
211	0x3b3e5f83	0.0029048629
212	0xbd525e32	-0.051359363
213	0xbc704979	-0.014665955
214	0x3c04104d	0.008060527
215	0xbd5e41fa	-0.05426214
216	0xbd21aa10	-0.039468825
217	0xbdbc4573	-0.09192934
218	0x3d01b96c	0.031670973
219	0xbb87d5fe	-0.004145383
220	0x3cbdd3ac	0.023172222
221	0x3cab54ac	0.020914398
222	0x3d802a88	0.06258112
223	0x3d61eec7	0.055159356
224	0x3ba2b8a1	0.004965857
225	0x3cc4491e	0.023960646
226	0x3b83bdb8	0.004020419
227	0x3c845f76	0.0161588
228	0x3e1cbf19	0.15307273
229	0x3c51531e	0.012776164
230	0xbdd3009f	-0.10302853
231	0x3e089ce9	0.13341106
232	0xb948c3ca	-0.00019146423
233	0x3e171d65	0.14757307
234	0x3e88d201	0.2672272
235	0x3d7b1091	0.061295096
236	0x3dc03707	0.09385496
237	0xbe710d09	-0.23540129
238	0xbe8ed05c	-0.2789334
239	0x3d46e9c2	0.048562773
240	0x3e1cbcb7	0.15306364
241	0x3c88a247	0.016678942
242	0x3d8c0f9b	0.06838914
243	0x3dd731fa	0.10507579
244	0x3d275ee4	0.04086198
245	0x3d886860	0.06660533
246	0xbe5d272a	-0.21596971
247	0x3dee5825	0.11637906
248	0x3e65c538	0.22438514
249	0x3baf33c5	0.0053467476
250	0x3e1c2dba	0.15251818
251	0xbc80882c	-0.015689932
252	0xbe20bac1	-0.15696241
253	0x3deaf2b1	0.11472071
254	0xbe054596	-0.13014826
255	0xbb875d63	-0.0041310056

encoder_layer2.bias f4 [64]
0	0x3d4e10d2	0.05030901
1	0x3dac29fd	0.08406446
2	0xbd789361	-0.060687426
3	0xbc5dce25	-0.013537918
4	0xbd12ee9f	-0.035872098
5	0x3de4098f	0.11134636
6	0x3d02fd78	0.031980008
7	0x3d693b63	0.0569414
8	0x3ea3fa94	0.32027113
9	0x3e4ce8c6	0.20010671
10	0x3d5e8771	0.054328386
11	0xbb89feaf	-0.004211269
12	0x3d65baa2	0.05608619
13	0x3e1217b1	0.1426685
14	0xbc8ba980	-0.017048597
15	0xbb40a088	-0.002939256
16	0x3ca75e0e	0.020430591
17	0x3d797778	0.06090495
18	0x3d154192	0.036439486
19	0xbe322934	-0.1739853
20	0x3cb75c2e	0.022382822
21	0x3cfa8c03	0.03058434
22	0xbd770fda	-0.06031785
23	0xbe64614d	-0.22302742
24	0xbcde8577	-0.02716325
25	0x3ce1c486	0.02755953
26	0x3c55fc05	0.013060574
27	0xbca1586d	-0.019695485
28	0x3e339d24	0.17540413
29	0x3d1178dc	0.03551565
30	0xbd92d969	-0.07170374
31	0xbe41d7fa	-0.18930045
32	0x3d511ffc	0.051055893
33	0x3be602ed	0.0070193917
34	0xbcd61865	-0.02613468
35	0xbed5341c	-0.4164132
36	0x3dd23a84	0.10265067
37	0x3e4bf0ce	0.19916078
38	0x3d5af942	0.053460367
39	0x3df306b8	0.11866516
40	0x3d43ecc5	0.047833223
41	0xbb8427b8	-0.004033055
42	0xbc442b8b	-0.011973272
43	0xbcf1f33e	-0.029534932
44	0x3d0c6fcc	0.034286305
45	0x3d7b5c0d	0.061367083
46	0x3d8a55b1	0.067546256
47	0x3d3a3042	0.04545618
48	0x3b9d714a	0.004804765
49	0xbcee2c50	-0.029073864
50	0x3ce3c3bf	0.0278033
51	0x3d66aaed	0.05631535
52	0xbeb1e5a7	-0.34745523
53	0x3cf60f41	0.03003657
54	0xbd24e820	-0.040260434
55	0x3db5a287	0.0886889
56	0x3b80c41e	0.003929629
57	0xbd66d3a3	-0.056354176
58	0x3d5ae6d7	0.053442802
59	0x3d6f3c7d	0.058407295
60	0xbc581f1c	-0.013191011
61	0xbd0b72a2	-0.03404487
62	0x3e6ba057	0.23010384
63	0x3d657c70	0.056026876

encoder_layer3.weight f4 [32, 64]
0	0x3b1a8d4e	0.002358276
1	0xbe15e7f1	-0.1463926
2	0xbb1d452e	-0.0023997533
3	0x391aada0	0.00014751265
4	0xbb0d3b72	-0.0021550325
5	0x3c293656	0.010327896
6	0x3ad8412b	0.0016498914
7	0x3afd2822	0.0019314329
8	0x3d57b441	0.052662138
9	0x3d20ff87	0.03930619
10	0x3b0aece2	0.0021198322
11	0xb99241e5	-0.00027896385
12	0x3cb8196b	0.022473058
13	0x3ba089e7	0.0048992517
14	0xb9569ae5	-0.00020466333
15	0xb9d882cc	-0.00041296182
16	0x3a4544cb	0.00075252046
17	0x3cc392fd	0.0238738
18	0x3b1340d1	0.0022469054
19	0x3ebc277a	0.36748868
20	0x3a40c97e	0.00073542434
21	0xbd306658	-0.043066353
22	0xbbb793a4	-0.005602317
23	0xbc759456	-0.014988979
24	0x3cc85b00	0.024457455
25	0x3a3d6904	0.00072254264
26	0x398d4abc	0.00026949297
27	0xbab58574	-0.0013848976
28	0x3bccf771	0.0062550833
29	0x3afe0dc0	0.001938276
30	0xbd05001d	-0.03247081
31	0x3eaced9f	0.3377504
32	0x3b836397	0.004009675
33	0x39a7900b	0.00031960043
34	0xba11fa72	-0.00055686303
35	0xbcd5ec88	-0.026113763
36	0x3c0e3574	0.008679736
37	0xbc829de0	-0.015944421
38	0x3ae21351	0.0017248188
39	0x3b1a4ea0	0.00235454
40	0x3a889e27	0.001042311
41	0xb91a5cc5	-0.00014721144
42	0xb9e59c2b	-0.00043794638
43	0x3d8fe87e	0.07026766
44	0x3ae39f95	0.0017366285
45	0x3b2069c6	0.0024477108
46	0x3bc31184	0.0059530158
47	0xbb88e885	-0.004178109
48	0x39885b71	0.0002600807
49	0xba83fe53	-0.0010070301
50	0x3a65066f	0.00087366154
51	0xbdb9488d	-0.09047041
52	0xbdc5f726	-0.096662804
53	0x3a3bf1ee	0.0007169534
54	0xbaba5a24	-0.0014217538
55	0xbe87e04e	-0.26538318
56	0x394c11a1	0.00019461523
57	0xbac53bbd	-0.0015047711
58	0xbb98dffc	-0.004665373
59	0x3b854274	0.0040667597
60	0xba3f2384	-0.0007291364
61	0xba642a21	-0.00087037875
62	0x3c93ee0c	0.018057846
63	0x3bb7e5ef	0.005612127
64	0x3bc34a75	0.0059598037
65	0xbe2cee87	-0.16887866
66	0xbc23bc47	-0.009993619
67	0xbb5f0981	-0.0034032764
68	0xb9bd6eb2	-0.00036131364
69	0x3c94db14	0.01817087
70	0x3b6d5ab5	0.0036217396
71	0x3c67ff10	0.014159933
72	0xbdec65d5	-0.115428604
73	0xbd699fad	-0.057037044
74	0x3bf25370	0.0073952004
75	0x3b629147	0.0034571455
76	0x3a80465b	0.0009786593
77	0xbb75b427	-0.0037491412
78	0xbb9c9c29	-0.004779358
79	0xbbf0bdfd	-0.007346867
80	0x3b045298	0.0020190831
81	0x3cfe6375	0.031053284
82	0x3b0cea40	0.0021501929
83	0xbd46460d	-0.04840665
84	0x3ad6df69	0.0016393486
85	0x3ddc779e	0.10765003
86	0xbca85cda	-0.020552088
87	0xbd339bba	-0.043849684
88	0x3ba251b7	0.004953589
89	0xbb5032a7	-0.0031768472
90	0xbb356431	-0.0027678127
91	0xbbcf6e58	-0.0063302927
92	0x3a2e5ec2	0.0006651693
93	0x3b134934	0.0022474052
94	0xbd0788af	-0.033089336
95	0x3c738757	0.0148638105
96	0x3c3f684d	0.011682582
97	0x3afe74db	0.0019413488
98	0xbb4028b6	-0.002932114
99	0xbe4a57aa	-0.19760004
100	0x3beebc02	0.007285596
101	0xbd48c5d5	-0.049016792
102	0x3bb8fa14	0.005645046
103	0x3c93249c	0.017961793
104	0x3c1f8b24	0.009737764
105	0xb7321854	-1.0615291e-05
106	0xbb03c2c9	-0.0020105115
107	0x3c46bbbf	0.012129723
108	0x3bd9fd90	0.0066525415
109	0x3c03932e	0.008030696
110	0x3d02b5e8	0.03191176
111	0xbbe5f728	-0.0070179887
112	0x39a4974c	0.00031393243
113	0xbb88f219	-0.004179251
114	0x3b784300	0.0037881732
115	0x3e6b099e	0.22952887
116	0xbe2694d1	-0.16267706
117	0x3ab93892	0.0014131239
118	0xbc074c7e	-0.008257983
119	0xbc8c9523	-0.017160958
120	0x3829248d	4.032678e-05
121	0xbc1cb916	-0.009565612
122	0x3c452fe4	0.012035344
123	0x3bdb88a0	0.0066996366
124	0xba60413c	-0.00085546426
125	0xba9d49f2	-0.0012000187
126	0xbaade77a	-0.0013267838
127	0x3b3f3415	0.002917533
128	0x3b158489	0.0022814593
129	0x3e35c036	0.17749104
130	0xbb5954e6	-0.0033162176
131	0xba8bfb89	-0.0010679822
132	0xba7b1957	-0.0009578666
133	0x3c178ae1	0.00924942
134	0x3b7f413a	0.003894879
135	0x3b9b9794	0.004748294
136	0x3bf1da9e	0.0073807975
137	0x3b65bedc	0.0035056388
138	0x3b97e5af	0.0046355347
139	0xb9ca4d1a	-0.00038585888
140	0xbad5e396	-0.0016318436
141	0x3b18c0b8	0.0023308229
142	0xba820396	-0.0009919282
143	0x39ffbf30	0.00048779836
144	0x3b0a6373	0.0021116405
145	0x3c2d481e	0.010576276
146	0x3b7f5aea	0.00389641
147	0x3d0cd37f	0.034381386
148	0x3b153f99	0.0022773503
149	0xbd435486	-0.04768803
150	0xbbc3cf7f	-0.005975663
151	0x3d8c4f13	0.0685102
152	0x3bffeebd	0.0078104422
153	0x3ac90db5	0.0015339168
154	0x3a87577b	0.0010325754
155	0xbb3e304d	-0.0029020489
156	0x3b2f781f	0.0026774479
157	0x3bae6967	0.0053226235
158	0xbc35566c	-0.011067968
159	0x3bb5c764	0.005547451
160	0x3bf9ff17	0.007629286
161	0x3a7b5fa9	0.00095891446
162	0xba9624e1	-0.0011455083
163	0x3e80fa2b	0.25190863
164	0xb9c25020	-0.0003706226
165	0xbc5a067a	-0.013307208
166	0x3b65dd8e	0.0035074684
167	0x3c2c8ef5	0.0105321305
168	0x3bfc6f28	0.0077036805
169	0xb94727fc	-0.00018993014
170	0xbab708ab	-0.0013964375
171	0x3c8aa9e3	0.016926711
172	0x3b951d7f	0.0045506353
173	0x3b6683c2	0.0035173749
174	0x3c6cdac7	0.014456457
175	0x3b16c870	0.0023007654
176	0x3a0a119f	0.0005266908
177	0xbae22917	-0.0017254677
178	0x3b70ff82	0.0036773388
179	0xbe2bdd47	-0.1678363
180	0x3e9a1480	0.30093765
181	0x3a976fee	0.0011553743
182	0xbb8a6e09	-0.004224543
183	0x3d16bd59	0.03680167
184	0x39e4b50e	0.00043622445
185	0xbad804fa	-0.0016480975
186	0x3c57a51f	0.0131619265
187	0x3be3c68b	0.0069511584
188	0xba8a90f6	-0.0010571766
189	0xbb115ef2	-0.0022181836
190	0x3bbb468a	0.005715196
191	0x3b3b1ea4	0.0028552199
192	0x3b5d8b1e	0.0033804844
193	0x3d96ba0e	0.07359706
194	0xba0db9e6	-0.0005406424
195	0x3a6d6ad6	0.00090567523
196	0xbc8961bf	-0.016770242
197	0x3c5b9bb5	0.013403823
198	0x3b689764	0.0035490626
199	0x3bc16b32	0.0059026713
200	0x3d8f0009	0.069824286
201	0x3d82c27c	0.06384751
202	0x3c6c1e14	0.014411468
203	0x3a946fa2	0.0011324773
204	0x3ca784a1	0.020448985
205	0x3cc7689d	0.024341876
206	0xbaf034ac	-0.0018326244
207	0xba99ee01	-0.0011743904
208	0x3b0b9e6d	0.0021304146
209	0x3c3b9593	0.0114492355
210	0x3bb45a7b	0.00550395
211	0x3e0ab673	0.13546161
212	0x3b55398a	0.0032535517
213	0xbdcc2751	-0.099684365
214	0xbbec30bb	-0.0072079576
215	0x3d5f0aff	0.054453846
216	0x3c093ca6	0.008376276
217	0x3a7f9986	0.0009750355
218	0xb92cb870	-0.00016471907
219	0xbbec00c0	-0.007202238
220	0x3c0fcba9	0.008776584
221	0x3b8c6700	0.0042847395
222	0xbcb6bb0c	-0.022305988
223	0x3dbc4561	0.091929205
224	0x3bd239fc	0.0064156037
225	0x3aaa62df	0.0012999437
226	0xba95657c	-0.0011398043
227	0x3e63a552	0.22231033
228	0x3c1bfe97	0.009521148
229	0xbb824118	-0.003975045
230	0x3ba6e00b	0.005092626
231	0x3bbf40be	0.0058365753
232	0x399be288	0.00029732683
233	0xba412973	-0.0007368542
234	0xbb48e5c1	-0.0030654522
235	0x3ce85add	0.02836364
236	0x3b70751e	0.00366909
237	0x3bc631ca	0.006048416
238	0x3bd0012e	0.006347797
239	0xba655f48	-0.0008749855
240	0x39fbe834	0.00048047455
241	0x39a8b242	0.0003217627
242	0x3b24cb32	0.0025145528
243	0xbe61f0dd	-0.22064538
244	0x3e6c4539	0.23073281
245	0x3af6801c	0.001880649
246	0xbbdafb18	-0.0066827647
247	0xbd6360f7	-0.055512395
248	0xb9499a94	-0.00019226439
249	0x3c8e5564	0.017374702
250	0xbbe26946	-0.006909522
251	0x3bf5ae52	0.0074975872
252	0xbb4c99ef	-0.0031219681
253	0xbb7d2531	-0.0038626904
254	0x3c9b675d	0.018970186
255	0x3c88f7e7	0.016719772

encoder_layer3.bias f4 [32]
0	0x3cfd871c	0.030948214
1	0x3d81eec2	0.063443676
2	0x3bc136ea	0.005896439
3	0x3d21c1ae	0.039491348
4	0xbce40136	-0.027832609
5	0x3d3d61c1	0.046235804
6	0x3ce7bf3b	0.028289428
7	0x3a9e4aea	0.001207677
8	0x3da50cdd	0.08059094
9	0x3d8e588d	0.069504835
10	0x3d0984ce	0.033573918
11	0x3f2ab3b7	0.66680473
12	0x3bcee100	0.006313443
13	0x3dbcdd7a	0.09221931
14	0x3cd01824	0.025402136
15	0x3f966378	1.1749105
16	0x3de3b137	0.111177854
17	0x3d078aa2	0.033091195
18	0x3cfd2483	0.0309012
19	0x3d015f6a	0.031585135
20	0x3d9840f4	0.07434264
21	0x3d67b75d	0.056571353
22	0x3cfdfa1b	0.031003049
23	0x3cc073c7	0.023492707
24	0x3d89420f	0.06702053
25	0x3d352ebc	0.044234022
26	0x3c222c80	0.009898305
27	0x3d8b3732	0.06797637
28	0x3d071292	0.032976694
29	0x3d22f521	0.039784554
30	0x3db1c606	0.08680348
31	0x3d177465	0.036976237

encoder_layer_mu.weight f4 [2, 32]
0	0x3dfca1db	0.12335559
1	0x3e998049	0.29980686
2	0xbeae0ffd	-0.33996573
3	0xbe73523e	-0.23761842
4	0xbe7d3dd2	-0.24730614
5	0xbe4d3b6a	-0.20042196
6	0xbe460f80	-0.1934185
7	0xbe35cfd4	-0.17755061
8	0xbea99e12	-0.3312841
9	0xbeb1b317	-0.34706947
10	0xbe8c17c7	-0.2736189
11	0xb948ab40	-0.00019137282
12	0xbd03e13d	-0.032197226
13	0x3ef9f2d6	0.48818082
14	0xbe21f2b4	-0.1581524
15	0x3cb1f0ae	0.02172121
16	0x3edf7335	0.43642583
17	0xbe31ffc0	-0.17382717
18	0x3e479b0e	0.19492742
19	0xbcf6d311	-0.030129941
20	0xbe5d2eef	-0.21599935
21	0x3ea3250e	0.31864208
22	0x3d89cf39	0.06728978
23	0xbd5009d3	-0.05079062
24	0x3e338c36	0.17533955
25	0x3f0793b6	0.52959764
26	0x3e8fb05c	0.2806424
27	0x3e859710	0.26091814
28	0xbdbc90b1	-0.09207285
29	0x3eabd6d0	0.33562326
30	0x3edc414b	0.43018565
31	0x3c852d98	0.016257092
32	0xbebe4c78	-0.37167716
33	0x3e2322dc	0.15931267
34	0xbd6550fb	-0.055985432
35	0xbe2cdd64	-0.16881329
36	0xbdf2e251	-0.11859573
37	0x3e8e3d2c	0.27781045
38	0xbe3475a5	-0.17623003
39	0x3e60d735	0.21957095
40	0xbe839532	-0.25699764
41	0x3e1b969e	0.15194175
42	0xbe728e68	-0.23687136
43	0xbafef2bf	-0.0019451006
44	0x3e81034a	0.25197822
45	0x3d68239f	0.056674596
46	0x3e910a8b	0.28328356
47	0xbaee5b20	-0.0018185116
48	0xbe4b4fec	-0.19854707
49	0x3e922a02	0.28547674
50	0x3e81da16	0.253617
51	0x3e9a9198	0.30189204
52	0xbe68c014	-0.22729522
53	0xbe79ff11	-0.24413706
54	0x3e790fc9	0.24322428
55	0x3e9612a3	0.29311094
56	0x3e57b9d7	0.21066986
57	0xbdf42c70	-0.11922538
58	0x3e7947d3	0.24343805
59	0xbe9c56fb	-0.3053511
60	0xbe8e4632	-0.2778793
61	0x3e1bd98e	0.1521971
62	0xbe2561e2	-0.1615062
63	0x3e8304fc	0.2558974

encoder_layer_mu.bias f4 [2]
0	0x3e39caf1	0.18143822
1	0x3cf69063	0.030098146

encoder_layer_sigma_square.weight f4 [2, 32]
0	0x3c7fad5e	0.015605299
1	0xbcd69bde	-0.02619737
2	0xbbc16186	-0.0059015183
3	0xbd20d21f	-0.039262887
4	0xbbdd4b5e	-0.0067533692
5	0xbccadb9b	-0.02476292
6	0xbbf9833f	-0.0076145227
7	0xbc0485ff	-0.008088588
8	0xbd41c1b5	-0.047303874
9	0xbd9625d5	-0.07331435
10	0xbcca979e	-0.0247305
11	0xbf33afb2	-0.70189965
12	0xbc034bac	-0.008013647
13	0xbc4afbde	-0.012389151
14	0xbd1c5f02	-0.038176544
15	0xbf99d514	-1.2018151
16	0xba9ac569	-0.00118081
17	0xbca0040b	-0.019533178
18	0xbd1cc70b	-0.03827576
19	0xbcf97c32	-0.030454729
20	0xbdccd51c	-0.10001585
21	0x3cfea66b	0.031085214
22	0xbd69f8c2	-0.057122
23	0xbd12f723	-0.03588022
24	0xbdb9d4d9	-0.090738006
25	0x3cb0c65b	0.021578958
26	0x3c820c07	0.015874876
27	0x3b4573e1	0.0030128884
28	0xbc06a2ce	-0.008217527
29	0x3bc6a963	0.006062673
30	0xbcc154c9	-0.023599999
31	0xbd2f3de9	-0.04278365
32	0x3cf47fbe	0.029846068
33	0xbcb85cd8	-0.022505209
34	0x3b129cbb	0.002237125
35	0xbd168ab5	-0.036753375
36	0x3be3f323	0.0069564744
37	0xbc735acd	-0.014853192
38	0x3b31a05b	0.0027103636
39	0xbbbfe651	-0.0058563133
40	0xbd092fb9	-0.033492777
41	0xbd96997a	-0.07353492
42	0xbbe1db24	-0.0068925787
43	0xbf3e7146	-0.7439159
44	0x3cc5dfb8	0.024154529
45	0xbcb1754e	-0.02166238
46	0xbcb96860	-0.022632778
47	0xbfa377cf	-1.2770938
48	0xbaf092a1	-0.0018354246
49	0x3adb4bee	0.0016731003
50	0xbcc36734	-0.023852922
51	0xbc21a1cb	-0.009865235
52	0xbda199d3	-0.07890668
53	0x3cfeb37b	0.031091442
54	0xbd062502	-0.032750137
55	0xbca051ff	-0.019570349
56	0xbd97e223	-0.07416179
57	0x3c72ba11	0.0148148695
58	0x3c849114	0.01618246
59	0x3bf13b2f	0.0073617916
60	0x3b458b7b	0.0030142951
61	0x3c811444	0.015756734
62	0xbcabfb87	-0.020993961
63	0xbb6bc5c8	-0.003597604

encoder_layer_sigma_square.bias f4 [2]
0	0xbf03770e	-0.5135354
1	0xbf0964f6	-0.5366968

decoder_layer1.weight f4 [32, 2]
0	0x3ed74936	0.42048043
1	0xbe8a5643	-0.27018937
2	0xbb02aa1e	-0.0019937824
3	0x3b88e265	0.004177379
4	0x3c97947a	0.018503416
5	0xbcf54280	-0.029938936
6	0x3da4e76e	0.08051954
7	0x3ec5faf8	0.38668036
8	0x3a389e31	0.00070426153
9	0xba9c7427	-0.0011936472
10	0xbe4f38d9	-0.2023653
11	0x3e973e16	0.29539555
12	0xbd82705a	-0.063690856
13	0xbf1f9b8f	-0.6234674
14	0x3a2bb71a	0.00065504166
15	0xba84105e	-0.0010075679
16	0x3cc54c0c	0.024084114
17	0x3d1c12fb	0.03810404
18	0x3bee1ace	0.007266379
19	0x3dbe3ab6	0.09288542
20	0x3e7cc8d2	0.24685982
21	0xbe20c53c	-0.15700239
22	0xbd4ce54f	-0.050023373
23	0x3d884d82	0.066554084
24	0xb8a8907f	-8.037779e-05
25	0xbb0b6c3d	-0.0021274232
26	0xbe86b4b6	-0.26309747
27	0xbf0c6b49	-0.54851204
28	0x3d315472	0.043293424
29	0xbd666494	-0.056248263
30	0x3b34df68	0.002759898
31	0xbbd3c5d8	-0.006462794
32	0xbf39a966	-0.72524107
33	0x3d9c6cf8	0.07637972
34	0xbd08558c	-0.03328471
35	0x3c5568f2	0.013025509
36	0x38aa0011	8.106244e-05
37	0x381279eb	3.4922658e-05
38	0x3cec9e57	0.028884096
39	0xbd0ba4a8	-0.034092575
40	0xbe45b83f	-0.19308566
41	0xbe268aab	-0.16263835
42	0x3e91d255	0.28480783
43	0xbe301f38	-0.17199409
44	0xbe8ac6bd	-0.2710475
45	0x3f011af4	0.5043175
46	0xbe6458f5	-0.2229956
47	0xbcae24e4	-0.021257825
48	0x3d95b871	0.0731057
49	0xbe00648b	-0.12538354
50	0xbd88c07e	-0.0667734
51	0x3e853320	0.26015568
52	0x3b17a851	0.0023141096
53	0x3ce42308	0.027848735
54	0xbcbef9eb	-0.02331253
55	0x3d6ed49a	0.05830822
56	0x3c5ea740	0.01358968
57	0xbcca5403	-0.024698263
58	0x3c0b12f3	0.008488405
59	0x3d26ab8a	0.040690936
60	0xbba434c9	-0.0050111753
61	0x3c0b6c3e	0.008509694
62	0x3f827f42	1.0195086
63	0x3ecd7c34	0.40133822

decoder_layer1.bias f4 [32]
0	0x3b596d76	0.0033176816
1	0xba82bd03	-0.0009974543
2	0x3c7e9714	0.0155389495
3	0xbe127f21	-0.14306308
4	0x3a23a705	0.00062428444
5	0xbdcd8630	-0.1003536
6	0xbd934a84	-0.07191947
7	0x3a130a1b	0.0005609111
8	0x3d126162	0.035737403
9	0xbd0ca62a	-0.034338154
10	0x3d5d4b36	0.054026805
11	0xbd3ab48f	-0.04558235
12	0x3b9554af	0.004557214
13	0xbe308618	-0.17238653
14	0x3d3306d0	0.04370767
15	0x3c04c747	0.008104152
16	0xbe11712c	-0.14203328
17	0xbd1ba0b5	-0.03799506
18	0x39db20f0	0.00041795475
19	0x3cdc1b8f	0.02686861
20	0xbe893bfd	-0.2680358
21	0x3d9dc663	0.07703855
22	0xbd3794af	-0.04481953
23	0xbe1c585f	-0.15268086
24	0x3c9afa24	0.018918104
25	0xbe154497	-0.14576946
26	0xbc9e4cff	-0.019323824
27	0x3c1f23d0	0.009713128
28	0x3c153424	0.00910667
29	0x3cb1fcc5	0.021726975
30	0xbb8cecef	-0.0043007056
31	0xbe00f8b0	-0.12594867

decoder_layer2.weight f4 [32, 32]
0	0xbe288290	-0.16456056
1	0x3bd7d201	0.0065863137
2	0xbd3f4d99	-0.046704862
3	0x3eba28be	0.3635921
4	0xbb20bb3e	-0.0024525668
5	0x3eb8f214	0.3612219
6	0xbe0fae4f	-0.14031337
7	0xbb13d7dd	-0.0022559084
8	0x3cb80c72	0.022466872
9	0x3da910f9	0.082551904
10	0xbdd3db7d	-0.103445984
11	0x3de1cf7d	0.110259034
12	0xbb57abcd	-0.0032908798
13	0xbea43b1e	-0.32076353
14	0xbdb29033	-0.0871891
15	0xbc00acad	-0.007853669
16	0x3d715b93	0.058925223
17	0x3d06a510	0.03287226
18	0x39a020de	0.00030542066
19	0xbd2b59f1	-0.04183382
20	0xbec71990	-0.3888669
21	0xbe366155	-0.17810567
22	0x3f003023	0.5007345
23	0xbd2e3aa8	-0.042536408
24	0xbe1e6c69	-0.15471043
25	0x3edfde82	0.43724447
26	0x3d125d64	0.035733595
27	0x3de0b2fb	0.10971638
28	0xbd364ffc	-0.044509873
29	0x3d781b01	0.060572628
30	0x3c800d50	0.015631348
31	0xbe86d1b5	-0.2633187
32	0x3b3e8558	0.0029071178
33	0xbb0bf11a	-0.0021353425
34	0xbb761a1e	-0.0037552188
35	0xbbe9851e	-0.0071264645
36	0xb99a579d	-0.00029438446
37	0xbc5b7236	-0.013393929
38	0xbd92e87c	-0.07173249
39	0x39984864	0.00029045634
40	0xbd00d59b	-0.03145371
41	0xbc08a771	-0.008340702
42	0x3b27b969	0.002559269
43	0xbc6b0bce	-0.014346076
44	0xbb35dffd	-0.0027751916
45	0xbd51fc9a	-0.05126629
46	0xbb389560	-0.0028165206
47	0x3c0abab0	0.008467361
48	0x3c7d2535	0.015450765
49	0x3c159172	0.009128915
50	0x3933351d	0.00017090557
51	0xbb1db491	-0.0024063925
52	0x3bfc216a	0.007694413
53	0xbb1c429c	-0.0023843413
54	0xbd52dda2	-0.051480897
55	0x3d513a36	0.051080905
56	0xbb4c0250	-0.0031129308
57	0xb9929eae	-0.00027965516
58	0xba4a0170	-0.00077059027
59	0xbb251286	-0.0025188043
60	0xbb5899c9	-0.0033050647
61	0xbbb3e054	-0.0054893885
62	0xba08637f	-0.00052028144
63	0xbd5f5e20	-0.054533124
64	0xbde06981	-0.10957623
65	0x3c6543c1	0.013993205
66	0xbcdaa315	-0.026689092
67	0x3d38b289	0.04509214
68	0xba7e2175	-0.00096943165
69	0xbdae7223	-0.085178636
70	0xbeac4b8d	-0.3365139
71	0xba9f53bf	-0.0012155696
72	0xbcf042d9	-0.02932875
73	0x3d5083a3	0.05090679
74	0xbdf25457	-0.11832493
75	0x3ca8baed	0.020596946
76	0xbbcdedc8	-0.0062844492
77	0xbe9bdb81	-0.30440906
78	0xbd4f13f5	-0.050556142
79	0xbc18bdaa	-0.009322563
80	0xbecdbdac	-0.4018377
81	0x3cf763da	0.03019898
82	0xba897361	-0.0010486656
83	0xbd5ba77d	-0.053626526
84	0x3e22eb84	0.15910155
85	0xbdb29b25	-0.08720998
86	0xbe1a8d40	-0.15092945
87	0x3d1aafe1	0.037765387
88	0xbd8279a4	-0.06370857
89	0xbcdca985	-0.026936302
90	0x3d33abf6	0.043865167
91	0x3ba4de16	0.0050313575
92	0xbc49c36d	-0.01231466
93	0x3c5fc064	0.013656709
94	0x3b38021a	0.0028077425
95	0x3e5c47c2	0.21511748
96	0xbdba85e4	-0.09107569
97	0xbbc90947	-0.006135139
98	0xba2ac1a2	-0.0006513839
99	0x3da0380a	0.078231886
100	0xb965430f	-0.00021864123
101	0x3cd39a8a	0.025830526
102	0x3d853ba1	0.06505514
103	0x3a54b3de	0.00081139605
104	0xbd143fa9	-0.036193524
105	0x3c5a1493	0.013310569
106	0xbd84efc8	-0.06491047
107	0xbb9db3c8	-0.0048126914
108	0xba132c8e	-0.0005614244
109	0x3dfbc831	0.12294043
110	0xbc3d3065	-0.011547183
111	0x3bfcb191	0.0077115973
112	0xbd26b177	-0.040696587
113	0x3bf7e6d2	0.0075653577
114	0xb8a99aa6	-8.0873535e-05
115	0xbbea65bf	-0.0071532424
116	0x3d4a99cd	0.049463082
117	0xbd9823c9	-0.074287005
118	0x3bdc5aab	0.0067246757
119	0xbbf1f4c8	-0.0073839165
120	0xbc9cc827	-0.019138409
121	0x3c17f586	0.009274846
122	0xbca87583	-0.020563846
123	0xbb043c5b	-0.0020177576
124	0xbc200ee1	-0.009769172
125	0xb9c7c209	-0.00038100805
126	0x3aa9fc31	0.0012968836
127	0x3e1c6f78	0.15276897
128	0x3de9e38c	0.11420354
129	0xbc3b1efd	-0.011420962
130	0xbb19ff5e	-0.0023498158
131	0xbd8bc287	-0.068242125
132	0x3a1e3ee6	0.0006036594
133	0x3c5b407b	0.013382073
134	0xbd669909	-0.05629829
135	0xbac2476d	-0.0014822312
136	0xbc1cfa76	-0.009581199
137	0xbcb1a8a3	-0.021686858
138	0x3d389924	0.04506792
139	0xbbc26695	-0.005932639
140	0xbb6efe67	-0.0036467554
141	0xbdf7dd9c	-0.121028155
142	0x3bd53acb	0.006507253
143	0x3b6a8060	0.0035782084
144	0x3d1af2ae	0.037829094
145	0xbb28423d	-0.0025674247
146	0x3897fdb6	7.2474984e-05
147	0x3b1cc1c7	0.0023919211
148	0xbd699e55	-0.057035763
149	0x3da56480	0.080758095
150	0x3d86f087	0.06588846
151	0xbde002f1	-0.10938061
152	0x3c8d4765	0.017245958
153	0xbbaa5213	-0.0051977723
154	0xbb55761e	-0.0032571624
155	0xbb4c4984	-0.0031171748
156	0xbb1012c3	-0.002198384
157	0x3bbe2dc9	0.005803798
158	0xbaaac316	-0.0013028111
159	0xbe5a04ec	-0.2129094
160	0x3b9adfd0	0.0047263876
161	0xba60b058	-0.0008571199
162	0xb935ca7b	-0.00017336935
163	0x3bf60f79	0.0075091687
164	0xb792905b	-1.7471777e-05
165	0xbb7e45e9	-0.0038798994
166	0xbc429a81	-0.011877657
167	0xb940d914	-0.00018391415
168	0x3cb96e0d	0.022635484
169	0x3b261b42	0.0025345837
170	0x3b2b10ef	0.0026102623
171	0xba2977a1	-0.00064646645
172	0xb961cef0	-0.00021534762
173	0x3c54e28d	0.012993467
174	0xb94db081	-0.00019616076
175	0x3b0ba10f	0.0021305715
176	0xbc1c4925	-0.009538923
177	0xba28e091	-0.00064421544
178	0xb7aa601f	-2.031034e-05
179	0xbb3d8392	-0.0028917533
180	0xbb62a29e	-0.003458179
181	0x3a836c15	0.0010026718
182	0xbac84919	-0.0015280574
183	0x3cf76dcb	0.03020372
184	0x3a27bdf1	0.0006398848
185	0x3b852c15	0.004064093
186	0x3b1ca1c4	0.002390013
187	0xb9fe6d4e	-0.00048528094
188	0x3a1a74cc	0.0005892038
189	0xba9ee1ea	-0.0012121771
190	0x39359b83	0.00017319438
191	0xbb96476f	-0.0045861523
192	0xbd63b77b	-0.055594902
193	0x3a84c2ba	0.0010128834
194	0x3a7b8bab	0.0009595702
195	0x3c696852	0.014246063
196	0x3aecbe17	0.0018062022
197	0xbd0c101f	-0.03419506
198	0x3ccf38ce	0.025295641
199	0x3c1c68b3	0.009546447
200	0xbd250823	-0.040290963
201	0xbd2eac92	-0.042645045
202	0xba9f255c	-0.0012141871
203	0xbc958cc9	-0.018255608
204	0xbbe57aaa	-0.007003148
205	0xbd7b71ac	-0.061387703
206	0xba80000a	-0.0009765637
207	0x3c006e94	0.007838864
208	0x3d9c1c59	0.076225944
209	0x3c881762	0.016612712
210	0xbb0a2978	-0.0021081846
211	0x3c10b937	0.008833221
212	0xbd8cbb8c	-0.06871709
213	0xbcb3c158	-0.02194278
214	0xbd96dc85	-0.073662795
215	0xbd9a34d2	-0.07529606
216	0x3c8b3583	0.01699329
217	0xbb7e3238	-0.0038787257
218	0xbca0ac22	-0.01961333
219	0xbd003a6d	-0.03130572
220	0x3b4846c8	0.0030559767
221	0xbbf38d51	-0.0074326177
222	0x3bc0e62e	0.0058868146
223	0x3cd2fa9d	0.025754267
224	0x3d91aa93	0.071126126
225	0x3b23a65b	0.0024970982
226	0x3ba2dc2c	0.004970094
227	0xbdcf88eb	-0.10133537
228	0x39e7739f	0.00044145898
229	0x3a80cdca	0.0009826955
230	0xbe54bffd	-0.20776363
231	0x3ac87a3c	0.0015295218
232	0x3cd4d78c	0.025981687
233	0xbd18a84e	-0.037269883
234	0x3c27bf9f	0.010238557
235	0xbc24302a	-0.010021249
236	0x3b651974	0.0034957798
237	0xbe5ce9d9	-0.21573581
238	0x3c4c54ae	0.012471361
239	0x3c911a50	0.017712742
240	0xbdca44d1	-0.09876407
241	0xbd1d89f7	-0.03846165
242	0x3946931b	0.00018937553
243	0xbb37c73a	-0.0028042332
244	0xbe19e5a0	-0.15029001
245	0x3d4f61ea	0.050630488
246	0x3ccb0408	0.024782196
247	0xbcf7ed04	-0.030264385
248	0xbc6d727d	-0.014492628
249	0xbd255a8b	-0.04036955
250	0xbb1a4a28	-0.0023542736
251	0x3bc68e28	0.006059427
252	0x3c19a6d8	0.009378158
253	0x3c808495	0.01568822
254	0xbab026a6	-0.0013439253
255	0xbf029e90	-0.510232

decoder_layer2.bias f4 [32]
0	0xbcb180f2	-0.021667931
1	0x3d52da0d	0.05147748
2	0xbc8f46e0	-0.01748985
3	0xbda90d91	-0.08254541
4	0x3da78cea	0.08181174
5	0x3bc87d48	0.0061184503
6	0xbc8b46bc	-0.017001502
7	0x3e5dcee0	0.21660948
8	0xbdbc729d	-0.09201548
9	0x3db9a303	0.09064295
10	0x3c6c8788	0.01443661
11	0x3d29e8d3	0.041481804
12	0x3e34a9b0	0.17642856
13	0x3ccac5c0	0.024752498
14	0x3e27636c	0.1634652
15	0x3c1556d7	0.0091149425
16	0x3c0e55b2	0.008687424
17	0x3e560d18	0.20903432
18	0x3ba14b5a	0.0049223127
19	0x3e1ba2d6	0.15198836
20	0xbda83f7d	-0.082152344
21	0x3de16b54	0.11006799
22	0x3be0601b	0.006847394
23	0x3c4f0b2f	0.012636944
24	0xbc8888eb	-0.01666685
25	0x3ce44876	0.027866583
26	0xbdc22ee3	-0.09481599
27	0x3b753c34	0.0037419917
28	0xbd22dde6	-0.0397624
29	0xbdb32a53	-0.08748307
30	0x3d3a3d1f	0.045468446
31	0xbe026190	-0.1273253

decoder_layer3.weight f4 [32, 32]
0	0xbe0b3f1e	-0.13598296
1	0xbab8a508	-0.0014087269
2	0x3d670aff	0.05640697
3	0xbc26ad8e	-0.010173215
4	0x3b9277d2	0.00446985
5	0xba2eea28	-0.0006672465
6	0x3c385f17	0.01125314
7	0x3c8485aa	0.016177017
8	0xbbd2c548	-0.006432209
9	0x3d96a92e	0.07356487
10	0x3c20a6f7	0.0098054325
11	0x3a4a8d91	0.00077267835
12	0x3bb4c2f5	0.0055164048
13	0xbd0b96c4	-0.03407933
14	0x3d63ed6a	0.055646338
15	0x3cea7bd7	0.028623505
16	0x3af3745b	0.0018574105
17	0xbd9f54ea	-0.07779868
18	0x3aa10316	0.0012284245
19	0xbc5b7ea1	-0.01339689
20	0xbc01b063	-0.007915589
21	0xbc93cb3f	-0.018041251
22	0xbb57df4c	-0.0032939492
23	0x3a534899	0.0008059829
24	0x3a9dd893	0.0012042694
25	0xbb3d267f	-0.0028862057
26	0xbc90020a	-0.017579097
27	0x39d6f10f	0.00040996863
28	0xbd367264	-0.044542685
29	0xba79f34a	-0.0009534849
30	0xbd64733b	-0.055773955
31	0xbda8cf1b	-0.08242627
32	0xbaa864aa	-0.0012847383
33	0xb7eed131	-2.8469223e-05
34	0x3c496534	0.012292195
35	0xba25ec72	-0.00063294836
36	0x3a5580a8	0.00081444765
37	0xb8ffd803	-0.00012199583
38	0xba600438	-0.00085455505
39	0xba44b88c	-0.0007504306
40	0x3a57f084	0.0008237439
41	0xbb40f353	-0.0029441908
42	0x3a3044e0	0.00067241304
43	0xba86ad00	-0.0010274947
44	0x3982e6a8	0.00024967385
45	0x3b7e1d9f	0.003877498
46	0x3b9ad909	0.0047255796
47	0xbb3633e2	-0.002780192
48	0x39bfe91f	0.00036604048
49	0xbbffc121	-0.007805005
50	0xba47222b	-0.0007596339
51	0xbaadccad	-0.0013259851
52	0xba914349	-0.0011082675
53	0x3c0647b6	0.008195808
54	0xbaa26c09	-0.0012391816
55	0xb8a000b2	-7.629524e-05
56	0x396b61fa	0.00022447846
57	0xb97ba002	-0.00023996833
58	0xbb63be61	-0.0034750926
59	0xb8f2cae0	-0.00011577248
60	0x3bbed146	0.005823287
61	0x38b60c01	8.680672e-05
62	0x3a530f2f	0.0008051274
63	0xbb83d842	-0.0040235827
64	0x3e176e07	0.14788066
65	0x3d6b51a7	0.057450917
66	0x3e82d5c1	0.25553706
67	0xbe13efc9	-0.1444694
68	0x3e132f45	0.143735
69	0x3a3cc117	0.00072004035
70	0x3c600354	0.0136726685
71	0x3eb9b46e	0.3627047
72	0xbd972b21	-0.07381273
73	0x3e19993a	0.14999858
74	0x3cb5e5a4	0.022204228
75	0x3cdb7b25	0.026792118
76	0x3e8e2231	0.2776046
77	0xbb7d9b36	-0.003869725
78	0x3f5c486b	0.86048
79	0x3d7bdd4e	0.06149035
80	0xba6df851	-0.00090778345
81	0x3eaa324d	0.332415
82	0x3c965fc1	0.018356206
83	0x3e992879	0.2991369
84	0xbdee00e6	-0.11621265
85	0xbdcbfaa9	-0.09959919
86	0xbcbcb56c	-0.023035727
87	0x3c7e4efa	0.015521759
88	0xbd05985a	-0.032615997
89	0x3cb6763b	0.022273174
90	0xbe149dc3	-0.14513306
91	0x3c81abb9	0.015828954
92	0xbc61e09b	-0.01378646
93	0xbde7db7b	-0.113211595
94	0xbda91d16	-0.08257501
95	0xbde9a0cc	-0.11407623
96	0x39fca066	0.00048184692
97	0x3ba1bcd4	0.00493584
98	0x3c91e85f	0.017810998
99	0x3b181441	0.0023205432
100	0xbbcdf6a8	-0.006285507
101	0x34d37194	3.9384452e-07
102	0xbc112ac7	-0.008860297
103	0xbb7115d9	-0.0036786704
104	0xb9d61844	-0.0004083534
105	0x3a56fb14	0.00082008657
106	0xba02c1fd	-0.0004988013
107	0x3aff05d6	0.0019456695
108	0xbc2e9eaa	-0.010657946
109	0xbc42bbec	-0.011885624
110	0x3d00be31	0.03143138
111	0x3c06e864	0.008234117
112	0x3aa17584	0.0012318348
113	0x3d079b5a	0.03310714
114	0x3b3f68eb	0.0029206823
115	0xbc0dfe6f	-0.008666619
116	0x3b89cef8	0.004205581
117	0xbca60309	-0.02026512
118	0x3b0ba8a6	0.002131024
119	0xba89f4a3	-0.0010525178
120	0x3b88907c	0.0041676145
121	0xbb04605d	-0.0020199039
122	0x3bcb4cf6	0.006204243
123	0x3b047425	0.002021083
124	0xbc8a091f	-0.016850052
125	0x3b6fe443	0.003660456
126	0x3d98f409	0.07468421
127	0xbbb3a396	-0.0054821474
128	0xbc5a17f7	-0.013311378
129	0xbad30aae	-0.0016101205
130	0xbd0f7ec7	-0.035033014
131	0x3b0a50c3	0.0021105267
132	0xbaf5f9de	-0.0018766483
133	0xb91a3a74	-0.0001470836
134	0xbb7b1ee8	-0.0038317982
135	0x3a84f578	0.0010143956
136	0x3b2823f3	0.0025656193
137	0x3c1015aa	0.008794228
138	0xb9bdb5b7	-0.00036184277
139	0xba8df130	-0.0010829326
140	0x3a7c9308	0.00096349465
141	0xbc1f6ee8	-0.009731032
142	0xba7da305	-0.0009675476
143	0x3b27c6fb	0.002560078
144	0xbad3bebc	-0.0016154866
145	0xbbf1dc00	-0.0073809624
146	0x3a8cb54e	0.0010735185
147	0xb9f6f72a	-0.00047104928
148	0x3a8d69a3	0.0010788928
149	0xbcda968b	-0.026683113
150	0x39d61996	0.00040836324
151	0xb9cc8b29	-0.00039013595
152	0x3b3725d6	0.0027946136
153	0xbb0cfc5e	-0.0021512727
154	0x3bef684a	0.0073061334
155	0xba0d210d	-0.0005383648
156	0xba9fa691	-0.0012180378
157	0x3b008978	0.0019613188
158	0xbcd922d3	-0.026505863
159	0xbb773955	-0.0037723382
160	0x3e975c01	0.2956238
161	0xba02e989	-0.0004993906
162	0xbe13f5c2	-0.14449218
163	0x3b6acd12	0.0035827798
164	0x3d03fe90	0.03222519
165	0x3b16dd94	0.0023020254
166	0xbd59bbe6	-0.05315771
167	0x3d883274	0.06650248
168	0xbce2ed0a	-0.02770092
169	0x3b558f68	0.0032586697
170	0xbbbe4aa2	-0.005807237
171	0xbacd7343	-0.001567461
172	0x3ddefc51	0.10887969
173	0x3cba378c	0.022731565
174	0xbd059257	-0.032610264
175	0xbd461cb7	-0.04836723
176	0xbcb929fc	-0.022603028
177	0x3ccdc2b7	0.025117261
178	0xbc807904	-0.015682705
179	0x3de0bead	0.109738685
180	0xbce355fc	-0.027750961
181	0x3da059e4	0.07829645
182	0x3b28cd27	0.0025757046
183	0xbb465d1a	-0.0030267895
184	0xbbc6a5e4	-0.006062256
185	0x3c28de48	0.010306902
186	0x3c10c067	0.008834935
187	0xbc5fe936	-0.013666442
188	0x3d8d00e2	0.06884934
189	0xbce9b23a	-0.028527368
190	0xbc9ba267	-0.018998338
191	0xbd5cd1e2	-0.053911097
192	0xbd8a5d46	-0.06756072
193	0xbc1f2312	-0.009712951
194	0x3cace256	0.02110402
195	0xbbbe0341	-0.0057987277
196	0x3c05531b	0.00813749
197	0xb9a2877e	-0.00030999997
198	0xbc333f21	-0.010940344
199	0x3bf499cc	0.007464623
200	0xbbc6675b	-0.0060548014
201	0xbc90cd00	-0.017675877
202	0xbb453205	-0.0030089628
203	0xbbcc0d47	-0.0062271687
204	0x3bd3514c	0.0064489003
205	0x3cbd8672	0.023135398
206	0x3dae71f5	0.08517829
207	0xbcb8ac11	-0.022542985
208	0xbaab8513	-0.0013085924
209	0xbe01a6b2	-0.12661245
210	0xbc1eeabb	-0.009699519
211	0x3bb181be	0.005417078
212	0xbc1ebf73	-0.0096892
213	0xbd61deb0	-0.055144012
214	0xbb421149	-0.0029612354
215	0xbb0bbeb1	-0.0021323378
216	0x3b8bf2ad	0.0042708726
217	0x3b4a927a	0.003091006
218	0xbc86c4ad	-0.016451204
219	0xbbee7bc0	-0.0072779357
220	0x3cdd6316	0.027024787
221	0xbb7fdfec	-0.003904338
222	0xbcf5a1d5	-0.029984394
223	0x39f715d8	0.00047127786
224	0xbd1b215e	-0.03787362
225	0xbb1a50c2	-0.002354667
226	0xbd6f46f5	-0.05841728
227	0xbc646a15	-0.013941308
228	0x3b4e7678	0.0031503718
229	0xba0b1ade	-0.0005306433
230	0xba5262fb	-0.00080256135
231	0x3a28d79a	0.00064408185
232	0x3cf36861	0.029712858
233	0x3bfe09e5	0.0077526444
234	0xb95ec4bf	-0.00021244863
235	0xbb2c4c81	-0.0026290717
236	0xbc1d5aba	-0.00960415
237	0xbb2ba934	-0.0026193382
238	0x3dbb4d44	0.091455966
239	0xbc0f3c88	-0.008742459
240	0x3ae4240b	0.0017405761
241	0xbd1a492f	-0.03766745
242	0xbaddc191	-0.0016918649
243	0xbcac736f	-0.021051137
244	0xbc729a23	-0.014807257
245	0xbe030027	-0.12793027
246	0xbb82e501	-0.0039945845
247	0x3a118791	0.0005551512
248	0x3b125a00	0.0022331476
249	0x3a93b47b	0.0011268997
250	0xbc480762	-0.012208791
251	0xba279e07	-0.00063940923
252	0x3d356805	0.044288654
253	0xbbb8d986	-0.005641165
254	0x3d4aaa02	0.04947854
255	0xba0cd888	-0.0005372842

decoder_layer3.bias f4 [32]
0	0x3d4c7919	0.049920175
1	0xba87f730	-0.001037335
2	0xbcbf272d	-0.02333411
3	0xbc80154c	-0.015635155
4	0x3c71eeb1	0.014766381
5	0xbd7fb699	-0.062429998
6	0x3d365192	0.044511385
7	0x3ce3d1fd	0.027810091
8	0xbcc3473e	-0.023837682
9	0xbd3075fd	-0.043081272
10	0xbe43d739	-0.1912507
11	0xbbc96154	-0.0061456356
12	0x3c24963a	0.010045582
13	0x3df8afea	0.12142928
14	0x3b10d1df	0.002209775
15	0xba346b38	-0.0006882432
16	0xbb1bf8d3	-0.0023799434
17	0x3ddacfb0	0.106841445
18	0xbdbb202e	-0.09136997
19	0x3b952695	0.0045517185
20	0x3d61f847	0.055168416
21	0x3d089b9f	0.033351537
22	0x3d4a9d66	0.049466513
23	0x3b009e9a	0.0019625784
24	0xbd8f059a	-0.0698349
25	0x3c3c6709	0.011499175
26	0xbac74079	-0.001520171
27	0xbca1de50	-0.019759327
28	0x3d89b49f	0.06723904
29	0xbe0bace0	-0.13640165
30	0xbbed7697	-0.007246803
31	0x3cbe57cb	0.023235222
